agent1_checkpoint_actor_final.pth (torch_old, 85691 bytes, 14 tensors)

fc1.weight f4 [128, 24]
000000 92 91 11 3d 5e 98 58 bd 37 ec 91 3d 48 92 c9 3d
       0.035539217 -0.052879684 0.071251325 0.09842354
000010 5d ef bb bc 05 8d 67 bc 96 97 54 bd 5c 54 9c bc
       -0.022941286 -0.014132743 -0.051902376 -0.019083194
000020 9d 9b e7 bd 2b be de 3c f7 5f 3a 3d f5 ae 76 3d
       -0.11308978 0.027190289 0.045501675 0.060225446
000030 e4 91 19 3d 63 bc f1 bd 55 65 1e bd 87 b2 d7 bb
       0.037492648 -0.1180351 -0.038670857 -0.0065825614
000040 9f 25 85 bc 76 4a a2 bd 7b e9 b2 bc da 83 0b bc
       -0.01625329 -0.079243585 -0.021839848 -0.008515323
000050 69 fc 80 bc 65 4d 58 be 3d 0d 7a 3c 97 0a 8b 3d
       -0.015745359 -0.21123274 0.015261945 0.06789129
000060 f4 74 3c bd fa aa b3 3b 1d 4b bb bd 1a 4e a0 3d
       -0.046009973 0.0054830285 -0.09145186 0.07827397
000070 47 93 ab 3d f7 c5 86 3d d3 8d 97 3d 6c c5 b7 3c
       0.083777 0.065807275 0.07400098 0.022433005
000080 c2 46 05 bd e2 15 2e 3a 12 a9 8e 3d e3 26 77 3d
       -0.032538183 0.0006640834 0.06965841 0.06033982
000090 e3 67 a1 bb 09 ad b9 3c 55 b8 26 bd dc b6 8d bd
       -0.0049257143 0.022665517 -0.040703136 -0.06919643
0000a0 1a 07 88 3c af 09 43 3d 39 05 90 3d 29 9a 9e bc
       0.016604949 0.047616657 0.07032246 -0.019360619
0000b0 5a 21 e0 3d 15 37 bd 3d cc 6c d4 3c 73 6d 11 bd
       0.10943861 0.09239022 0.025930785 -0.03550477
0000c0 d9 d1 0b 3d f7 aa 09 3d b6 21 0c 3a e0 c0 00 bd
       0.034135673 0.03361031 0.00053455995 -0.03143394
0000d0 a6 ad 81 3d 44 03 90 3d 46 3e 96 bc 24 cd 82 bb
       0.06331949 0.07031873 -0.018340241 -0.00399174
0000e0 52 bf 48 3c 63 86 a8 bd 31 f0 16 3d 49 b1 b6 bd
       0.012252646 -0.08228757 0.036850158 -0.08920533
0000f0 2d 38 64 bd e4 c8 7e bd 6f 3e 1e bd 45 28 83 bd
       -0.055717636 -0.062203303 -0.03863376 -0.06404165
000100 30 4a 51 bd 3a 64 28 bd a4 9c 09 3d 7f cd 40 bc
       -0.05109614 -0.04111121 0.03359665 -0.011767744
000110 70 96 47 be 9b b8 e4 bd 7b 79 87 3c 55 fd 26 3b
       -0.19490981 -0.11168023 0.016537419 0.0025480588
000120 a7 08 45 bd c8 d2 93 bd 05 e6 74 bd 69 71 2a 3d
       -0.048103955 -0.07217938 -0.059789676 0.041612063
000130 92 31 3a bd e7 a7 92 3d 01 e7 15 3d 7d 72 62 3d
       -0.04545743 0.07160931 0.036597256 0.055284966
000140 f8 29 f8 3c 4c db 59 bd 3e 25 15 bc bb 63 3b 3d
       0.03029345 -0.053187653 -0.0091031175 0.045749407
000150 22 ee 90 3d ba af ea bd 10 53 1b 3d 61 a0 da 3d
       0.0707667 -0.114592984 0.03792101 0.10675121
000160 2f c3 db 3d 43 15 7f 3d d4 a5 5e 3d 2c 2e d5 bd
       0.10730588 0.062276136 0.054357365 -0.10409197
000170 75 02 b4 bd 6b 9a 05 be e1 53 e2 bc b3 45 2c bc
       -0.08789531 -0.13047187 -0.027627887 -0.010514664
000180 76 7a 01 bc ee ab b4 3d 39 96 2f bd 58 eb b1 bd
       -0.007902732 0.088218555 -0.042867873 -0.086874664
000190 93 5b 9c bd a0 2f 0b 3e ff bf 28 3d 00 62 c2 bb
       -0.07634654 0.13592386 0.041198727 -0.0059320927
0001a0 a6 9d 9d 3d 62 d2 be 3d 2d 27 0a bd f8 56 c4 bc
       0.07696085 0.09317471 -0.033728767 -0.023967251
0001b0 6f 6f 35 bd 75 e6 ff 3d 1a 04 01 3d e3 84 88 3c
       -0.044295724 0.12495128 0.031498052 0.016664928
0001c0 26 4b df 3d d3 27 b4 3d 5c e2 f7 3c b7 5d da bd
       0.10903005 0.08796658 0.030259304 -0.10662406
0001d0 5a 13 24 3b fa d0 33 3d 86 ef 0f bd fb 7f 03 3d
       0.0025035948 0.043900467 -0.035140537 0.032104474
0001e0 f7 1d 97 bd e2 7e 6f 3d fc 05 01 bd 18 28 3e bd
       -0.07378762 0.058470614 -0.031499848 -0.046424955
0001f0 7e 83 ad bd 97 78 f8 3a 05 34 97 3d 89 e4 c1 3d
       -0.08472346 0.0018956837 0.07382969 0.09467418
000200 67 5b 42 bb 18 53 d1 3d d7 5c 38 3d 7c 39 31 3d
       -0.002965653 0.10220927 0.045010414 0.043267712
000210 83 0b 3a bd b0 a9 7b bc 41 64 f5 3c bf 17 98 3d
       -0.045421135 -0.015360281 0.029955031 0.07426404
000220 db f7 a2 3d fa 4b 1a 3e a0 10 65 3d b1 3e 58 ba
       0.07957431 0.15068045 0.055924058 -0.0008249088
000230 53 53 9e bd d1 39 93 3c 60 2f 1f bd 56 be 02 bd
       -0.077307366 0.017971905 -0.03886354 -0.0319198
000240 52 75 0e 3d ec ac bf bd a3 14 1f 3d 02 93 ee 3c
       0.034779854 -0.09359154 0.03883804 0.029122833
000250 89 86 47 bd fc 81 f5 bd e5 00 04 bd 39 44 09 3d
       -0.048712287 -0.11987683 -0.032227416 0.033512328
000260 73 1b 48 3c a4 10 9b 3d 7a 9e 8b 3c 91 f3 69 3b
       0.012213576 0.07571533 0.017043341 0.0035698155
000270 0e ce 82 3d 27 42 ca bb 4a b7 c4 3c 4b 17 92 3d
       0.06386958 -0.0061724368 0.02401318 0.07133349
000280 b8 53 16 3e 18 38 b0 3d 36 01 87 3d 7e 7e 5b bd
       0.14680374 0.08604449 0.06592028 -0.05358743
000290 f9 91 04 be 41 03 f6 bd 68 3f 17 bd 00 10 87 3d
       -0.12946309 -0.120123394 -0.036925703 0.06594849
0002a0 b8 c7 4c 3d 87 d4 74 3d d2 a1 7e bd 1a eb 6e 3d
       0.049995154 0.059772994 -0.062166043 0.05832968
0002b0 80 d8 cc 39 49 83 63 bd b9 26 8f 39 00 44 f3 3d
       0.00039071217 -0.055545125 0.00027303936 0.11878204
0002c0 a4 27 b9 bc 6d 9d b2 3c 37 93 b9 bd c5 4b cb bd
       -0.02260191 0.021803582 -0.09061282 -0.09926561
0002d0 71 d8 be 3d 7d 13 23 3c e4 c3 95 3b 22 dc af bb
       0.09318627 0.009953377 0.004570471 -0.005366818
0002e0 a7 d7 8d 3d f2 d8 85 bd 5a e0 4b 3b 55 f8 b9 bd
       0.06925898 -0.0653552 0.0031109066 -0.09080569
0002f0 b6 a8 1a bd 5c f7 6e 3b 2b d8 df 3d 41 4b 54 3d
       -0.03775855 0.0036463356 0.10929903 0.05182958
000300 95 40 5c bd 96 9b 0a 3e 62 b6 e3 3c f2 cf 45 3d
       -0.053772528 0.13535914 0.027796928 0.048294015
000310 16 d4 99 3d 9b 01 4f bd 4e 1b 8c bd b5 ad ab 3d
       0.07511155 -0.05053864 -0.068411455 0.08382741
000320 48 51 63 bd 96 25 50 3d 84 08 04 3d 14 73 1e bd
       -0.055497438 0.050817095 0.032234684 -0.038683966
000330 0f b7 ee bc 7f 57 f5 3b e4 48 7a bd 08 a0 38 3d
       -0.029140024 0.007487237 -0.06110467 0.045074493
000340 7c fd 67 3d 44 57 24 3d 5f bd db bd 45 98 34 3c
       0.056638226 0.040122285 -0.10729479 0.011022632
000350 bc e1 04 bc 32 fd aa 3d 45 b1 bc bb 06 fe ce 3d
       -0.00811046 0.083490744 -0.005758437 0.10107045
000360 07 d2 33 bd 50 be fb bd 96 2e 88 bc a9 4c bb 3d
       -0.04390147 -0.122921586 -0.016623776 0.09145481
000370 30 7d 84 3d ac 36 f9 3c b5 45 8b 3c e9 62 60 3d
       0.0646919 0.030421577 0.017001012 0.054781828
000380 b7 97 60 bd d7 5b 0f be 6a 94 94 3d b1 c9 d0 bb
       -0.054832187 -0.13999878 0.0725487 -0.0063716997
000390 11 ed 2a 3d 46 e4 20 bd e3 86 1b bd 09 6a d1 3b
       0.04172999 -0.0392802 -0.037970435 0.006390814
0003a0 76 c2 ba bd 5d 1a ee bd 0d 21 c3 bc ca 9c ae 3d
       -0.09119122 -0.11626122 -0.02381947 0.08525999
0003b0 4d 63 f2 3d 7a 2d fd bd 0f 00 75 bd 9a bb 09 3d
       0.11835346 -0.123621896 -0.05981451 0.033626176
0003c0 cd ec e3 3d 06 d4 47 3d cd 64 90 3d 55 6d d8 3a
       0.111291505 0.048786186 0.07050476 0.0016512076
0003d0 32 94 9c 3c 3d 7f a8 bd d1 07 84 3d c2 2a 86 3c
       0.019113634 -0.08227394 0.06446803 0.01637781
0003e0 5c f1 cb bd 31 89 8d bb 45 68 06 bd ad cc e8 bd
       -0.09958145 -0.004319333 -0.032814283 -0.11367164
0003f0 be 42 9d 3d 43 ed 1a 3d 61 56 90 3c 3c 9c 61 be
       0.07678746 0.037823927 0.017619314 -0.22032255

fc1.bias f4 [128]
000000 e1 78 8d 3d f6 bc 8c bd 6a 1c f1 bd 89 c4 8f be
       0.069078214 -0.06871979 -0.11772998 -0.28079632
000010 4f f8 f2 bd a1 9e cd bc 84 36 c7 bc 53 76 12 be
       -0.11863767 -0.025100054 -0.024317987 -0.1430295
000020 b1 6c fb 3d af 3b 55 3e 44 0b 58 be b5 12 0b 3e
       0.122765906 0.20823549 -0.21098047 0.13581355
000030 a2 6e 2b bd d8 d0 dd bd 47 bd 3c be c8 e3 3c 3d
       -0.041853555 -0.108308494 -0.18431579 0.046115667
000040 78 ec 32 bd 20 7a 1c be 3d 33 e3 bd 55 96 28 be
       -0.043682545 -0.15280962 -0.11093757 -0.16463597
000050 17 9d 55 be b1 63 5d 3d 88 0a 36 be 90 64 51 bc
       -0.20860706 0.05405015 -0.17777455 -0.012780324
000060 8c d5 94 3d 45 ab e3 3d 1b 99 8c be 66 e0 08 3c
       0.07267293 0.111166514 -0.2746056 0.008354282
000070 7d 91 b8 3d 3c 43 79 be 7e 52 96 be 60 b4 4b be
       0.09012125 -0.24342054 -0.29359812 -0.19893026
000080 11 26 c9 bc b3 ae 01 3d bf 1c 3f 3c f9 07 8a 3c
       -0.024554284 0.031660747 0.011664568 0.016849505
000090 ca fd 94 3d 9f 5f 13 3e 69 5c 03 be df 21 8c bd
       0.07274969 0.14391945 -0.1282822 -0.06842398
0000a0 7d 9e 13 3e 26 e8 63 be 41 0f 1d be 50 93 27 3e
       0.14415927 -0.22256526 -0.1533785 0.16364789
0000b0 1c a4 a0 bd 1a 07 12 be 97 a9 18 3e 12 91 a0 3d
       -0.078438014 -0.14260522 0.14908443 0.0784017
0000c0 52 43 03 be 57 fc 60 bd f8 0c 6b bd aa 8f 6b 3e
       -0.1281865 -0.05492815 -0.057385415 0.23004022
0000d0 e1 0c 2a be 5b b0 b3 3d de 02 e2 bd f7 5d 3d 3e
       -0.16606475 0.087738715 -0.11035703 0.18492876
0000e0 c2 61 19 3e 0f 4d 0b bd ab 38 a2 3e 98 2e 0a 3e
       0.14978698 -0.034009036 0.3168386 0.13494337
0000f0 c0 45 0c 3e 4a 61 64 be ff 25 a9 bd a3 c0 ad 3b
       0.13698483 -0.22302738 -0.082592 0.005302505
000100 7a bf 2c be 16 1a ad 3d 35 88 e1 3d 3f d5 37 be
       -0.16869918 0.08452241 0.110123076 -0.1795244
000110 33 c0 ca bb 68 5e 07 be e5 61 ba bd 9e f9 c1 bc
       -0.0061874627 -0.13219607 -0.09100703 -0.023678597
000120 d6 02 2a 3d df 55 ab 3d 36 ed 1a be 64 f3 4a be
       0.04150661 0.08365988 -0.15129551 -0.19819409
000130 d5 08 a3 3d 10 4d 62 bd 7f d5 27 bd f2 88 29 be
       0.07960669 -0.055249274 -0.04097509 -0.16556147
000140 85 4d af bd f0 ad 15 bd bb b0 35 3e 9b e5 ad 3b
       -0.085597076 -0.036542833 0.17743199 0.005306912
000150 98 eb d7 3c da 86 ea 3c ea 80 02 be 3a 99 d1 bd
       0.026357457 0.028628755 -0.1274449 -0.10234304
000160 df 96 24 be 4a ef e4 bc 1c 17 47 3e 35 ab 28 be
       -0.16073178 -0.027946133 0.1944241 -0.1647156
000170 90 cd 38 3e cd 14 b8 bd 88 c3 95 3e de 3a ff bd
       0.18047166 -0.089883424 0.2925074 -0.124624
000180 1b d6 d6 3c 97 e2 a4 3c 2c 41 c1 3d cd 84 de 3d
       0.02622514 0.020127578 0.09436259 0.108651735
000190 40 2f 35 be 8c 25 b1 3d be 8f a5 3d cd be 3c be
       -0.17693806 0.086497396 0.08084057 -0.1843216
0001a0 9e ae 36 be d9 e4 cb bd 1c 23 13 bd 7e 3f 91 bc
       -0.17840049 -0.099557586 -0.035922155 -0.01773047
0001b0 1d 5e 5b be 7c 2a 09 3e 7e d8 19 3e 46 3f 48 3d
       -0.2142262 0.13395113 0.15023991 0.048888467
0001c0 cb b1 86 3d e4 5e b5 3d 1f 48 fa bd 49 47 27 be
       0.0657688 0.088559896 -0.12220787 -0.16335787
0001d0 18 28 5a be 3b f7 6e bc 65 f7 83 bd 26 dd ff 3d
       -0.21304357 -0.0145853115 -0.06443671 0.124933526
0001e0 3c 3b 8e bd 77 5a 51 be 39 8c 15 3e 5f 44 cb bd
       -0.06944892 -0.20444666 0.14604272 -0.0992515
0001f0 a6 58 e3 bd 0c a5 87 3e f8 12 be bd e1 2b 58 3d
       -0.11100893 0.26493108 -0.09280962 0.05277622

bn1.weight f4 [128]
000000 af dd 8e 3e cf 4e fc 3e ee 9f 0c 3f 16 f0 7b 3e
       0.27903506 0.49278876 0.54931533 0.24603304
000010 2e 23 09 3f 0c fc 6c 3f bb d9 5b 3f 83 d6 4b 3f
       0.53569305 0.92572093 0.85879105 0.79624194
000020 d6 cc c1 3e 36 db 47 3f 69 bf df 3e f6 95 0d 3f
       0.3785159 0.78068864 0.43700722 0.5530695
000030 af c8 fe 3e 14 e6 31 3e 88 06 1d 3e 3d 12 9d 3e
       0.49762484 0.17372924 0.15334523 0.30677977
000040 b0 22 ef 3e 1b 18 30 3f 64 4f e2 3e 9d 57 49 3f
       0.46706152 0.6878678 0.44201195 0.7864931
000050 4f 85 60 3f c4 c9 26 3f c2 79 9a 3e e8 76 89 3d
       0.8770341 0.6515162 0.3017102 0.06712133
000060 0c 66 4e 3f b2 c2 66 3e 65 ee 18 3e 31 fa 56 3f
       0.8062446 0.22535208 0.1493469 0.8397551
000070 29 91 a1 3e c2 9a 54 3e 37 e6 e7 3e 82 27 f9 3e
       0.3155606 0.2076216 0.45292827 0.48662955
000080 20 d9 4d 3f a5 e8 6c 3f cb c2 03 3f 4f 0d 9d 3e
       0.8040943 0.9254249 0.51469105 0.30674216
000090 f4 03 bd 3e 87 39 41 3e c2 4d 62 3e e9 28 46 3f
       0.36917078 0.18869601 0.22099975 0.77406174
0000a0 1c 6f 70 3f 66 29 5d 3e bc 92 49 3f 9d 18 b9 3e
       0.9391954 0.21597824 0.78739524 0.3615159
0000b0 96 48 03 3f cb 0b d2 3e 4b fa 4b 3f 2a c8 fb 3e
       0.5128263 0.41024622 0.7967879 0.4917615
0000c0 fc 3a e6 3e d3 a9 a8 3e c1 38 46 3f 44 59 10 3f
       0.44966877 0.32942066 0.7743035 0.5638621
0000d0 c1 4d 00 3f d4 f8 49 3f 74 83 2f 3f 9d 7b eb 3e
       0.50118643 0.78895307 0.68559957 0.45992747
0000e0 93 06 0d 3f 60 ec 17 3f 4a 40 57 3f 1f f1 12 3e
       0.55088156 0.59345055 0.8408247 0.14349793
0000f0 68 1f 42 3e a5 9a 54 3e 62 39 25 3f ab 9b 00 3f
       0.18957293 0.20762117 0.64540684 0.5023753
000100 99 f6 33 3f 5d b9 f8 3e 78 df 2f 3f 62 e5 25 3e
       0.70298153 0.4857892 0.6870036 0.16200784
000110 3f 14 2f 3f 75 68 33 3e 6e ff 90 3e 91 8f e6 3e
       0.6839027 0.17520316 0.28319877 0.45031407
000120 8a 5c ef 3e 02 68 16 3f 5a 73 9b 3e de bd 5b 3f
       0.4675029 0.58752453 0.30361444 0.8583659
000130 cf 3d 5e 3f e0 3d a4 3e 1a 1d 5a 3f 6f 36 64 3f
       0.8681306 0.32078457 0.85200655 0.8914556
000140 1d 1c ec 3e 94 7d 40 3f 6a 82 30 3e 09 7c db 3e
       0.461152 0.75191617 0.17237249 0.4286807
000150 33 d4 45 3e cf 63 3b 3e c1 3a 2a 3f 7b 60 6d 3e
       0.19319229 0.18299793 0.664959 0.23181336
000160 9b 9c 88 3e 8c 58 19 3f d0 19 79 3e e7 ab 16 3f
       0.2668198 0.59900737 0.24326253 0.5885605
000170 76 22 37 3f 80 4b e7 3e 18 3e 5f 3f 83 ff eb 3e
       0.7153696 0.4517479 0.8720412 0.46093377
000180 99 e4 c3 3e 01 c1 f1 3e 69 0c 25 3f 2c d0 2f 3f
       0.38260344 0.47217563 0.6447206 0.6867702
000190 5a 95 00 3f 2b c9 56 3f 1e 4a 41 3f 9d 43 41 3f
       0.5022789 0.8390071 0.7550372 0.75493795
0001a0 51 59 3b 3f d5 71 bc 3e be e5 d5 3e 80 c0 cd 3e
       0.7318316 0.36805597 0.41776842 0.40185928
0001b0 fc 12 a1 3d 43 df c3 3e 6e 7e 5f 3f ee 90 86 3e
       0.07864949 0.38256273 0.8730229 0.26282448
0001c0 64 fa 32 3f ff ae 37 3f 94 8a 64 3e 43 a3 78 3e
       0.69913316 0.717514 0.22318488 0.2428103
0001d0 18 f9 54 3f dd 76 9a 3e a5 c1 5d 3f 97 5b 12 3e
       0.83192587 0.3016881 0.86623603 0.14292751
0001e0 c2 92 08 3f e3 9e dd 3e 23 f7 57 3f eb af c6 3d
       0.53348935 0.43285283 0.84361476 0.097015224
0001f0 d6 59 c5 3e 12 50 f3 3e 9f 16 01 3f 87 87 6b 3f
       0.38545102 0.47522026 0.5042514 0.92003673

bn1.bias f4 [128]
000000 ea 28 7c 3e bf 55 e3 3c eb 3a 30 be 83 80 1c 3e
       0.24624982 0.027750848 -0.17209975 0.15283398
000010 1a d6 dc 3c 90 4c 03 3c eb 98 ad 3d b4 fd 21 3e
       0.02695756 0.008013859 0.084764324 0.15819436
000020 85 80 9b bd c4 7e 96 bd 04 ec c3 3d be 60 a5 3c
       -0.075928725 -0.073483974 0.09566501 0.020187732
000030 aa 92 23 bd b4 a6 1c 3e 60 2c 4d 3e 8b cd 7d bd
       -0.03993479 0.15297967 0.20036459 -0.0619636
000040 b1 af be bc 58 91 56 be e3 9e ff 3b e8 a3 58 3d
       -0.023277136 -0.20953882 0.007800923 0.05289069
000050 9d 9c a0 3d d7 07 b5 3d 65 0d 35 be a2 e1 7b be
       0.078423716 0.08839386 -0.17680891 -0.24597791
000060 cf 9c 74 3d 55 18 46 3e 05 7d 93 be f5 b5 da 3c
       0.059719857 0.1934522 -0.2880632 0.026698092
000070 d7 80 8e bb d9 24 84 3e 53 5f 37 3e cf b3 47 3e
       -0.004348855 0.25809363 0.17907457 0.19502185
000080 8c 7c 11 bd 70 7d ce bc 8f 62 cf bc 85 61 62 3d
       -0.035519168 -0.025206298 -0.025315551 0.055268783
000090 8d 5d 01 3c cb 2f df 3d ac 2c 28 3b e2 c7 56 bd
       0.007895839 0.10897788 0.0025661392 -0.052436717
0000a0 17 0e 87 3d a1 f8 ae 3c a4 98 ef 3d 06 53 21 3d
       0.06594484 0.02135879 0.11699036 0.039385818
0000b0 fd 09 e2 3d 65 ad 59 bd 94 9f 48 bd 3c db 58 3d
       0.11037061 -0.053143878 -0.04898031 0.052943453
0000c0 0d 6e d0 3d 6e 61 4d bd 39 c2 43 bd b7 48 52 bb
       0.101772405 -0.050141744 -0.047792647 -0.0032086798
0000d0 f2 15 07 3e 17 73 be 3d a7 96 2f bd 57 74 c5 3c
       0.13191965 0.092992954 -0.042868283 0.024103327
0000e0 af 67 23 bc 89 83 21 3d f1 4e bc 3d ba d5 e8 3d
       -0.009973451 0.039432082 0.091947444 0.1136889
0000f0 29 5c aa 3d 34 87 c7 bd 95 3a ef 3d bb 59 1d 3e
       0.083183594 -0.09742585 0.116810955 0.1536626
000100 fb fc f4 bb 17 f7 19 bc e6 fe 1d be ee c4 95 3d
       -0.0074764467 -0.00939729 -0.15429267 0.07312952
000110 13 8c 98 bd 8d c8 8c 3d a3 c8 06 3e bf 97 b6 bc
       -0.07448592 0.068741895 0.13162474 -0.022289155
000120 89 93 77 3c 73 e3 47 3d 04 87 d6 bd 3f 62 fb 3d
       0.015110859 0.048800897 -0.10474971 0.12274598
000130 15 27 71 bc 8d 0a 7f 3d c5 92 65 3d 3b c6 ad bd
       -0.014718791 0.06226592 0.056048173 -0.08485075
000140 0d 3e 61 bd be 80 71 3d f8 7e b2 be ff 92 eb 3d
       -0.054990817 0.05896067 -0.34862494 0.11502647
000150 09 7d 20 3e 6c ab 22 3e 0d f1 93 3d d8 8a 99 3d
       0.15672697 0.15885705 0.07223711 0.074971855
000160 41 20 0a 3e fc 21 0e 3e 30 01 0b be d6 e6 07 be
       0.13488866 0.13880152 -0.13574672 -0.1327165
000170 7a 98 86 be 6a 00 07 3e d3 37 a5 bc f4 f3 01 bc
       -0.26288205 0.13183752 -0.02016822 -0.007931698
000180 db cf c2 3d 96 5c b8 3d 7d 2b 81 3c 42 5a eb 3c
       0.095123015 0.09002034 0.015767807 0.028729562
000190 93 ac 3f 3d 8a 44 42 bd 1a 8c 43 be 12 3c 9e 3d
       0.04679544 -0.047428645 -0.19096413 0.07726301
0001a0 0a 6f 80 bb ba a7 6d 3d 90 6e 21 bd 13 33 23 bd
       -0.003919487 0.058021285 -0.03941208 -0.03984363
0001b0 2d 3b 86 be 6b 47 91 3d 97 e5 80 bd 89 72 4f 3d
       -0.26217023 0.070937 -0.06293791 0.05064634
0001c0 72 39 a0 bd bc d5 35 3e 1e 24 47 3d f6 4b 97 3d
       -0.07823457 0.17757314 0.04861843 0.07387535
0001d0 b0 53 84 bd 05 3e f5 3c e7 eb d5 3c 6c a0 8a be
       -0.064612746 0.0299368 0.026113464 -0.27075517
0001e0 34 f2 ff 3d fe c6 21 bd 08 da 62 bc 68 e7 ff bd
       0.124973685 -0.039496414 -0.013845928 -0.12495309
0001f0 7d 0c 0c 3d 5c 0a 3b bd 15 9a 52 3e 70 4f 83 3d
       0.034191597 -0.045664176 0.2056659 0.06411636

bn1.running_mean f4 [128]
000000 57 5a 1f 3e 92 62 15 40 6a 21 1f 3f 8c f8 55 3e
       0.15561806 2.3341413 0.6216036 0.20895594
000010 78 f0 a9 3e 1b 18 df 3f d6 a7 d8 3e f1 3a c8 3e
       0.33191276 1.7429231 0.4231555 0.3910747
000020 47 d2 38 3f 23 67 85 3f e1 fd e1 3f 52 b5 99 3e
       0.7219586 1.04221 1.7655603 0.3002115
000030 0d 50 9f 3e 02 e1 13 3e 3e 70 f5 3e ec c6 8d 3f
       0.3111576 0.14441302 0.47937196 1.1076331
000040 fb b3 80 3e 54 a5 46 40 1e de f4 3f 1c 24 09 3e
       0.25137314 3.1038408 1.9130285 0.13392681
000050 77 8b 22 40 93 7c 8a 3f 9c c3 92 3e ec 0f 3d 3e
       2.5397623 1.0819267 0.28664863 0.18463105
000060 2f f3 8e 3e 6b 22 d1 3f 52 53 a1 3e 59 25 90 3f
       0.2791991 1.6338629 0.3150888 1.1261398
000070 dd 83 98 3e 84 b5 33 3f 44 a7 05 3e 62 37 db 3e
       0.29788104 0.70198846 0.13052088 0.4281569
000080 3e d0 ad 3e f2 eb 26 40 a4 60 00 3f 3e 97 c1 3f
       0.3394794 2.608151 0.5014746 1.512428
000090 39 2e c0 3f b4 ee ea 3e fe 99 20 3f f7 2b e9 3f
       1.5014106 0.4588524 0.62734973 1.8216542
0000a0 65 a9 0d 3e 7f 84 b7 3e 31 75 03 40 d1 31 cb 3f
       0.1383415 0.35843274 2.0540278 1.5874578
0000b0 7f c3 ad 3f 85 3d 7e 3f 00 bc a1 3f a9 ef 12 3f
       1.3575286 0.9931262 1.2635498 0.5739694
0000c0 73 6b 35 3e 68 ef 7c 3d 18 f1 25 3f 77 83 e1 3e
       0.1771677 0.061751753 0.64821005 0.44045612
0000d0 46 57 c9 3f 2a fe 3e 3f 6c c9 86 3f 73 d6 37 3f
       1.5729759 0.74606574 1.0530219 0.718116
0000e0 0c c0 35 3f d6 de bf 3e 0a e8 65 40 66 4e 9f 3f
       0.70996165 0.37474698 3.5922875 1.24458
0000f0 74 d7 6b 3f 40 6f ee 3e b1 89 32 3f b2 70 83 3e
       0.9212563 0.46569252 0.6974135 0.25671917
000100 46 bf 8d 3f dd 36 45 3f 4f c3 2c 40 7c b2 25 3f
       1.1073997 0.7703684 2.6994207 0.6472547
000110 fc 58 ec 3e 59 d6 da 3f d4 a6 df 3f a8 f9 a0 3e
       0.4616164 1.7096664 1.7472787 0.31440473
000120 97 94 0c 3f 1e 72 7c 3f dc a9 46 3f 55 5e 06 40
       0.5491423 0.9861163 0.77602935 2.0995076
000130 16 59 f8 3f e2 18 53 3e e8 87 12 40 02 e0 ae 3f
       1.9402187 0.20614961 2.289545 1.3662112
000140 de e7 0c 40 f8 4b 3f 3f ff 4a 1a 3f ab ec e7 3e
       2.201652 0.74725294 0.60270685 0.4529775
000150 dd 08 35 3e 86 50 99 3e d6 3a fa 3f 32 6c 7c 3f
       0.17679162 0.29944247 1.9549205 0.9860259
000160 10 e2 be 3e e6 8d 34 3f 74 c8 2d 3f 9a 18 71 40
       0.37281847 0.7052902 0.6788399 3.7671266
000170 be fd d8 3f 9c 41 32 40 31 4d 6a 3f 22 41 34 3f
       1.6952436 2.7852545 0.91524035 0.70411885
000180 e1 48 0d 3f c3 36 a0 3f 3c 6d ca 3d dc 8f 69 3f
       0.5518933 1.2516712 0.09884116 0.91235137
000190 3b 57 13 3e 78 bc b7 3f 33 6d 19 40 8d a4 96 3e
       0.14388745 1.4354391 2.39729 0.29422417
0001a0 7b 53 93 3f c9 ee 8e 3f 82 d5 f4 3e 9b 51 7d 3e
       1.1509851 1.1166621 0.47819144 0.24738161
0001b0 f0 4e 37 40 d1 24 4b 40 3d f9 9b 40 e2 2f a0 3e
       2.864193 3.174122 4.8741746 0.31286532
0001c0 06 fe 69 3f 64 16 44 3f d2 b5 8c 3e e5 1a 4d 3f
       0.91403234 0.76596665 0.27482468 0.8011916
0001d0 5a c9 4c 3f 0b a3 f4 3d bd 25 4f 3f 63 82 9a 3f
       0.7999474 0.119451605 0.8091696 1.2071041
0001e0 76 dc 0a 40 9c d4 34 3f 49 09 5e 3f 8f 01 42 40
       2.1697059 0.70636916 0.8673292 3.0313451
0001f0 9c 02 db 3e 65 aa 5f 40 5c ba ae 3e 37 70 4d 3f
       0.42775428 3.494775 0.34126556 0.8024935

bn1.running_var f4 [128]
000000 4e 2c d5 3d ab ad 65 40 5f 1b 6b 3f 1e 8c 4c 3e
       0.10408841 3.5887249 0.9183864 0.19975325
000010 84 b2 8e 3e 6e d4 50 40 c6 ca 18 3f 5b 98 5a 3f
       0.27870572 3.2629657 0.5968441 0.85388726
000020 84 74 da 3f ae 3b e8 3f e6 81 6f 40 60 29 96 3e
       1.7066808 1.8143213 3.7423034 0.29328442
000030 5f 9b c7 3e cf 8b 86 3e 76 ba 5e 3f ed 9f da 3f
       0.38985726 0.2627854 0.87003267 1.7080055
000040 88 b1 0d 3f 98 64 bb 40 1a 0d 26 40 cc d8 3c 3e
       0.55349016 5.8560295 2.5945497 0.18442076
000050 46 76 37 40 8b 93 d2 3f 51 7b 00 3f 9a a5 c5 3e
       2.8665938 1.6451277 0.50188166 0.38602906
000060 ce 48 73 3e f6 22 e8 3f 47 4f a1 3e aa b4 0e 40
       0.23758242 1.8135669 0.31505796 2.2297769
000070 0a 07 11 3f b6 f2 b5 3f a0 79 e5 3d f0 1f 49 3f
       0.56651366 1.4214694 0.11204839 0.7856436
000080 7f 4d 82 3f 79 1e ae 40 9b 99 11 3f bc 16 e5 3f
       1.01799 5.44122 0.5687501 1.7897563
000090 16 55 0a 40 a5 6d 48 3f db a7 38 3f cb a3 72 40
       2.1614432 0.78292304 0.7213113 3.7912471
0000a0 9d 23 03 3e 63 d6 ea 3e 8d 59 a3 40 9b cd 75 40
       0.12806554 0.4586669 5.1046815 3.8406742
0000b0 3b 4a 40 40 17 cc e3 3f 43 f2 15 40 26 b6 c3 3f
       3.0045307 1.7796658 2.3429115 1.5289962
0000c0 36 1b 85 3e e8 6e a6 3d 42 69 f8 3f 5e 47 2d 3f
       0.25997323 0.081266224 1.9407122 0.6768702
0000d0 da ed 48 40 b2 1f d2 3f ea 37 df 3f 78 49 c9 3f
       3.1395173 1.6415923 1.7438939 1.5725546
0000e0 ab f1 9a 3f 99 d4 36 3f d2 68 fb 40 d7 94 0f 40
       1.2105001 0.7141815 7.8565454 2.2434595
0000f0 51 f0 ac 3f e4 53 01 3f a4 e7 c7 3f e8 91 d0 3e
       1.3510839 0.5051863 1.5617566 0.40736318
000100 79 f8 b8 3f 07 4b 6f 3f f2 1e c0 40 a4 30 0d 40
       1.4450828 0.9347386 6.0037775 2.2060938
000110 23 3b 84 3f 47 d8 86 40 d4 6a 82 40 e3 f8 c0 3e
       1.0330547 4.213901 4.0755405 0.37689885
000120 d7 f7 16 3f bb fb d1 3f 01 a4 d6 3e 1b fe d3 40
       0.58971924 1.6404947 0.41922 6.6247687
000130 ce 16 3d 40 6f 15 76 3e 66 24 81 40 f3 b4 9c 3f
       2.954517 0.24031614 4.035693 1.2242721
000140 bd 73 2d 40 2d b5 e2 3f 0c 13 97 3f 4d 60 c6 3e
       2.710189 1.771154 1.1802688 0.38745347
000150 ee b2 1f 3e ed e4 24 3f 51 9c 76 40 c7 06 13 40
       0.155956 0.64411813 3.8532908 2.2972887
000160 41 47 c7 3e 7f af af 3f ed 6e 30 3f 97 3c f0 40
       0.3892155 1.3725432 0.6891926 7.507396
000170 b7 f8 e8 3f f8 4f 05 40 ef 85 43 3f 14 6c 6d 3f
       1.8200902 2.083006 0.7637624 0.9274304
000180 dd 19 58 3f 71 3c 3d 3f 47 fa c5 3d d9 24 dc 3f
       0.84414464 0.7392035 0.09666877 1.7198745
000190 c5 3c c8 3d f1 3f 78 40 ad bd e1 3f 92 0e 2b 3f
       0.09777216 3.8789027 1.763601 0.6681911
0001a0 1e 4e 0b 40 07 bd 15 40 36 03 25 3f 52 02 47 3e
       2.176643 2.3396623 0.64458025 0.19434479
0001b0 8d 23 cc 40 cd ee a5 40 da d9 a2 41 f5 13 f4 3e
       6.3793397 5.1854005 20.356373 0.47671476
0001c0 7a a1 b8 3f 24 82 95 3f 41 9c 97 3e 19 80 2b 3f
       1.4424279 1.1680341 0.296114 0.66992337
0001d0 7c 30 1c 40 66 47 b2 3d 22 8c 99 3f 01 56 96 3f
       2.4404593 0.087050244 1.199589 1.1744996
0001e0 5d 8b 5f 40 cb 93 b6 3f 1e e3 b3 3f 1f e3 85 40
       3.492881 1.4263853 1.4053686 4.1839747
0001f0 0c d4 3c 3f 5a c9 69 40 7f 97 38 3f 29 68 6d 3f
       0.7376106 3.6529145 0.72106165 0.9273706

fc2.weight f4 [128, 128]
000000 aa c4 b5 bd d5 21 a5 3d b3 2e 61 3d 3a 43 c1 bb
       -0.08875401 0.080630936 0.054976176 -0.0058979066
000010 09 76 08 be 4a 82 99 3c 4b 81 89 bd ce 2a 86 3d
       -0.13326277 0.018738884 -0.06714114 0.06551133
000020 ba 31 0c bd 67 6a a0 bd 56 00 6f 3c f9 4e 1f bd
       -0.03422711 -0.07832795 0.014587482 -0.038893674
000030 af 75 12 bd ef 7d 9e bb ea 5a 93 3c b9 31 a3 3d
       -0.035756763 -0.00483679 0.017987687 0.07968468
000040 97 6f bf 3c 2f ec e5 3d 03 ee c7 3d b2 45 e1 bd
       0.02336864 0.11226689 0.09762194 -0.109996215
000050 e7 3d 38 bd f5 e1 2f 3d 83 40 05 3e b9 05 0c 3e
       -0.04498091 0.0429401 0.1301289 0.13674058
000060 76 31 c7 3c c8 13 dd bd d6 3b b0 3d 22 31 4a 3d
       0.024315577 -0.107947886 0.08605163 0.049363263
000070 66 0d 35 bd aa 7b 1f bd 7c 44 3d be 7a c4 0c 3e
       -0.04420223 -0.038936295 -0.18483156 0.13746825
000080 e3 9c 4a bd 61 5e 8b bd ce ca 9f 3d 4d 65 a0 bd
       -0.049466025 -0.06805111 0.07802354 -0.078318216
000090 87 f5 a3 3d 6d bc 98 3d f4 66 83 3d 5b 10 56 bd
       0.08005815 0.07457814 0.06416121 -0.05226169
0000a0 2f 43 06 3d 12 fa 11 3d 1a 00 4f bd 29 03 62 3c
       0.032778915 0.035638876 -0.050537206 0.013794699
0000b0 92 8f 53 bd 90 bd 5e 3d 66 27 48 3d 75 0c 15 bc
       -0.05165059 0.05438 0.0488657 -0.009097208
0000c0 8c 86 2d 3d 63 88 31 bd 79 da 11 3c 87 51 93 3d
       0.042364642 -0.04334296 0.008902186 0.071932845
0000d0 2e 9c b6 bd cf 93 52 bd e1 79 f1 3c b6 78 6e bd
       -0.08916508 -0.051410493 0.029477062 -0.058220588
0000e0 1c 50 97 3d e1 b8 c8 bd a3 6d 9f 3d ca c3 29 bd
       0.073883265 -0.09800888 0.077845834 -0.041446485
0000f0 02 4e 92 3c a9 91 3a bb db 7a e3 bc 0b 98 78 3d
       0.017859463 -0.0028468168 -0.027768543 0.060691874
000100 41 b0 b7 bc 1d f5 11 bc 47 a2 2f bd a0 d7 6b bd
       -0.022422912 -0.008908537 -0.04287937 -0.057578683
000110 e8 ce 8c bc 02 b6 bb bc 5e ab e7 3c 4c 40 37 bc
       -0.017188504 -0.022913937 0.028279956 -0.011184763
000120 52 24 4c bd d2 4e 90 bd fd 6b 31 3c cd 09 b1 3d
       -0.049839325 -0.07046284 0.010828969 0.086444475
000130 a1 e1 9b bd 23 18 43 3d 83 2f 22 bc d1 39 35 3d
       -0.07611395 0.04763044 -0.009899023 0.04424459
000140 3e 87 dd bc 88 99 7f bc 25 5e e6 3c d2 cc 09 3e
       -0.027042028 -0.01560057 0.028121063 0.13457039
000150 f1 95 80 bb 82 62 29 bd 15 3f 8a 3d 18 3e 1b bd
       -0.0039241244 -0.04135371 0.06750313 -0.037901014
000160 91 cd b9 bd 9e 08 c4 bb f6 e0 6c 3d 82 d6 ad bb
       -0.09072412 -0.0059824726 0.057831727 -0.0053051123
000170 49 35 a3 3c a7 69 04 3d a9 b3 9f bd 5a b3 d7 bd
       0.01992287 0.03232732 -0.07797939 -0.105322555
000180 e5 21 d4 3d 6d 8d 1e be e5 f6 18 3d 27 e3 f5 3b
       0.10358027 -0.15483637 0.037344832 0.0075038853
000190 b7 bc 7e 3c 70 70 ed bb 1c fe d6 3d ae 77 af bc
       0.015547923 -0.0072460696 0.10497686 -0.021419372
0001a0 6e 3c 83 3d 53 fb 05 3e f7 9b 52 3c da 65 2c be
       0.064080104 0.13084154 0.012854568 -0.16835728
0001b0 c8 ab 8b 3c 88 f5 90 3d 30 63 5c bd 55 60 ca 3d
       0.017049685 0.07078081 -0.05380553 0.09881655
0001c0 3f 66 f7 3c 8a 87 4a 3c 21 19 3b be b0 40 15 bd
       0.030200122 0.012361417 -0.18271305 -0.036438644
0001d0 a4 14 2e bd ca f3 1f 3e 17 b6 37 bd 83 9b e4 3d
       -0.042500153 0.15620342 -0.04485139 0.11162474
0001e0 a5 eb 73 bd 1b 53 59 bd c9 16 5e bd 52 3f d6 3d
       -0.0595509 -0.05305777 -0.05422095 0.10461296
0001f0 c1 25 5e bd 56 5c b8 bd 1f 40 b1 bc 72 7b 18 3d
       -0.054235224 -0.09001987 -0.02163702 0.0372271
000200 a2 e8 81 3c 46 2a 87 bd 04 28 65 3c 41 44 88 bc
       0.015857998 -0.0659986 0.013986591 -0.016634108
000210 3e c6 55 bc 51 3a 89 3d fe db 8d 3c 42 8e 9a bd
       -0.013047753 0.06700576 0.017316815 -0.07546665
000220 b3 1d fa 3d da 2a d1 bc 63 b9 93 bd 3b 84 a0 3d
       0.12212696 -0.025533129 -0.07213094 0.07837721
000230 74 54 0e 3c ca c3 00 bd f7 42 ca bd 18 48 b3 bd
       0.008687127 -0.03143672 -0.09876054 -0.08753985
000240 56 28 87 bc 86 04 01 3d a6 17 8d 3b a5 d3 60 3d
       -0.016498726 0.031498455 0.0043057976 0.05488934
000250 28 e0 71 bd cb cf ad bc f0 c5 cd 3d ca c3 0d 3e
       -0.059051663 -0.021217247 0.10047519 0.13844219
000260 76 70 18 3e 6a f1 0d be bc ae ac 3d e6 76 eb 3c
       0.1488665 -0.13861623 0.084317654 0.028743219
000270 d2 8c 16 3d 52 53 a4 bd 9b f3 6f bd 71 d5 0b 3c
       0.03675539 -0.080237046 -0.05858193 0.008534775
000280 8f d7 11 bd 41 65 02 3d 8f 9b 5c 3c d5 9d 9b bd
       -0.035605963 0.031834844 0.013464822 -0.075984634
000290 63 ec 50 3c 5d 36 c1 3c 49 8e ca bd f2 79 ab bc
       0.0127516715 0.023585493 -0.0989042 -0.020932171
0002a0 05 83 f3 bc 9e c9 9f 3d e2 58 8d bc a2 9a a0 3d
       -0.02972556 0.07802127 -0.017254297 0.07841994
0002b0 ec c3 db b9 b6 9e 0d be df 71 09 bc cd 1d 62 bd
       -0.00041916908 -0.13830075 -0.008388965 -0.0552042
0002c0 90 1e 05 bd dc 2e 3f 3d 16 ed 30 3c 56 ab 87 3d
       -0.03249985 0.046675548 0.010798713 0.066244766
0002d0 69 e4 0a 3e 03 b3 3d 3c 31 d4 5f bd 89 99 6c 3c
       0.13563694 0.011578324 -0.05464572 0.0144409025
0002e0 75 3f 94 3d 44 b9 60 bd d4 4d 5d 3c 9d 3a 7d 3d
       0.07238666 -0.054864183 0.013507325 0.061823476
0002f0 ea c1 f9 3c 24 9e 3a bd d9 bf 05 3d e8 8d 76 bd
       0.030487973 -0.04556097 0.032653663 -0.060193926
000300 ef 5b 9f bc f4 83 af bc 69 d2 88 3d bc de 98 bd
       -0.019453017 -0.021425225 0.066807576 -0.07464358
000310 8a 28 aa 3d b9 f7 c2 3b 0f 47 68 3d 8b 85 0a 3c
       0.083085135 0.005949941 0.05670839 0.008454691
000320 24 ea b0 bd 05 7f 9b bd 80 0c ab bc c6 6e 9c 3d
       -0.08638409 -0.075925864 -0.020879984 0.07638316
000330 25 2f 00 3d 0a 39 1c 3c 5f 16 3c bd d7 0c ca bd
       0.03129496 0.009535084 -0.045919772 -0.0986573
000340 b5 d6 15 3d d6 68 4f 3d e3 f2 f9 3d c8 09 c5 bc
       0.036581714 0.05063709 0.1220453 -0.024052516
000350 8f 68 95 3d 62 3d 99 3d 8b f6 27 3d 95 ad aa bd
       0.072953336 0.07482411 0.041006606 -0.083338894
000360 8f ed 0f bd 53 b3 f0 3c c6 8b 93 bd 3a de 51 3d
       -0.035138663 0.029382383 -0.07204394 0.051237322
000370 ce 96 86 3d a4 8e 37 bd b3 bb 2d bc e8 97 a1 bd
       0.065717325 -0.044813767 -0.010603833 -0.07890302
000380 d8 83 00 bd 2a c8 60 be e8 6c 0e 3b 4b f6 13 bc
       -0.031375736 -0.21951357 0.0021732394 -0.009030889
000390 75 51 ab bd 27 e2 88 3c 2f fd 03 3e fe 9e 1b 3d
       -0.08365146 0.0167094 0.1288955 0.037993424
0003a0 6e 43 05 3d dd 5d 5b bd 5d f7 9b bd f0 80 19 bd
       0.03253501 -0.053556312 -0.0761554 -0.03747648
0003b0 77 1f 07 3e 21 1d eb bd 10 40 b5 bc 95 bd 29 bd
       0.13195597 -0.11480165 -0.022125274 -0.041440565
0003c0 e8 11 07 3d 48 a0 3a 3c 20 3c 71 3d 4c b6 54 bd
       0.03297606 0.011390753 0.05889523 -0.051931664
0003d0 c7 5e 82 3d ea d0 4a bd 98 ef 11 bd 33 d6 10 3e
       0.063657336 -0.049515642 -0.035628885 0.1414421
0003e0 98 c2 5c 3d 6b af ac 3d 42 1b 76 bd 85 e3 81 3d
       0.053896517 0.08431896 -0.06008459 0.06342224
0003f0 14 a1 c5 bd c5 47 a3 bc 86 12 f8 bd ac 96 9b 3b
       -0.09649864 -0.019931683 -0.12112908 0.004748186

fc2.bias f4 [128]
000000 63 66 8d bc 7a 5a f8 bd bc 13 32 be 6f 48 3e bc
       -0.017260736 -0.12126632 -0.1739034 -0.011613949
000010 65 ec 5a bb 10 32 c7 bc 57 c5 bd 3d dc 3c 09 be
       -0.0033405062 -0.024315864 0.09266155 -0.13402122
000020 c3 6a da bd f3 85 8a bd 84 80 cd bb 12 d7 f4 bc
       -0.106648944 -0.0676383 -0.006271424 -0.02988771
000030 04 af 25 bd e4 4d 46 3d ac 83 04 bc 05 ca 1e bd
       -0.04045011 0.048414126 -0.008088034 -0.03876688
000040 e1 28 01 bd f4 aa a3 bd f4 60 13 be 35 60 21 bd
       -0.031533126 -0.07991591 -0.14392453 -0.03939839
000050 4d 0d 9b bd cf 39 93 bd 50 f2 97 bd 7e 4e 4b bd
       -0.07570896 -0.071887605 -0.07419264 -0.049635403
000060 eb 42 a4 bd 7a 88 94 bd 4c 02 a2 bd ee 2c d6 3c
       -0.08020576 -0.07252593 -0.07910594 0.026144471
000070 88 f3 df bd b3 8e f9 3d c2 85 95 bd e4 2c 06 be
       -0.10935122 0.12185421 -0.07300903 -0.13103062
000080 13 5c 85 bd 05 dd 2a 3d 6d 65 1f bc 2b 8c 3f bd
       -0.065117024 0.041714687 -0.009728772 -0.046764534
000090 39 cd ff bd 5b a8 13 be 9f b5 04 be 1a 52 b7 bd
       -0.12490315 -0.14419691 -0.12959908 -0.089512065
0000a0 e1 3e 89 bd d6 cd c2 3c 9a 7f 9a bd 43 93 2e bd
       -0.06701446 0.02377979 -0.07543869 -0.04262091
0000b0 fc 58 38 bd f6 24 bd bd 14 dc c4 bd c5 63 b0 bd
       -0.045006737 -0.09235565 -0.09612289 -0.086127795
0000c0 a1 a2 da bd a9 a0 1a bc 39 df 9e bd 52 9b 1a be
       -0.1067555 -0.009437718 -0.0775742 -0.15098312
0000d0 c0 cc 3a 3b 1b c3 21 bc 80 94 31 be 03 c7 af bd
       0.0028503388 -0.009873177 -0.17341805 -0.0858288
0000e0 b9 93 1b bb 5c 02 4d bd 26 65 83 bd 64 04 23 be
       -0.0023739173 -0.05005108 -0.06415777 -0.15919644
0000f0 cb de 81 bd 55 30 b0 bd c6 56 3b bd 17 41 86 bd
       -0.063413225 -0.086029686 -0.04573705 -0.06555384
000100 70 48 03 3d 70 8c 9c bd 12 0e d8 bd 31 73 bf bd
       0.032051504 -0.07643974 -0.10549559 -0.09348143
000110 c5 bd d1 bd 2e 68 d6 3d ef 82 da bd 1d f0 7b ba
       -0.10241274 0.104690894 -0.10669505 -0.000961067
000120 39 1a 84 3d e4 eb 2c bd 37 1d 8f bc 24 bc 1b bb
       0.06450314 -0.04221715 -0.017469985 -0.0023763264
000130 a5 6f 9b bd bc 42 8e bd 45 bc e2 bd 42 6e 83 bd
       -0.07589654 -0.06946322 -0.11071066 -0.064175144
000140 9e 92 a3 3c a4 2d 98 bd 6a f2 82 bd 22 08 d6 bc
       0.019967373 -0.0743058 -0.06393893 -0.026126925
000150 82 79 30 be 79 ae a9 bd c2 58 5a 3c 51 cd 6c bc
       -0.17233852 -0.08285231 0.013326826 -0.014453248
000160 01 ff 11 be fc 69 b8 bd 62 ba 55 be c8 5f cc bd
       -0.14257433 -0.0900459 -0.2087188 -0.09979206
000170 bc ac 3f bd 20 4b cd bd cd 33 19 be e6 2e a0 bd
       -0.04679559 -0.100240946 -0.14961167 -0.07821445
000180 da 9f 5a bd e4 73 10 be 11 21 87 3b ef 41 a2 bd
       -0.053375103 -0.14106709 0.004123815 -0.07922732
000190 77 1d a0 ba a8 8a 71 3d 59 cb b2 bd da e6 f4 bd
       -0.0012215812 0.058970124 -0.08730192 -0.11958094
0001a0 6d 79 ac bd 0f c4 17 bd f8 4a 09 3d 99 bc 1a bd
       -0.08421598 -0.03705221 0.03351876 -0.037777517
0001b0 f1 4f 92 bc 76 3f b1 bd ba 18 a0 bd 7a 85 8a bd
       -0.017860385 -0.08654682 -0.07817216 -0.0676374
0001c0 ec 92 60 bd d2 0e b6 bd 3a de 41 be a0 31 6b ba
       -0.054827616 -0.088895455 -0.18932429 -0.0008971933
0001d0 a1 2f 0e be 91 39 1e be 3f c6 67 be b9 3d d2 bd
       -0.13885356 -0.15451647 -0.22634219 -0.10265679
0001e0 91 39 8c bd 63 27 5f bd 11 93 11 bc 9f e8 cb bd
       -0.068469174 -0.05448092 -0.008885161 -0.09956478
0001f0 5b 43 b6 bc b3 04 15 bd 3c ac 59 bc 93 c9 70 bc
       -0.022248914 -0.036381435 -0.013285693 -0.014696497

bn2.weight f4 [128]
000000 28 d8 c1 3f f0 90 15 3f 8d 35 88 3f be b6 85 3f
       1.5144091 0.5842428 1.0641342 1.0446393
000010 75 05 8e 3f c9 0e 78 3f 62 66 fe 3e f9 0a 89 3f
       1.1095415 0.9689756 0.49687487 1.0706474
000020 1a 99 72 3f 9c ad 0f 3f ee 57 27 bf de 12 57 3f
       0.94764864 0.5612428 -0.65368545 0.84013164
000030 6b 64 8a 3f 88 f9 32 3f 22 74 1c 3f b2 92 7b 3f
       1.0811895 0.69912004 0.61114705 0.98270714
000040 4e 9d 94 3f 62 af 49 3f 97 16 b3 3f 31 08 5c 3f
       1.1610506 0.7878324 1.3991269 0.8595
000050 48 2a f3 be 73 7a 87 3f 2a e3 a3 3f d6 e6 77 3f
       -0.47493196 1.0584244 1.28037 0.968366
000060 47 cc 0f 3f 01 bc a6 3f bd 5f 4e 3f 52 52 43 3f
       0.5617108 1.3026124 0.80614835 0.76297486
000070 82 9e 7e 3f 04 9d 1a 3f 34 33 20 3f 22 40 4e 3f
       0.99460614 0.60395837 0.6257813 0.8056661
000080 3c 40 a0 3f 2f ba b9 3f 84 6a 9e 3f cf 6a 94 3f
       1.2519603 1.4509944 1.2376256 1.1595095
000090 3d 46 ae 3f 44 85 79 3f 67 c4 80 3f 70 0a 68 3f
       1.3615185 0.9746897 1.0059937 0.90640926
0000a0 e0 cc 37 3f e0 ab 2a 3f c8 97 e1 3e 71 41 25 3f
       0.7179699 0.6666851 0.44061112 0.6455298
0000b0 e7 fb a5 3f 5d 53 59 3f e5 50 8a 3f 7b 1f 8f 3f
       1.29675 0.8489283 1.0805937 1.1181482
0000c0 f7 ce 89 3f 36 b4 4d 3f 88 bf c1 3f 29 37 cb 3f
       1.0766286 0.80353105 1.5136576 1.5876209
0000d0 58 b7 f5 3e 5e 53 52 3f 2e 14 17 3f bc 80 91 3f
       0.47991443 0.8215846 0.59015167 1.1367412
0000e0 21 db 28 3f f1 34 1e 3f 06 8d 8d 3f 41 6c a0 3f
       0.65959364 0.6179953 1.1058662 1.2533036
0000f0 f1 ff 23 3f 13 d6 94 3f 3a 25 0d 3f 7e 59 25 3f
       0.6406241 1.162783 0.5513493 0.6458968
000100 c4 a6 7a 3f 15 f0 38 3f 9f c0 32 3f fc 19 23 3f
       0.97910714 0.72241336 0.69825166 0.63711524
000110 42 de af 3f 2d 69 9e 3f e0 3f 3f 3f f3 79 b4 3f
       1.3739703 1.2375847 0.7470684 1.4099716
000120 64 f2 73 3f e4 2c 33 3f 77 84 6b 3f 96 63 9e 3f
       0.95291734 0.6999037 0.91999 1.2374141
000130 9a 45 8e 3f 5b 9a a6 3f 3c b4 b7 3f c3 00 19 3f
       1.1114991 1.3015856 1.4351878 0.5976679
000140 21 65 c0 3e 94 19 9b 3f ff 2f 87 3f eb 81 7f 3f
       0.37577155 1.2117181 1.0561522 0.99807614
000150 17 7b 87 3f 7c 0d 78 3f 1e de 9c 3f ea df a0 3f
       1.0584439 0.96895576 1.2255285 1.2568333
000160 c5 1d 67 3f 90 0c 96 3f 1b ed 82 3f 8a 69 65 3f
       0.902798 1.1722584 1.0228609 0.89614165
000170 71 b7 67 3f de 95 34 3f cb eb cc 3e 26 fa e1 3e
       0.90514284 0.7054118 0.40023646 0.4413616
000180 43 5f 79 3f 6b 4e 9e 3f 26 24 76 3f f1 dc 39 3f
       0.9741098 1.2367681 0.9614891 0.72602755
000190 37 43 fd 3e fe af a1 3f 88 0a 86 3f d8 35 10 3f
       0.49465343 1.2631834 1.0471964 0.5633216
0001a0 9e 87 ac 3f 3a 35 9f 3f 6d aa 80 3f fd 63 84 3f
       1.3478887 1.2438118 1.005201 1.0343014
0001b0 ea 9f a9 3f 3d 3a 44 3f c0 24 8f 3f 48 48 40 3f
       1.3251927 0.76651365 1.118309 0.7511029
0001c0 33 a5 33 3f c8 33 bf 3e e6 ca 3c 3f 19 31 07 3f
       0.7017395 0.37344193 0.737471 0.5280929
0001d0 37 05 84 3f fc b4 08 3f c9 4f a7 3f 5e 56 27 3f
       1.0314091 0.5340116 1.3071223 0.6536616
0001e0 85 73 41 3f bc 6b 56 3f df e0 38 3f cd 3d 39 3f
       0.75566894 0.8375814 0.72218126 0.72359926
0001f0 22 7d 55 3f b4 04 12 3f 84 b3 24 3f ed 34 23 3f
       0.8339406 0.57038426 0.6433642 0.63752633

bn2.bias f4 [128]
000000 17 7d b2 bc 70 24 84 bc 83 4e 93 3c ae 95 c4 3c
       -0.021788163 -0.016130656 0.017981773 0.023997154
000010 63 85 50 3c 2b cb 32 bd d0 1e c0 bc 8b 4e e7 3c
       0.012727114 -0.043650787 -0.023452193 0.028235694
000020 97 5b 1a bc 55 63 ca bc 60 8b 21 3c 7d 25 e9 bb
       -0.009421251 -0.024705568 0.00985989 -0.0071150647
000030 7a 2f 0f bd 32 59 95 bb 7a fc 0f bd 3f 8a 21 bd
       -0.034957387 -0.004557752 -0.03515289 -0.039438482
000040 fb 1d ab 3c 98 c7 2f 3d c1 9b 32 3d 51 2d 0f bd
       0.02088832 0.042914957 0.04360557 -0.034955326
000050 1f 76 e6 bb 71 8d f7 3d 0f 0b 8f 3b fa d4 76 3b
       -0.007033124 0.12087525 0.004365332 0.0037663565
000060 90 9b 37 bd 56 e6 9e 3d 30 7c 9f 3c ee ff 84 bc
       -0.04482609 0.07758777 0.019468397 -0.016235318
000070 86 3a 80 ba c3 f2 d1 3c dd 3c c1 bc 80 2e 2b bd
       -0.0009783066 0.025628453 -0.023588592 -0.041792393
000080 fd 00 61 bd c9 59 1c bd 0c 7f 23 bd d7 49 e3 38
       -0.054932583 -0.038171563 -0.039916083 0.00010837957
000090 27 8f a2 bc bc a3 06 bd 40 ba 4f bd 75 9a 70 3d
       -0.019843651 -0.032870993 -0.05071473 0.05874105
0000a0 95 dc f4 bc 4e f2 37 bc 0f 18 2c 3c 92 56 ae bd
       -0.029890338 -0.0112272035 0.010503783 -0.08512606
0000b0 fb ca 23 bb 99 59 11 bd b8 e2 52 3d 4a 80 26 bc
       -0.0024992812 -0.035485838 0.051485747 -0.010162422
0000c0 64 ab d9 bc b2 f9 04 3d 0b 57 ca 3c 90 d2 30 bd
       -0.026570983 0.03246469 0.024699708 -0.043169558
0000d0 3f 6f ff bc e0 a1 a5 3c 36 74 67 bc 42 71 93 bc
       -0.031180976 0.02021879 -0.014126828 -0.017998341
0000e0 3d 7d 8c 3c c5 f3 4f 3c 94 38 f4 bc 25 46 3d bd
       0.017149562 0.0126923965 -0.029812135 -0.046209473
0000f0 fa 41 15 bd 22 81 c2 bc 48 34 7f b8 6e 28 8f bc
       -0.036439873 -0.023743216 -6.084543e-05 -0.017475333
000100 99 83 0a bd ba 22 bf bc bb 17 c2 bb b0 6d af 3c
       -0.033816908 -0.023331989 -0.005923239 0.021414608
000110 a2 4d 2b bc 67 b6 b6 bb f2 fa bb 3b 7b a3 96 bc
       -0.010455521 -0.0055759433 0.005736702 -0.0183885
000120 b6 46 b4 bc 95 08 02 bd 1a 83 1e 3d 66 ba 2f 3c
       -0.022006374 -0.031746466 0.038699247 0.010725593
000130 d2 09 52 3d 5e 02 a1 3c 46 b2 3a bd b8 80 27 bb
       0.051278897 0.01965445 -0.04558017 -0.00255589
000140 eb 5a 9c 3c d2 80 e3 bb 5c c2 93 3c df 10 7c bc
       0.019086322 -0.006942847 0.018037014 -0.015384882
000150 b6 8f 0a bd 84 bb ff 3b 25 d5 83 bc 98 ae 2b bc
       -0.03382846 0.007804336 -0.016092846 -0.010478638
000160 74 4e bc 3c 8b 31 cf bb c1 78 3e bd 23 89 f5 3c
       0.022986628 -0.0063230447 -0.04650188 0.029972618
000170 ff 7e c2 bb 7d 7c 05 bc bc 38 ea bc 73 0e ae bc
       -0.0059355493 -0.008147356 -0.028591506 -0.021247124
000180 10 75 17 3c 68 ea af bc b2 83 7c bb c1 a5 a6 bb
       0.0092442185 -0.021474078 -0.0038530645 -0.0050856774
000190 28 42 a7 3c 3d 7e 45 3c cc d5 7a bc f4 ba c9 3d
       0.020417288 0.012054023 -0.015309762 0.098501116
0001a0 2c 16 f6 bc f5 10 08 3d 79 6d fa 3c 4e 83 a2 3c
       -0.03003987 0.033219296 0.030569779 0.019838002
0001b0 60 b3 b5 bc e7 76 b7 bc bf 68 bd 3b b8 9a 80 bc
       -0.02218026 -0.022395564 0.005780309 -0.015698776
0001c0 ed 9c 6c bc ac 92 80 bc eb 75 b6 bc 01 5b 03 bd
       -0.014441711 -0.015694939 -0.022273025 -0.03206921
0001d0 c5 7a 08 bd e2 af 53 bc 00 f0 ba 3d e6 33 f7 bc
       -0.033320207 -0.012920352 0.091278076 -0.030176114
0001e0 1b e5 70 3b ce 0c 89 3c a9 e6 9f bc 58 fc 9e bc
       0.0036757651 0.016729739 -0.019519167 -0.019407436
0001f0 f2 91 00 3c b2 e8 0c bd a7 2d ba 3c ad 33 94 3b
       0.007847296 -0.034401603 0.022726847 0.004522762

bn2.running_mean f4 [128]
000000 86 1c 73 3d c8 bf d9 3c 9e 80 0d 3c 89 55 7d 3c
       0.059353374 0.026580706 0.008636622 0.015462288
000010 2e 65 54 3d 9b 45 57 3e 55 5e 61 3e 77 26 a7 3c
       0.051854305 0.21022646 0.22008641 0.020404084
000020 45 34 99 3b 29 87 8a 3d 64 f1 32 3d 0a 4e 50 3c
       0.0046754205 0.06764061 0.04368724 0.012713918
000030 9c b1 66 3d b3 2d 19 3d 6c 68 92 3c b6 66 1a 3e
       0.056321725 0.037397098 0.017872058 0.15078244
000040 ce b7 99 3d cb 8e 86 3d 9e 06 f8 3b f9 03 02 3e
       0.07505761 0.06570204 0.007569148 0.12696828
000050 1d 22 c1 3c ba bb 69 3d 54 cb bc 3b 04 00 00 00
       0.023575837 0.057063796 0.0057615433 6e-45
000060 04 99 1a 3d e3 36 40 3d a8 87 ae 3c 32 01 b2 3d
       0.037743583 0.046927344 0.02130492 0.08691634
000070 8a c5 d0 3c 6c 87 6c 3e 1e 88 bd 3d 1b a0 02 3c
       0.025484819 0.23098534 0.09254478 0.007972742
000080 5c 00 00 00 84 80 26 3d 84 4a 36 3e 65 c3 34 3e
       1.29e-43 0.040649906 0.17801863 0.17652662
000090 ac 5a a0 39 29 3f b2 3c 38 78 ea 3c 98 6a 67 3d
       0.00030585134 0.021758633 0.028621778 0.05649814
0000a0 ac 45 20 3d bb 0b 0c 3d c8 1e 5e 3d a4 0e 86 3c
       0.039128944 0.034190875 0.054228574 0.016364403
0000b0 e4 d5 03 3d 26 6f ed 3c be a2 d4 3c 04 00 00 00
       0.032186404 0.028983664 0.025956508 6e-45
0000c0 e2 8b 67 3d b6 5f aa 3d 88 9d 0f 3c 89 fc 7d 39
       0.056529887 0.08319037 0.008765586 0.00024222037
0000d0 6e 47 a9 3d 76 8d 9f 3d b3 e0 d4 3c 13 96 3f 3d
       0.08265577 0.077906534 0.025986051 0.04677398
0000e0 cb 60 f2 3c 0e 6a ca 3d ca b1 0b 3d f3 23 45 3d
       0.02958717 0.098835096 0.0341051 0.048129987
0000f0 65 4f 0d 3e 74 ac 06 3e 04 00 00 00 92 d4 07 3d
       0.13799818 0.13151723 6e-45 0.033161707
000100 1d 56 a7 3e 83 34 cd 3d 61 bb dd 3c 7e a8 6f 3b
       0.32682887 0.100197814 0.027066888 0.0036568935
000110 26 3f 37 3d 62 4a 82 3e ff 36 ae 3c 4d 9b e1 3d
       0.044737957 0.25447375 0.021266459 0.110159494
000120 22 c0 4c 3e d2 e0 a9 3d 22 69 43 3b fc 94 fc 3d
       0.19995168 0.08294834 0.0029817303 0.12333104
000130 04 00 00 00 68 68 9f 38 04 00 00 00 7f b8 e1 3c
       6e-45 7.601158e-05 6e-45 0.027553795
000140 b5 f8 05 3d 9d c7 90 3c f1 c8 89 3c 0f 7d e6 3c
       0.03270789 0.017673308 0.01681945 0.028135804
000150 54 7f 02 3d bd b0 d2 3d f1 5e 1b 3e a2 40 ea 3c
       0.03185971 0.102876164 0.15172936 0.028595272
000160 11 39 41 3c b3 be 5a 3c e0 93 de 3b 77 fd 97 3c
       0.011793391 0.01335113 0.0067925304 0.018553479
000170 15 03 0d 3c b5 1a 57 3c 09 e3 05 36 c0 24 8f 3b
       0.008606692 0.013128926 1.9950696e-06 0.0043683946
000180 e0 7c 4f 3c b3 46 26 3d c0 59 60 3d 58 ad 15 3c
       0.01266405 0.040594768 0.054773092 0.009135567
000190 97 9f 83 3c c1 a0 0f 3e 86 4d 49 3d 94 93 28 3d
       0.01606731 0.14026166 0.049146198 0.041156366
0001a0 b5 8e ab 3c 4b f9 ae 3d c6 62 1d 3e 48 9b 39 3c
       0.020942071 0.085436426 0.1536971 0.011328526
0001b0 80 de 42 3e 3c 7f a4 3c ee 8e 21 3d e4 e1 49 3d
       0.1903019 0.020080201 0.03944295 0.04928769
0001c0 9b c1 57 3d 2f 41 05 3c 56 3b 06 3d 5a f0 27 3d
       0.05267487 0.008133217 0.03277143 0.0410007
0001d0 bf 9f b0 3c 94 89 95 3c a9 24 b1 38 a5 a1 a3 3b
       0.021560548 0.018254079 8.446846e-05 0.0049936348
0001e0 92 74 d1 3b ca 0d 81 3b 1a 71 1a 3d cc c7 5c 3d
       0.00639207 0.0039384114 0.03770552 0.05390148
0001f0 44 85 d2 3d 1b 6c 69 3d f5 37 b4 3d 52 6a 4f 3c
       0.10279325 0.056987863 0.087997355 0.012659626

bn2.running_var f4 [128]
000000 f4 a1 bf 3c e7 f0 e7 3b 01 e4 c8 3a 0e a9 5c 3b
       0.023392655 0.0070782783 0.001532674 0.00336701
000010 83 52 a3 3c b3 d5 82 3d ee 7e 86 3d 68 9c 9e 3b
       0.019936806 0.06388416 0.06567179 0.0048404224
000020 38 ee 5c 3a f6 e1 aa 3c 4a eb 5c 3c 6b 71 11 3b
       0.00084278313 0.0208597 0.013483832 0.0022192847
000030 f1 19 9f 3c 42 f0 00 3c 71 c0 93 3b 93 1a 7e 3d
       0.01942155 0.007869782 0.004509025 0.062037062
000040 b2 0d 03 3d 10 fc b3 3c 72 a2 d9 3a 5d 70 2d 3d
       0.031995483 0.021970779 0.0016604199 0.042343486
000050 48 8f d2 3b 6d de 71 3c f4 2b 73 3a 04 00 00 00
       0.006425772 0.014762503 0.0009276264 6e-45
000060 04 b7 01 3c 87 c8 38 3c 12 76 df 3b 0f 80 0b 3d
       0.0079171695 0.011278278 0.006819495 0.034057673
000070 72 f2 9a 3b 69 a4 bc 3d 8c b3 c8 3c a5 9f b3 3a
       0.0047286088 0.09211046 0.024499677 0.0013704194
000080 04 00 00 00 e4 17 1b 3c 1e 34 30 3d 5d e6 4c 3d
       6e-45 0.009466145 0.043018453 0.05002438
000090 ac 15 0d 38 d7 7e da 3b 8e f8 9f 3b ba af c1 3c
       3.3637203e-05 0.0066679525 0.004881925 0.023643363
0000a0 16 b5 4d 3c cb 69 ca 3b 46 9a b0 3c d4 6d 43 3b
       0.012555381 0.0061771623 0.021557938 0.0029820101
0000b0 7a 30 3e 3c db 1e e5 3b 18 c6 f5 3b 04 00 00 00
       0.011608237 0.0069922036 0.0075004213 6e-45
0000c0 cc 7f 6f 3c b3 9e dd 3c 14 e8 b2 3a 7c 82 9e 37
       0.0146178715 0.027053213 0.0013649487 1.889583e-05
0000d0 48 75 9e 3c fc 27 b9 3c 02 56 dd 3b 37 7d 4e 3c
       0.019343033 0.022602074 0.0067546377 0.012603096
0000e0 1f b9 ed 3b 6a 26 29 3d 06 0d d0 3b 10 bb 8a 3c
       0.007254734 0.0412964 0.0063492088 0.016934901
0000f0 0c ab 46 3d 9c 52 08 3d 04 00 00 00 25 d7 cc 3b
       0.048502967 0.033281907 6e-45 0.006251233
000100 ca 0d f2 3d fd 23 06 3d 81 a0 1e 3c 94 76 6c 3a
       0.11819036 0.032749165 0.009681822 0.0009020355
000110 fa 13 2b 3c ef e5 b8 3d ff 2d 8f 3b a5 3d d7 3c
       0.0104417745 0.09028231 0.004369497 0.026274512
000120 32 06 98 3d 0d 4c 29 3d d4 22 9e 39 4e f6 3f 3d
       0.07423057 0.041332293 0.00030162057 0.046865754
000130 04 00 00 00 4e 7e 23 36 04 00 00 00 90 06 08 3c
       6e-45 2.4362412e-06 6e-45 0.008302346
000140 66 1d 02 3c 12 f0 b9 3b de 51 2d 3b aa 71 f9 3b
       0.007941579 0.0056743706 0.0026446502 0.0076124268
000150 3d 95 00 3c 29 f5 07 3d 61 a0 95 3d 41 5a 26 3c
       0.007848081 0.033192787 0.073059805 0.010153354
000160 aa 47 1e 3b d3 4f 4c 3b a3 bb ab 3a 50 18 f2 3b
       0.0024151602 0.0031175509 0.0013102185 0.007388152
000170 46 ac b9 3a ff a1 84 3b 7a 3e a9 33 78 bc 8f 3a
       0.0014165721 0.0040476318 7.88104e-08 0.0010966202
000180 3e de 1b 3b 98 21 9f 3c b6 be 51 3c 26 67 93 3a
       0.002378359 0.019425198 0.012801817 0.0011245951
000190 ac 19 5e 3b cf 81 2e 3d 6a bb 44 3c fb 85 37 3c
       0.0033889813 0.042604264 0.012007574 0.011201377
0001a0 f9 7f 87 3b 3f d8 e5 3c 5b 72 4a 3d 0c 29 36 3b
       0.0041351286 0.028057216 0.049425464 0.0027795462
0001b0 44 88 72 3d 3a ef 9e 3b 85 d7 13 3c fe de 4f 3c
       0.059211984 0.0048502954 0.009023552 0.012687443
0001c0 52 a9 6c 3c a7 f3 c9 3a a4 3e 74 3c f2 f3 33 3c
       0.014444666 0.0015407697 0.014907513 0.010983454
0001d0 b8 40 06 3c 0d fe 62 3b b6 e0 31 37 4f ce 26 3a
       0.008194141 0.003463629 1.0602342e-05 0.000636314
0001e0 09 1e be 3a ff 8b d1 39 90 05 2d 3c 27 bf 89 3c
       0.0014504801 0.00039967892 0.010560408 0.016814781
0001f0 c7 90 15 3d c3 5f 72 3c 8e 91 e3 3c 33 24 29 3b
       0.036515024 0.014793339 0.027779367 0.002580893
