agent2_checkpoint_critic_final.pth (torch_old, 97070 bytes, 9 tensors)

fcs1.weight f4 [128, 48]
000000 f2 fb e5 bd 66 25 6d bb 88 33 f3 bc 2a c9 0b bb
       -0.112296954 -0.0036185621 -0.029687658 -0.002132962
000010 25 9f ca 3d 41 96 4b bc 56 b4 0a 3d bc 57 ab bd
       0.09893636 -0.01242596 0.033863388 -0.083663434
000020 8d 59 f2 bc 11 71 26 be c6 92 a3 bd 5c 17 99 bd
       -0.029583717 -0.16254069 -0.07986979 -0.074751586
000030 41 8f b0 bc a9 1a 2d 3d b1 8c 08 be 9a 33 18 3c
       -0.021552684 0.042261753 -0.1333492 0.0092896465
000040 2e 8e d1 bd ca c4 74 bc fd b0 60 bc aa 84 cc bc
       -0.10232197 -0.014939496 -0.013714072 -0.024965603
000050 fa 1b 08 3e 83 b8 92 ba 6d b1 1e bc a1 50 a4 3c
       0.13291922 -0.0011193905 -0.009685856 0.020057978
000060 87 7f 15 bd 0f 70 35 3d c5 18 8d 3c b6 db cf bc
       -0.036498573 0.04429632 0.017223725 -0.025373321
000070 07 c7 bb bc 22 93 af bd 90 71 3f 3d 40 e8 d9 bc
       -0.022922052 -0.08572985 0.04673916 -0.026600003
000080 3c 30 8b ba 04 08 2e 3e 34 de 5d bd 71 26 21 3d
       -0.0010619233 0.16995245 -0.054166988 0.0393433
000090 26 c0 2d bc 10 9c 9b bd 20 1a 9f 3c 76 c6 9e 3c
       -0.010604894 -0.07598126 0.019421637 0.019381743
0000a0 5c 10 66 3d 6b f1 2d 3d 73 ce b5 3c 93 59 8d bd
       0.056167945 0.042466562 0.02219317 -0.069018506
0000b0 9b 24 46 ba 5a 30 1f bd 5a de 44 3c af e8 a4 bd
       -0.0007558555 -0.03886447 0.012015903 -0.080521934
0000c0 ca 42 02 bd 1c 4e 26 bb 97 78 d8 bc 61 1e 0a bc
       -0.031801976 -0.0025376147 -0.02642469 -0.008430094
0000d0 4b 3d ae bd a6 b5 a8 bd 25 29 ed 3c 62 2a 10 3e
       -0.085077845 -0.08237772 0.028950283 0.14078668
0000e0 ab 2d 4c bc 15 65 d7 3a 4f 8b 81 3d 67 2d 54 bc
       -0.01246206 0.0016433323 0.06325399 -0.012950278
0000f0 c9 50 84 3d c2 8d 93 bd 0f 9f 87 bd fb d2 e7 3d
       0.06460721 -0.072047725 -0.06622135 0.11319538
000100 9d 1c c3 3c 9c 03 af 3d 7e be 6c 3b aa 2a 1e be
       0.023817355 0.0854561 0.0036124284 -0.15445963
000110 a2 25 04 3d 48 d9 06 3e 48 06 d7 bb f0 a5 36 be
       0.032262452 0.13168824 -0.006562028 -0.17836738
000120 c6 e7 7e bd 2b 0a 4f bc 47 a5 ae bc 82 f3 76 3d
       -0.062232755 -0.012636702 -0.021319045 0.06029082
000130 27 0c 0a bd da b5 e2 bd fd ac c6 3c f9 c1 50 bd
       -0.033702996 -0.11069842 0.02425241 -0.050966237
000140 bc 01 29 3d 5b cf bf 3d 4d b5 6f bd 92 ab 95 bd
       0.04126142 0.09365722 -0.05852251 -0.07308115
000150 63 55 85 3d f5 96 1d ba 37 84 5e 3d 92 87 aa 3d
       0.06510427 -0.0006011569 0.05432531 0.08326639
000160 19 91 ef 3b a6 92 d0 3c ac 05 50 bb 1d 1c 08 bd
       0.007310998 0.025460552 -0.0031741662 -0.033229936
000170 f8 30 ac bd 39 3c fb 3d 29 3e 9b 3b 9d 5c 35 3d
       -0.084077775 0.12267346 0.0047376347 0.044277776
000180 0e e9 76 bd 2d 8c e5 3d 90 b5 36 3d 07 72 78 3c
       -0.060280852 0.11208377 0.044606745 0.015163905
000190 0e 78 ad bd 74 d2 08 3d b4 d6 53 bd 70 12 b5 bd
       -0.08470164 0.03340383 -0.05171843 -0.08841407
0001a0 46 62 36 3d 7e 6d 0e 3d f1 55 98 bc 26 50 4b bd
       0.044527315 0.03477239 -0.018595668 -0.049636982
0001b0 67 ee cc bd ab 2f 0d 3e 86 5a f0 3c 11 b9 82 bd
       -0.10006409 0.13787715 0.02934004 -0.06382955
0001c0 b7 79 a7 bd 1c 05 7b 3c d7 ad 70 bb 60 cb 87 bb
       -0.08177512 0.015321042 -0.003672471 -0.0041441172
0001d0 42 b4 ab bd 2e 2e ae 3d 6a d8 15 3d 2f ff 1a bd
       -0.08383991 0.08504902 0.03658334 -0.03784102
0001e0 43 b8 ec bd 36 51 90 be 1e 7c b1 3c bc 0f 66 3d
       -0.11558583 -0.2818696 0.021665629 0.05616735
0001f0 59 30 2b 3d d3 7a 83 3c f8 2d d3 bc c8 dc 72 3d
       0.041794155 0.016049778 -0.025778756 0.059292585
000200 4c bf ab bc 82 34 6e be 52 9e 88 bd 76 74 ae 3c
       -0.02096524 -0.23262218 -0.06670822 0.021295767
000210 1f 03 46 3d 00 76 fc 3d b6 f2 57 3d 8a 0b 59 3d
       0.04834282 0.12327194 0.0527217 0.05298952
000220 7f 42 a9 bc 57 c2 a9 be c6 e9 a3 3d 15 de 0c bd
       -0.02066159 -0.33156082 0.08003573 -0.03439148
000230 7a b8 b9 3d c2 5d 27 3e 91 0d 19 bd 53 4a 53 3d
       0.09068389 0.1634436 -0.037366454 0.051584553
000240 95 56 10 ba b2 85 ec 3d 0c 69 3a 3d 0f 1f 07 3d
       -0.0005506066 0.11548938 0.045510337 0.032988604
000250 82 65 ed 3c 23 27 15 3e 86 df 3f bd 1c b6 70 bd
       0.028979067 0.1456571 -0.046844028 -0.058767423
000260 1a 99 85 bd 4f b3 48 3e 6a 34 be bc b5 c3 b6 bd
       -0.065233424 0.19599651 -0.023218352 -0.08924047
000270 fa 20 0d 3e f1 54 9d 3d 4e 4e 85 3c 57 4c 44 3d
       0.13782111 0.07682217 0.01627269 0.047924366
000280 a6 30 35 bd 36 71 17 3d 5e 7b cf bc b0 81 3f 3d
       -0.044235848 0.0369732 -0.02532738 0.04675454
000290 ae 65 17 3e 89 d5 40 3e 92 21 c3 3c 37 f2 cc 3c
       0.14784881 0.18831457 0.023819719 0.02501784
0002a0 bf ef 44 3c b8 4b 28 3d 79 ec aa bd fc 69 a3 3c
       0.012020051 0.041087836 -0.08345885 0.019947998
0002b0 44 18 5b bd 92 5f e3 bc 81 b0 a2 3d 3a 6f c9 3c
       -0.05348994 -0.027755532 0.07943822 0.02458917
0002c0 b7 1a cd 3c ab 9b 33 bd 46 56 a4 3c 7d 86 b8 3d
       0.025037153 -0.04384963 0.02006067 0.090100266
0002d0 c3 44 50 bd db aa bd 3d 24 19 59 bc 61 ee a4 bd
       -0.050846826 0.09261104 -0.013250623 -0.0805328
0002e0 52 9b 90 bd 28 73 a3 3d f8 4f a6 3c ac b9 87 3c
       -0.07060875 0.07980949 0.020301804 0.016568027
0002f0 33 c6 a2 bd 1b 04 dc 3d 9f 17 be 3a 14 0c d4 3c
       -0.0794796 0.107429706 0.0014502889 0.025884666
000300 b2 45 56 3b 79 80 be 3d b7 30 44 3a a5 ea 85 bd
       0.003269535 0.09301848 0.0007484066 -0.065388955
000310 06 79 c3 bc 1c 82 26 bd d8 01 2c 3d c9 3c e4 3c
       -0.02386142 -0.040651426 0.041993946 0.027861016
000320 01 e1 21 3b d2 92 de 3d 0a cf c7 bc ba 48 5e 3d
       0.0024700763 0.108678475 -0.024390716 0.054268576
000330 44 40 24 3e 91 8b 8d 3b 05 69 0f 3d 56 09 74 bc
       0.1604014 0.004319616 0.035012264 -0.014894804
000340 75 10 d4 3d 9c ea c1 3d 4a 4a 98 bc 13 68 a2 3d
       0.103547014 0.09468576 -0.018590111 0.07930007
000350 b5 a9 3b 3d 3a f6 0c 3d ff a6 db bc 3d 0e e3 3d
       0.045816142 0.034414507 -0.026813028 0.110867
000360 d2 fd 5b 3e 68 5d 4d 3d cf 21 c0 3c d6 bc 27 3d
       0.21483544 0.050137907 0.023453621 0.040951572
000370 30 ac 20 bd 49 8a b8 bd 26 72 07 bd c2 bd 1f bc
       -0.03922671 -0.09010751 -0.033067845 -0.009749832
000380 0e 69 72 3e 4b a2 45 3d 33 0c d2 3d b7 dd 98 3c
       0.23672888 0.048250478 0.10256233 0.01866041
000390 38 53 d3 bc e0 dd 36 bd 5e 89 0e 3d 05 1d 0a 3d
       -0.025796518 -0.04464519 0.034798972 0.03371908
0003a0 57 01 dd 3d 6f 62 78 3d ed 6e e6 3c 22 d5 2c bb
       0.10791271 0.06064075 0.028129065 -0.0026372154
0003b0 c2 d3 f1 bd 44 b4 1d ba 5d 9f d2 3c 49 6d 60 bd
       -0.11807968 -0.00060159364 0.025710756 -0.054791722
0003c0 f7 d1 df 3d 58 b7 cf 3d 8f f3 98 bc 62 a5 aa bd
       0.109287195 0.10142392 -0.018670825 -0.083323255
0003d0 77 1d 68 3c e6 fc ca 3d 1b 5d f1 bc 4f 6a 29 bd
       0.014167181 0.09911518 -0.029463341 -0.04136115
0003e0 8b 5e 87 bd 34 28 3c bd ab 1d 67 bd 04 a7 5d bd
       -0.066098295 -0.04593678 -0.056424778 -0.054114357
0003f0 47 3c 45 3a 06 9a 35 3e ab 81 5a 3d e0 6a ce bd
       0.00075239356 0.17734537 0.053346317 -0.100789785

fcs1.bias f4 [128]
000000 7a 1f 44 bc 83 e8 18 be 53 cb ab 3c 10 d9 cd bd
       -0.011970395 -0.14932446 0.020970976 -0.10051167
000010 aa aa 7f bc a9 79 ac bd 00 ff 8a bd e7 89 9f 3a
       -0.015604654 -0.08421642 -0.06786919 0.0012171835
000020 9a 7b e6 bc d9 d5 e8 bd c7 04 09 be 3b 16 16 be
       -0.02813511 -0.11368913 -0.13380729 -0.14656918
000030 36 48 c6 3d 44 39 e0 bd 9c 43 ef bb 5f 2f 8f bd
       0.09681742 -0.109484226 -0.007301761 -0.06991457
000040 17 12 54 bd 45 38 ae 3d a7 40 20 be e4 43 2e 3d
       -0.051775064 0.08506826 -0.15649663 0.042545214
000050 d5 85 cf 3d f0 e4 0f be c9 c1 27 3e 6a ba b8 3d
       0.10132948 -0.14052176 0.16382517 0.09019931
000060 0f 1c f0 ba 9b 39 2e 3d 4e 32 db 3d 89 62 54 be
       -0.0018318909 0.042535406 0.10702954 -0.20740713
000070 5c 39 f2 bd 4e 2e e7 3d 51 af 89 3c 48 45 9c 3d
       -0.11827347 0.11288129 0.01680723 0.07630402
000080 3b d9 12 3e 6b f6 6c 3d 90 f7 81 bb 05 1b 3f be
       0.1434068 0.05785219 -0.0039662793 -0.18662651
000090 52 65 c9 3b e8 db b6 bc 20 9a 0a be 8b a3 1c bd
       0.0061461115 -0.022321656 -0.13535357 -0.038241904
0000a0 0e db e3 3b 9f fb 14 bb e5 70 4c 3e 5c cc a6 3c
       0.0069536036 -0.0022732986 0.19964941 0.020361118
0000b0 50 d6 90 bd cc 49 ae bd eb e8 56 bd cd 22 05 3c
       -0.07072127 -0.085101694 -0.05246822 0.008125973
0000c0 d6 35 10 3c 8a c1 a2 3d 81 f4 da 3d e9 f2 1f be
       0.008801898 0.07947071 0.10691167 -0.15620007
0000d0 19 ed 0e be d1 13 02 3d 4e 74 c8 3d 24 b4 79 be
       -0.13957633 0.03175718 0.09787808 -0.24385124
0000e0 64 23 dd bc a4 3c 58 bd 42 95 75 bc a1 c3 dd 3d
       -0.026994415 -0.052792206 -0.014989199 0.10828329
0000f0 08 7d 56 be 3a d1 db bb f9 39 81 bd 2d 07 a1 bd
       -0.20946133 -0.0067082914 -0.063098855 -0.07862697
000100 3f 84 17 3e 69 25 88 3c f5 21 58 3d 79 88 89 bd
       0.14796542 0.016619401 0.05276676 -0.06715483
000110 7b 30 cf 3b 24 46 80 3d aa 07 c1 bd 34 5f 57 bd
       0.006322918 0.06263378 -0.0942529 -0.052581027
000120 74 6b 5d bd ed fa 82 3d 76 91 9f bd b5 fa 9d 3d
       -0.054057553 0.063955165 -0.07791416 0.07713834
000130 e9 26 ce bd f6 16 b4 bd fb ad 1b be 93 13 d7 3d
       -0.10066015 -0.08793442 -0.15203087 0.1050178
000140 3b 7b cc 3d 9c a8 3f be 3f fc 6c bd 12 c1 c5 bd
       0.09984442 -0.18716663 -0.057857748 -0.09655966
000150 30 ab 1c 3d 04 00 58 3e a4 2a d7 bd 08 15 c2 bd
       0.038249195 0.21093756 -0.1050618 -0.09476668
000160 e5 c7 09 be d9 76 12 3e b8 f7 6e bb e5 38 21 be
       -0.1345516 0.1430315 -0.003646357 -0.1574436
000170 f0 8a 87 3d 3c 3e 79 3d 50 d0 5c bd bd 57 b1 bb
       0.06618297 0.060850367 -0.0539096 -0.0054120705
000180 e5 fc ff bb c4 d6 4e be 76 a6 1a be 4d d2 cc bd
       -0.00781213 -0.20199114 -0.15102562 -0.10001049
000190 94 0a 41 be 6b 8f 5f 3e ae 43 07 bd 08 fd 66 3c
       -0.18851691 0.21832053 -0.03302353 0.014098413
0001a0 1f 05 89 bd 4f 79 34 3d 7e 8a 32 3d 1c db be 3c
       -0.0669043 0.044061 0.043589108 0.023297839
0001b0 0d 9f 0f bc de 55 f1 bd fe 0c 2b be 8c b9 8b bd
       -0.008765948 -0.11783956 -0.16704175 -0.068225
0001c0 f8 91 a0 bd f7 63 ff bd 2e ff 75 be b3 45 1e 3e
       -0.07840341 -0.12470239 -0.24023125 0.15456276
0001d0 90 3c 64 be 44 b2 38 3e 28 0a a9 bd 53 d1 ae bd
       -0.22288728 0.18036753 -0.0825389 -0.08536019
0001e0 f6 b7 cd 3d 29 89 57 bd 52 c7 db 3d fc c7 49 3d
       0.100448534 -0.05262104 0.10731377 0.049262986
0001f0 b9 13 98 3d 3b 1e 33 3d 4b 64 ce bc f7 ec 4a 3c
       0.07425637 0.043730002 -0.025194308 0.012385598

bn1.weight f4 [128]
000000 a1 e2 22 3f 45 6d 6c 3f 9f 6c 5c 3f 35 92 35 3f
       0.6362706 0.9235423 0.8610324 0.7092622
000010 a7 12 1d 3e 25 98 a5 3e 82 64 84 3e c8 bd 82 3e
       0.15339147 0.3234264 0.2585793 0.25535417
000020 58 b2 63 3f fd a2 c8 3e ce 46 15 3d 43 a6 2d 3f
       0.88944006 0.3918685 0.036444478 0.6783182
000030 40 49 61 3f 74 9d f1 3e a6 a3 16 3f d8 37 2c 3f
       0.88002396 0.4719044 0.5884346 0.6727271
000040 42 ad d6 3e e5 77 3b 3f c7 dd 38 3f b9 85 16 3f
       0.4192906 0.7322982 0.72213405 0.58797795
000050 16 7f 6e 3e 61 65 44 3f 45 7b 49 3f 03 dd 92 3e
       0.23290667 0.7671719 0.7870372 0.28684244
000060 0d a3 01 3f 7a a0 36 3e 08 03 0b 3f 04 f2 d3 3e
       0.5063942 0.17834654 0.543015 0.4139558
000070 e5 f8 e0 3d 7a 8d 98 3e f7 a7 1e 3e 53 b2 92 3e
       0.10984973 0.29795438 0.15493761 0.28651676
000080 7d 29 99 3d d8 96 4e 3e d2 52 34 3f 5a 33 e6 3e
       0.074786164 0.2017473 0.70438874 0.44961053
000090 ce d8 46 3f f3 8d 0e 3f 2f 15 b6 3e 72 bc 29 3f
       0.7767457 0.5568535 0.35563037 0.6630317
0000a0 c9 bf 47 3e 8c 1d 49 3f fe 06 8b 3e 8e 0d e0 3e
       0.19506754 0.7856071 0.27153772 0.4376034
0000b0 90 94 eb 3e 9e 43 04 3f 08 47 28 3f 59 96 a1 3e
       0.46011782 0.51665676 0.65733385 0.3156002
0000c0 79 22 5e 3f 42 ce 8c 3e ee 99 6c 3f e2 8d 71 3f
       0.8677135 0.27501112 0.9242238 0.9435712
0000d0 dd 5a 2d 3e 2c 86 41 3f 9c b9 45 3f d6 e2 cb 3e
       0.16929193 0.75595355 0.7723634 0.398215
0000e0 c4 20 e4 3d d3 e7 ed 3e d2 8a 3d 3e 46 68 b3 3e
       0.11139062 0.4646593 0.18509987 0.35040492
0000f0 26 81 7d 3f 92 95 46 3f cf 0b 2d 3f e1 f0 66 3e
       0.9902519 0.77571976 0.67596143 0.22552826
000100 f8 d3 8b 3e f1 9c d3 3e 5b 6e 39 3f 67 9f 7c 3e
       0.27310157 0.41330674 0.72434014 0.24670182
000110 60 03 8d 3e d2 88 19 3e 64 4d 10 3f 14 dc 82 3e
       0.27541637 0.14993599 0.5636809 0.2555853
000120 29 c5 e2 3e b1 56 48 3e 45 a2 fe 3e 7c c6 de 3d
       0.44291046 0.1956432 0.49733177 0.10877702
000130 25 ff 1a 3e cf 40 b9 3e 8b 8d 81 3e 24 ac 2a 3f
       0.15136392 0.36182258 0.253033 0.66668916
000140 4c 48 74 3e 05 01 02 3f db 47 a2 3e 55 d1 c0 3e
       0.23855704 0.50782806 0.31695446 0.37659708
000150 ed 67 16 3f 83 8f 5b 3e 25 1e a7 3e 09 c3 a9 3e
       0.5875233 0.21441464 0.32640186 0.33156613
000160 86 90 2e 3f 37 25 0a 3f e6 56 77 3e a5 5d 29 3f
       0.68189275 0.53963035 0.24154243 0.66158515
000170 9b 19 d3 3e dc 6b 4f 3f c0 d8 98 3d 91 b5 4e 3e
       0.41230473 0.81023955 0.07463217 0.2018645
000180 5e fe c1 3e a7 b1 fe 3d fc ab 49 3e a2 7d 2a 3e
       0.3788938 0.12436228 0.19694513 0.16649488
000190 f4 37 d9 3e d0 2d b2 3e c8 23 2b 3f 88 c7 10 3e
       0.424255 0.34800577 0.6685147 0.14138615
0001a0 3d 09 9d 3e 6f 8f 3c 3f fa f3 a5 3d ad ec 0a 3e
       0.3067111 0.7365636 0.081031755 0.13566847
0001b0 de f4 ea 3e 66 c8 7b 3e 7e c9 43 3f 7e 99 2d 3f
       0.45889944 0.24588165 0.7647933 0.67812335
0001c0 c6 11 af 3e 03 e1 29 3e d2 28 de 3e e6 7e a1 3e
       0.34193248 0.16589741 0.43390518 0.31542128
0001d0 ab 56 d0 3e e5 eb b2 3e 45 bf 2e 3f 62 73 74 3f
       0.40691122 0.34945598 0.68260604 0.9548856
0001e0 62 ee 1a 3f 4b d2 1e 3f dd e6 42 3f 93 05 97 3e
       0.60519993 0.6203963 0.7613352 0.2949644
0001f0 94 dd 9f 3e 48 94 e1 3e aa 15 db 3e b1 7d 31 3f
       0.31223738 0.44058442 0.42789966 0.69332415

bn1.bias f4 [128]
000000 67 68 ac 3d c8 63 78 3c a5 db 55 bc d3 16 f5 bc
       0.08418351 0.015160508 -0.013052856 -0.02991811
000010 4a e2 a9 bc b0 34 3b bc 18 60 60 3d 7b 85 f3 bc
       -0.020737786 -0.011426136 0.054779142 -0.029726734
000020 76 fa 25 3d a5 d2 e7 bc 0f c3 26 3e 35 5d 4d be
       0.04052206 -0.028298685 0.16285346 -0.20055087
000030 5c 5e 89 3d 3c fd 95 bd cf f7 94 bc d9 41 6b bd
       0.06707451 -0.07323691 -0.01818457 -0.057435844
000040 bc b7 30 3a 4b a1 22 bd 5b 35 e1 3d 28 c7 8e bd
       0.0006741246 -0.039704602 0.10996505 -0.0697158
000050 93 08 36 bd e5 05 12 3d 64 bc ec 3b b3 62 5c 3c
       -0.04444177 0.035650153 0.0072246064 0.013451266
000060 81 4a 41 3d 2e 9d 6e 3c 01 6e 96 3c cd 12 8d 3d
       0.047190193 0.014563842 0.018363 0.068883516
000070 01 7a 01 3d 9d 04 8a bd 9e 02 43 3d d0 06 37 bc
       0.031610493 -0.06739161 0.047609918 -0.011171058
000080 1e fe e0 bc 02 41 97 3d 29 be 96 3d 55 12 b1 3d
       -0.027464923 0.07385446 0.07360489 0.08646075
000090 89 22 39 bd b2 a5 04 3d ef a1 99 3d 23 05 90 3d
       -0.04519895 0.032384582 0.075015895 0.0703223
0000a0 ff a0 83 bd 33 ff e0 3d 0a 0c 4b 3d 7f 83 85 bd
       -0.06427192 0.109861754 0.04957203 -0.065192215
0000b0 fe 99 4e 3d 86 b1 cf 3d 13 08 72 3c 26 49 bf bc
       0.050439827 0.10141282 0.014772433 -0.02335031
0000c0 df ae ac 3d 7e 87 54 bc 11 19 08 3d 63 c3 1b bd
       0.084317915 -0.012971757 0.03322703 -0.038028132
0000d0 14 d2 3c 3d 98 e9 28 3d 9b ff 47 bd 9a 55 e4 bc
       0.046098784 0.041238397 -0.04882775 -0.02787285
0000e0 3b a3 1f bd c0 10 3a 3d ff a9 6c bd dd e3 ce 3d
       -0.038974028 0.04542613 -0.05777931 0.10102055
0000f0 41 91 23 3d 33 5f 40 bd db d3 d5 bd b6 e8 e5 bc
       0.039933447 -0.04696579 -0.10440799 -0.028065067
000100 94 04 2c bc d2 fe 0a bc 66 ba 7f bc 2f c3 34 bd
       -0.010499138 -0.008483605 -0.015608406 -0.044131454
000110 3d 9d 6e bd 88 26 2e 3e 9f c6 97 3d 7b 97 17 bd
       -0.058255423 0.17006886 0.07410931 -0.037009697
000120 51 71 01 be 42 56 c0 bb 53 7e a1 3c 69 48 89 3d
       -0.12640883 -0.0058696577 0.019713556 0.06703264
000130 1d 0a 8c 3c d9 4e 19 bd cd ab 39 bd 14 49 46 39
       0.017094666 -0.03742871 -0.045329858 0.00018909975
000140 10 ab c3 3a df 03 eb bd c1 ea 0f bc 46 ce 6c 3d
       0.00149283 -0.11475348 -0.008783997 0.057813905
000150 a5 f4 98 3d 5b d0 06 3d b3 c9 71 bd b5 10 47 bd
       0.07468537 0.032913547 -0.059030246 -0.048599917
000160 68 2f 07 3d f4 29 a7 bc 28 8d 1a 3b eb 01 f7 bd
       0.033004194 -0.020405747 0.002358267 -0.12060913
000170 b6 05 0f 3e 2e fc bb 3d 5d 62 79 3d a2 40 83 bd
       0.13967022 0.09178959 0.060884822 -0.06408812
000180 aa fa 00 bd 22 1a f6 bd 93 21 4a 3c 27 15 13 3d
       -0.031489052 -0.12016703 0.012337106 0.035908844
000190 d8 16 54 bc dc 66 8b 3c 7e e2 8a 3d db 76 53 3d
       -0.0129448995 0.01701682 0.06781481 0.05162702
0001a0 d4 ea 09 bd 17 12 f3 bc 97 93 9d 3d 07 94 ab 3d
       -0.033671215 -0.029671712 0.07694166 0.08377843
0001b0 a6 1c dc bd 0d 3b bd bc c9 c2 f6 3d 46 ad 7e 3c
       -0.10747652 -0.023099447 0.12048871 0.015544241
0001c0 9e b2 5f 3c 96 93 62 bd c8 6e 2d 3d f9 74 18 3e
       0.0136534255 -0.05531653 0.042341977 0.14888372
0001d0 3b 36 b3 3d b6 05 a7 3d 3c d8 26 3e 19 97 3b 3e
       0.08750578 0.08155386 0.16293424 0.18319358
0001e0 bf 55 55 3e 45 f3 c1 bc 21 52 ff bc 83 46 9c 3d
       0.20833491 -0.02367557 -0.031167092 0.076306365
0001f0 d3 10 04 3d fa ed b8 bd 8f 14 4d bd c7 b5 e0 3d
       0.032242607 -0.090297654 -0.050068434 0.10972171

bn1.running_mean f4 [128]
000000 0f a1 bb 3f b7 24 aa 3e 9d 34 8b 40 fc ef 3f 40
       1.4658526 0.33231136 4.3501725 2.9990225
000010 18 30 a1 3f 80 75 c6 3f 35 76 fb 3e 70 d0 87 3f
       1.2592802 1.5504608 0.49113622 1.0610485
000020 96 17 5d 3f 74 bd 38 40 b7 d5 3d 3c 62 67 b5 3f
       0.86364114 2.8865633 0.011586598 1.4172175
000030 25 a4 04 3e e5 a4 7a 40 31 3d d9 3f 23 2f 98 40
       0.12953241 3.9163144 1.6971799 4.755754
000040 20 50 ba 3f e3 e5 bd 3f 75 a6 56 3e 3e d9 6d 40
       1.4555702 1.4835781 0.20961936 3.7163844
000050 84 9d 44 3e 35 9f ad 3f ee 91 1f 40 5a ac 86 3f
       0.19200712 1.3564211 2.4932818 1.0521348
000060 5a 65 67 40 09 52 89 3e 69 da 02 40 2c 81 f6 3f
       3.615561 0.268204 2.0445807 1.925817
000070 d4 82 60 3f 79 70 59 3f 5c a7 f6 3d fa 4d ea 3f
       0.8769963 0.84937245 0.1204364 1.8305047
000080 a8 68 24 3e 30 86 3f 3f de 72 42 40 7c e2 82 3f
       0.16055548 0.7481413 3.038261 1.0225368
000090 94 e8 f9 3f b8 b7 c9 3f d2 d5 a8 3f c9 14 c4 3f
       1.9524102 1.5759192 1.3190253 1.5318843
0000a0 96 60 8d 3f 2a 37 36 3e 38 e5 05 40 c0 01 34 40
       1.1045101 0.17794481 2.0921154 2.8126068
0000b0 9b da db 3e 1a 73 8e 3f ce 74 b4 40 d4 f5 f8 3f
       0.4294022 1.1128876 5.6392584 1.9450021
0000c0 e4 b5 18 3f e0 b3 25 40 c4 7a f7 3e 23 2f b3 3f
       0.59652543 2.5891037 0.4833585 1.399876
0000d0 e9 0e 82 3e 6e 1c 4e 40 c0 7e 5d 3f ac 39 8c 3f
       0.25402 3.2204852 0.8652153 1.09551
0000e0 26 ce 2b 3f 5c 7b ac 3e 8e df 95 3f 49 3d 80 3f
       0.6711143 0.33687866 1.1708848 1.0018703
0000f0 89 dd c0 3e 18 97 bd 3f 82 f6 34 40 57 92 b1 3f
       0.37669018 1.4811735 2.8275456 1.3872784
000100 05 73 0a 3f 5b c2 0a 40 47 d6 56 3f 96 23 8a 3e
       0.54081756 2.1681125 0.8392071 0.26980275
000110 b3 07 e0 3f 5e a3 6b 3e 1f 2e 85 3f 9d 82 1a 3f
       1.750235 0.23011538 1.04047 0.6035555
000120 2f 95 61 3e 06 81 89 3f 7e 85 30 40 8e c9 54 3e
       0.22029565 1.07425 2.7581477 0.20780012
000130 c9 19 5a 3f 22 f5 5d 3f ef 0d 9f 3e 5e e5 6c 40
       0.85195595 0.8670217 0.31065318 3.7014995
000140 cb 36 43 3f 6b 85 a2 40 b1 39 80 3f 17 34 30 40
       0.7625548 5.0787864 1.0017606 2.7531793
000150 d1 f6 86 40 1f 1f 97 3f a5 ba 40 40 0b 92 0c 3f
       4.217629 1.1806372 3.0113919 0.54910344
000160 c6 31 42 40 2c 85 31 3f d0 aa ce 3f 49 f4 8f 40
       3.034288 0.6934383 1.6145878 4.49857
000170 3d 5b 62 3f 76 fd 89 40 6d 41 aa 3f 51 20 7b 3f
       0.8842047 4.31219 1.3301216 0.98096186
000180 8e d6 42 40 c7 f0 16 3f 41 61 cb 3f 30 19 95 3e
       3.0443454 0.5896115 1.5889055 0.2912078
000190 f9 eb a9 3f fe fa ad 3e 22 d6 80 3f 63 73 9f 3f
       1.3275138 0.33980554 1.0065348 1.2457088
0001a0 d0 ba 3d 3f 48 37 e6 3f a3 3d 85 40 2d f4 11 3e
       0.7411318 1.798562 4.163774 0.14253302
0001b0 1e 40 f2 3e b4 f8 33 3f 34 ca bb 3e cc d8 05 40
       0.47314543 0.70301366 0.36677706 2.0913572
0001c0 e2 b7 8e 3f 28 ba 5c 3f 89 f9 3e 40 b7 47 1a 3f
       1.1149867 0.8622155 2.9839804 0.6026568
0001d0 8b 81 0e 3f 9c 7c 70 3f 76 d9 c6 3f c7 3d 81 3f
       0.55666417 0.9394014 1.5535114 1.0096978
0001e0 63 26 34 40 bd b6 1c 40 76 86 37 40 40 b9 20 3f
       2.814843 2.4486535 2.8675818 0.6278267
0001f0 9c 75 ed 3f c4 bf 34 3f 61 69 1b 40 9b 83 99 3f
       1.8551517 0.7060511 2.4283068 1.1993288

bn1.running_var f4 [128]
000000 ac 5a c5 40 29 32 84 3e 9f 50 05 41 1e 65 d2 40
       6.1673183 0.2581952 8.332183 6.5748434
000010 a3 61 9d 40 3a 53 af 40 b9 07 6b 3f 55 c5 3f 40
       4.9181685 5.4789095 0.9180866 2.9964192
000020 f8 f1 50 40 ff cf 24 41 e7 00 9b 3c 95 3c 93 3f
       3.2647686 10.30078 0.018921329 1.1502863
000030 9b c5 07 3e a5 1a 88 41 28 62 c3 3f 84 45 3e 41
       0.13258974 17.01301 1.526433 11.891972
000040 a5 78 73 40 24 32 c4 40 e4 76 9e 3e 44 af 9c 41
       3.8042386 6.1311207 0.3095008 19.585579
000050 76 6c ad 3e d8 87 47 40 a2 fa 0f 41 81 97 5b 40
       0.33871812 3.1176662 8.99869 3.431122
000060 ef fc 63 40 69 dc d3 3e 3d 6d 05 41 7c 2b 56 40
       3.5623128 0.41379097 8.3391695 3.346404
000070 d6 ae fa 3f e1 ba 4f 40 63 f5 96 3e c4 97 82 40
       1.9584606 3.2457812 0.2948409 4.081026
000080 3a 88 c5 3e c9 75 e2 3f d5 c9 b6 40 d2 f7 fd 3f
       0.38580495 1.7692195 5.7121377 1.9841254
000090 5d ff e2 40 53 fc 2d 40 81 8e 1b 40 78 2a d2 40
       7.0936723 2.7185256 2.4305727 6.567684
0000a0 f2 60 98 40 28 2d c0 3e 05 67 0b 41 a0 ef 21 41
       4.761834 0.3753445 8.712651 10.121002
0000b0 0a 70 2a 3f f9 3f 19 40 ec e0 7e 41 06 aa c1 40
       0.6657721 2.3945296 15.929913 6.052005
0000c0 13 20 ae 3f 22 c2 d0 40 dc 18 b8 3f 4c b5 3b 40
       1.3603538 6.523698 1.4382586 2.9329405
0000d0 70 73 d7 3e b7 a1 4b 41 c2 38 10 40 94 7e fb 3f
       0.4208026 12.726981 2.2534642 1.9648004
0000e0 a9 2b e7 3f bf 61 37 3f 0d 77 3c 40 2a d4 08 40
       1.8060199 0.71633524 2.9447663 2.1379495
0000f0 ed 27 c1 3e d8 dd 1b 40 66 5e bc 40 86 77 40 40
       0.37725773 2.4354153 5.8865232 3.0072951
000100 7f 8f bd 3f 54 07 dc 40 f2 70 a4 3f 6a e8 08 3f
       1.4809417 6.8758945 1.2846968 0.53479636
000110 4d 54 27 40 ed c3 af 3e 88 0d 0d 40 19 23 b9 3f
       2.6145203 0.34329167 2.203951 1.4463836
000120 d4 d2 dc 3e 34 d9 f2 3f 64 c5 2f 41 e4 16 df 3e
       0.431296 1.8972535 10.985691 0.43572152
000130 62 dd 13 40 f1 98 01 40 59 81 fc 3e 83 ce ac 41
       2.3103871 2.0249598 0.49317434 21.600836
000140 79 57 1a 40 8e 95 95 40 ee 59 91 40 71 61 a3 40
       2.411589 4.674506 4.5422277 5.1056447
000150 3f b7 3a 41 56 2a 52 40 ca b0 b7 40 30 c2 71 3f
       11.669738 3.283834 5.7403307 0.9443693
000160 30 c5 6f 40 cd 10 cf 3f ef 8d 1f 40 d0 b7 db 40
       3.7464104 1.6177002 2.493038 6.866188
000170 54 8c 0d 40 40 79 d7 41 ab 41 90 40 fc d1 07 40
       2.21169 26.934204 4.508016 2.1221914
000180 44 73 45 41 69 9b b9 3f c8 c6 00 40 8b 9c 62 3f
       12.340641 1.4500552 2.0121326 0.88520116
000190 b0 de 05 40 60 14 4d 3f 38 6c a4 3f d1 9b 27 40
       2.0917168 0.80109215 1.2845526 2.6188853
0001a0 8f 8b c8 3f a3 67 2f 41 20 17 23 41 aa 1f a0 3e
       1.566759 10.962802 10.193146 0.31274158
0001b0 c8 89 51 3f 07 ef 7f 3f 25 9c 11 3f b2 7a dd 40
       0.8185086 0.999741 0.5687888 6.9212275
0001c0 f1 09 4b 40 49 50 2f 40 f1 74 0f 41 04 69 f3 3f
       3.1724818 2.7392752 8.96605 1.9016423
0001d0 b9 86 89 3f 24 06 2e 40 90 39 9f 40 29 07 16 40
       1.0744239 2.7191248 4.9757767 2.344187
0001e0 d0 e1 58 41 36 cf 7d 40 01 cb 57 41 8c 0a d1 3f
       13.55513 3.9657722 13.4870615 1.6331344
0001f0 45 52 b9 40 a5 c9 35 40 80 bd 22 41 43 f7 9c 40
       5.7912927 2.8404324 10.171265 4.9051833

fc2.weight f4 [128, 132]
000000 c7 90 96 3d 08 e6 5b bd 4a a2 3e 3d 7a e0 cb bd
       0.07351833 -0.05368617 0.04654149 -0.09954925
000010 52 40 34 3c 3e 31 26 bd 4e 20 55 bc 2d ac 9d bc
       0.011001663 -0.040574305 -0.01300819 -0.019247139
000020 23 d0 5f 3d c7 ba e3 bc e7 1d 36 3d c2 95 1f bc
       0.054641854 -0.027799023 0.04446211 -0.009740295
000030 88 ae 89 bd e1 b4 67 ba 73 03 86 bb 95 10 ad 3d
       -0.06722742 -0.0008838904 -0.0040897666 0.084504284
000040 02 1b c9 bc 44 66 a0 bd fd cc 0d be 7d de 0c 3d
       -0.024549011 -0.078320056 -0.13847728 0.03439187
000050 b6 49 97 3c 1f 96 bc bb 51 74 35 3c ed 7b 59 bd
       0.018467765 -0.0057552005 0.011075095 -0.0530967
000060 d4 96 a8 bd 39 67 96 bd 00 30 80 3c 0f c9 39 3c
       -0.08231893 -0.07343907 0.015647888 0.01133944
000070 c9 4a cf bd 93 84 ff bc e0 ef e1 3c 40 cd 2c 3b
       -0.10121686 -0.031191146 0.027580202 0.0026367456
000080 fb 32 22 bd 3e 9b 60 bd 1e e8 c4 bc 42 32 a7 bd
       -0.0395994 -0.05483555 -0.024036463 -0.08163883
000090 ce 5b 02 be 5b c9 f7 bd 2d ff 5b 3d ae 97 43 bd
       -0.12730333 -0.120989524 0.05371015 -0.047752075
0000a0 aa a1 3c 3c 6f d7 48 bd 51 dc 7e bb cc a3 95 bd
       0.011513153 -0.04903358 -0.0038888643 -0.073066324
0000b0 7a 19 8f 3c 9c 56 c7 3c 47 9f 8a 3c f9 4a 98 3d
       0.017468203 0.02433329 0.016921652 0.07436175
0000c0 4e e7 0b 3d 80 b3 95 3d da 2a 84 3d da 5f e2 bc
       0.034156136 0.073096275 0.06453486 -0.027633596
0000d0 30 f8 20 be 0f dc 66 bd 0c 71 33 3c 51 1d 31 bd
       -0.15719676 -0.056362208 0.010952245 -0.04324085
0000e0 76 14 2e bb 0e 92 02 3c 2b dc be bd 2f 84 92 3b
       -0.0026562489 0.007969392 -0.093193375 0.004471324
0000f0 a3 60 45 3d 97 c3 f4 3b 77 96 9a bd e5 9c 15 bd
       0.048187863 0.007469605 -0.0754823 -0.03652658
000100 8b 44 71 3d d5 86 b6 bd 88 58 19 bd 46 7d 85 bd
       0.05890326 -0.08912436 -0.037437946 -0.06518035
000110 ac ef 0f be 11 52 7f bb d5 6b 23 bc 36 8f 98 bd
       -0.14056271 -0.0038958827 -0.00997444 -0.0744919
000120 60 e5 f8 bc 64 cc d1 3c 35 52 17 3c 37 19 cf bd
       -0.030382812 0.025610156 0.009235908 -0.10112231
000130 2e ca 21 3e 12 ef 69 bc 75 52 1f bd d6 77 db bd
       0.15799782 -0.01427819 -0.038896997 -0.10716216
000140 3d ea e5 bc 94 85 2d bd 90 d8 b1 3d 7c 5b 66 3d
       -0.028065795 -0.04236372 0.08683884 0.05623959
000150 da 76 ee bd d8 55 bf 3c b2 4f 82 bd 30 2b ed bd
       -0.11643763 0.023356363 -0.06362857 -0.11580503
000160 15 c3 a9 3b 77 a5 62 3c 32 f3 44 bd 1e 37 d4 bc
       0.0051807263 0.013833395 -0.04808349 -0.025905188
000170 19 24 ba bc 79 29 61 3d 10 70 0b bd ba 14 bb bb
       -0.02272229 0.054971192 -0.034042418 -0.005709258
000180 47 45 85 bd 09 1e 44 3d 9c ba 67 bd 0f e3 f4 bd
       -0.06507354 0.047880206 -0.05657445 -0.119573705
000190 76 ae 9a 3d 0a c8 be 3d 0c e5 78 bd da d3 d0 bb
       0.07552807 0.09315498 -0.06076531 -0.006372911
0001a0 56 20 6e 3d 71 e4 18 3d 26 55 97 bb 3d 94 13 3c
       0.058136307 0.037327234 -0.004618305 0.009007511
0001b0 a1 ae a0 3c b1 ee 4a 3d c2 3c d7 bd 20 33 02 3c
       0.01961452 0.04954404 -0.105096355 0.007946759
0001c0 cc 18 b2 bc d3 1c c2 bd f4 1e 0a 3d c2 73 e3 bd
       -0.02174034 -0.09478154 0.033720925 -0.111060634
0001d0 ea 28 dd bc 25 2a d3 bd 36 aa ae bd 5a 3d 74 bd
       -0.026997048 -0.10310773 -0.08528559 -0.059628822
0001e0 d7 8f 7d 3d 92 ec 61 bd 5a 8f 48 3d 5c 0b 04 bc
       0.061904754 -0.05515725 0.048964836 -0.008059349
0001f0 fd 43 6f bc eb 8b ab 3c 24 b8 76 3d 23 b3 6c bb
       -0.014603612 0.020940742 0.060234204 -0.0036117516
000200 3a 18 45 3d 46 5a 9f 3c 26 9f 02 3d 3f 00 68 bc
       0.048118807 0.019452225 0.031890057 -0.014160215
000210 5c ed 5f bc cf da e4 3c 8c 13 a2 3d 85 b4 fc 3c
       -0.013667431 0.027936367 0.079138845 0.030847797
000220 5b 86 89 bd 6d f3 69 3d 86 6f 3d bd 97 cd c2 3d
       -0.067150794 0.057116915 -0.046248935 0.095118694
000230 59 7e 6d 3c e7 c0 7c 3d 79 53 06 be e5 b8 99 3d
       0.014495456 0.061707404 -0.1311778 0.07505969
000240 62 dc c8 bd b4 a1 81 bd 4f 59 c4 bc bc a2 98 bc
       -0.0980766 -0.063296705 -0.023968367 -0.018632285
000250 0a bc b8 3b f9 7a 4a 3d 95 75 e1 bd af 68 27 3d
       0.0056376504 0.049433682 -0.11008755 0.04087132
000260 e7 03 ea 3c eb 11 62 3d 7d 6c 64 bd cd b2 d9 bc
       0.028566314 0.05519287 -0.055767525 -0.026574517
000270 ac b2 8c 3d c8 24 ef bd e2 f1 fe bc 09 18 04 3d
       0.068700165 -0.11676937 -0.031121198 0.032249484
000280 42 33 15 bd 46 1c 8d 3d b8 8e b2 3c e0 40 d5 3d
       -0.036425836 0.06890158 0.02179657 0.104127645
000290 df e5 a1 3d 39 9e 80 bd 19 c4 93 3c 6b 9c 31 bc
       0.079051726 -0.062801786 0.018037843 -0.010840516
0002a0 7c 7d 3a 3d 9d 7d f0 bb 56 11 81 bd e1 9a 36 bd
       0.045529827 -0.007339193 -0.06302135 -0.044581298
0002b0 ce be bd 3d 91 ca 9a bc f8 74 6b bd 37 c0 29 be
       0.09264909 -0.01889542 -0.057484597 -0.1657723
0002c0 6c f6 93 bd 20 a6 04 3d 44 64 d6 bc bb fb 81 3c
       -0.072247356 0.03238499 -0.026170857 0.015867105
0002d0 90 e3 bf bc 86 aa 37 bd ea db ec 3b 36 9f 7e 39
       -0.02342394 -0.04484036 0.0072283642 0.00024282638
0002e0 c1 45 b8 bd 89 75 e0 3c d5 b3 ac 3d 5e a7 2d 3c
       -0.089976795 0.027399795 0.08432738 0.0105989855
0002f0 7c fe 93 bb 31 c2 f2 bb f8 f8 8d bc 69 60 ec bc
       -0.004516421 -0.0074084033 -0.017330632 -0.028854566
000300 d1 f6 27 be 0c dd 8f bc b2 23 ac bd 4d a5 5c 3d
       -0.16402747 -0.017561458 -0.08405246 0.05386858
000310 e1 ff ef 3d 44 9c a4 3d e3 46 35 3c 15 57 fa 3d
       0.11718727 0.08037618 0.011064264 0.12223641
000320 d0 cb bd 3d d1 da 1e be dc 6c 9b bc 86 23 76 3d
       0.0926739 -0.1551316 -0.018972807 0.06009247
000330 13 68 14 3b 61 9f 7c 3d 34 37 b3 3c 1a 60 db bd
       0.002264504 0.061675433 0.021876909 -0.10711689
000340 35 64 69 bd 03 5d 31 3c 38 ee 42 bc 89 76 e0 bd
       -0.05698033 0.010825398 -0.011897616 -0.10960109
000350 43 9b 3d bd 7a 46 33 3d 86 f9 67 bc 6c 45 51 3c
       -0.046290647 0.043768384 -0.014158612 0.012772899
000360 98 8d 32 bb f7 0f fa 3b 92 24 c8 bc cb 00 32 bd
       -0.002724504 0.0076312977 -0.0244315 -0.043457787
000370 82 96 e3 3c 15 ef 69 3d f2 86 d5 bc be 78 f3 3c
       0.027781729 0.057112772 -0.026065324 0.02972066
000380 62 f2 31 3d 9a c1 2f 3d 80 c4 65 bd 68 9b ab 3d
       0.043444045 0.042909242 -0.0560956 0.08379251
000390 0b c8 5f 3c 14 ae c9 3c 4b 29 89 3d f8 5f 59 bd
       0.013658534 0.02461914 0.06697329 -0.05307004
0003a0 aa a6 65 bd db 52 e7 3c 0f 4b 8f bd 75 0c bb bc
       -0.056067146 0.02823775 -0.06996738 -0.022833088
0003b0 9b 75 3d bd ae 33 1f 3d af 1b bf bc b6 d5 5d 3d
       -0.046254735 0.038867645 -0.02332863 0.05415889
0003c0 b1 a0 25 bc 12 30 3a bd e6 cb 22 bd cc 06 d7 3c
       -0.010109113 -0.045456 -0.039745234 0.026248358
0003d0 13 9e c9 3a 1d 22 39 3c 00 84 9d 3b cf 92 e5 bc
       0.0015382193 0.011299637 0.0048069954 -0.028024105
0003e0 e7 57 87 bc e1 0a 21 bd e0 36 48 bc 23 57 05 bd
       -0.016521407 -0.039317016 -0.0122201145 -0.032553803
0003f0 c3 d8 97 bd ad 3a 8c 3d 89 76 71 bd a9 98 2c be
       -0.07414391 0.06847129 -0.058950935 -0.1685511

fc2.bias f4 [128]
000000 92 98 84 bc 4b 5d 0f bd 6b dc df 3c 45 39 61 3b
       -0.016186032 -0.03500108 0.027326783 0.003436641
000010 6a 35 64 bd 1a 7b 4c 3b bb 04 de bd 21 ab c2 ba
       -0.055715002 0.0031201304 -0.10840746 -0.0014852026
000020 7e 47 f1 bd a7 b4 52 3d 7f c0 94 3c 3c 58 0d bc
       -0.11781214 0.051441815 0.018158196 -0.008626994
000030 fc be dd bd 69 af db bd b1 8d 19 3d c0 be cb bc
       -0.10827443 -0.10726816 0.037488643 -0.02487123
000040 9c e4 e6 bc 19 9a c2 3c b4 c2 d6 3c ac bd 8c 3d
       -0.028185181 0.02375512 0.026215889 0.068721145
000050 ae 29 73 3d fc 8f 6c bd 90 70 b5 bd 0c 54 c0 bc
       0.05936592 -0.0577545 -0.0885936 -0.023477577
000060 33 60 91 3d 64 4a 11 3d f8 bb cc bc 2c 67 ce bd
       0.07098427 0.035471335 -0.024991974 -0.10078272
000070 bb b7 f4 bc c6 77 63 3c 05 d8 e4 bd ee fd 33 bd
       -0.029872766 0.013883537 -0.11174015 -0.043943338
000080 fa 1a 22 be 60 54 b6 bc e2 9e fa bc c3 08 03 be
       -0.15830603 -0.02225703 -0.03059334 -0.12796311
000090 40 b8 1c bc 11 b3 0b be 15 b4 ee bc bd 91 4a 3c
       -0.009565413 -0.13642527 -0.029138604 0.012363848
0000a0 85 1b 95 3c 3d 79 d6 bd 1c 74 19 3c 37 3a 53 3d
       0.018201599 -0.10472343 0.009366062 0.05156919
0000b0 55 4d 1d be da b7 03 bd 29 56 e4 bd 1f 57 a2 bc
       -0.15361531 -0.032157756 -0.11149246 -0.019816933
0000c0 a8 c1 8d bd ea d9 c4 bd 6f 08 1c bc 78 04 62 bd
       -0.069217026 -0.09611876 -0.009523495 -0.055180043
0000d0 ea ff 2f 3c a7 b7 82 bd 47 e5 d8 bd 1f 89 73 bd
       0.010742167 -0.06382685 -0.10590606 -0.05945694
0000e0 ad 4d d7 3b 57 dc a5 bd ad 99 3d 3d 93 9c b5 bd
       0.006570539 -0.08098667 0.046289135 -0.08867755
0000f0 d1 b4 95 3d e3 c1 ad bd 2e 41 8b bc 01 91 1b 3d
       0.073098786 -0.084842466 -0.016998854 0.037980083
000100 85 f0 41 bd 59 1d 8b bd 3d 35 ca bd b0 6c 6d bd
       -0.047348518 -0.06792707 -0.09873436 -0.05796498
000110 86 4a 3c bd ce 13 6f 3a 10 8a b1 bd e2 c8 1c be
       -0.04596951 0.00091200776 -0.086689115 -0.15311006
000120 1e 52 96 3d 4f 07 ee bd 77 30 f1 bd 9f 54 c1 bd
       0.07339881 -0.11622488 -0.11776822 -0.09439968
000130 f5 d7 e2 bd c1 34 06 bc 18 61 ef bd 75 c5 f7 bc
       -0.11076347 -0.008191288 -0.11688441 -0.030245522
000140 ca a2 d8 bd ca 03 2d 3c 25 f6 77 bd 36 2a 2c bb
       -0.105779245 0.010559985 -0.060537476 -0.0026270277
000150 cd 53 d5 bd 02 a9 a9 3b af 51 bb bd 88 90 a9 bc
       -0.10416374 0.005177618 -0.09146439 -0.0206988
000160 17 ae 35 3d eb 5a 0b be 26 c8 07 be 1b 91 05 be
       0.04435548 -0.13608901 -0.13259944 -0.13043635
000170 24 4b 4a bd 9c 2d 0b bd db 9c cc bd 87 8f 2f 3d
       -0.049388066 -0.033979043 -0.09990855 0.042861488
000180 6d 00 92 bd 31 36 28 be 69 2b f3 3c 30 44 36 3c
       -0.071289875 -0.16426922 0.029683786 0.011124656
000190 5a 29 6c bd 8c d1 19 bd 16 a2 80 bd cf b8 71 bd
       -0.057656623 -0.037553355 -0.062809154 -0.059014138
0001a0 e7 bf 06 bd 7a 0d 72 bd 88 97 54 bd 1c 33 eb 3c
       -0.032897856 -0.059094884 -0.051902324 0.028710894
0001b0 aa 7f ac bd f0 c1 88 bc fb 43 b7 bd df de 9a 3d
       -0.084227875 -0.01669404 -0.08948513 0.075620405
0001c0 9b d2 cb bd a9 dc 7e bd 0c eb c7 bc 85 27 b3 bc
       -0.09952279 -0.062222157 -0.024404071 -0.02186943
0001d0 2a 66 1e be 82 77 fa bd ae 25 c2 bd a4 ca d2 bc
       -0.1546866 -0.122298256 -0.09479843 -0.025731392
0001e0 12 cf 32 be eb d2 00 3c 83 74 fc bd 50 bb 56 bd
       -0.17461804 0.007862787 -0.1232691 -0.05242473
0001f0 f3 48 c2 bd e0 b2 3a bd 0c 3b 7a bc b8 85 aa bd
       -0.0948657 -0.045580745 -0.015272867 -0.08326286

fc3.weight f4 [1, 128]
000000 a4 cd 57 bc 10 fb 15 bd 59 7f 51 bc df e0 d0 bb
       -0.013171587 -0.036616385 -0.01278671 -0.006374463
000010 1c e3 71 bc 8f 8b 82 bc f4 81 0f bd cc 58 0f 3c
       -0.01476362 -0.015935687 -0.035036042 0.008749198
000020 31 c8 a1 bc 5d ce 85 3c 97 0b 0e 3c 88 71 7a bc
       -0.019748779 0.016333753 0.008669755 -0.015285857
000030 e7 11 d4 bc f7 6e ed bc 19 4c 39 3c 9e 96 0c bc
       -0.025887443 -0.028983576 0.011309647 -0.008580832
000040 20 01 58 bc 3e c3 77 3c f6 e9 9c 3c f8 36 c8 3b
       -0.013183862 0.015122233 0.01915453 0.0061100684
000050 12 05 cb 3c c6 f3 f8 3c 05 01 17 bc e7 1f 75 3c
       0.024782691 0.030389678 -0.009216552 0.014961219
000060 be 62 a0 3c d7 ae 5d 3c ac c8 36 3c c8 b3 3c bc
       0.019578334 0.013530455 0.011156242 -0.011517473
000070 7f 53 56 bc a0 37 80 3c 73 d8 95 bc a1 0d 2e bc
       -0.01308143 0.015651524 -0.018291688 -0.010623367
000080 b1 1b a3 bc a5 1d 3e bc da 60 89 bc c5 c7 b5 bc
       -0.019910665 -0.0116037475 -0.016769815 -0.022189984
000090 a2 ff 0a 3c f7 fd 33 bd 54 5e c9 3c 29 96 f3 bc
       0.008483799 -0.04394337 0.024581112 -0.029734688
0000a0 68 cf 98 3b 5e 31 96 bc 48 6c 79 bc da 18 82 3b
       0.0046633966 -0.018334087 -0.01522357 0.0039702477
0000b0 dc dc 15 3d 5d 81 62 3c 98 a5 21 3d 88 d6 6d bc
       0.03658758 0.013824788 0.039464563 -0.01451648
0000c0 35 b3 65 bc c9 dd 79 3c 64 38 41 bc 12 a6 57 bc
       -0.014019777 0.015250632 -0.01179323 -0.013162153
0000d0 9f 98 28 3c 54 80 6d bc 8b 37 29 bc b7 ae 3b 3c
       0.010290294 -0.014495928 -0.010328184 0.0114552295
0000e0 ed 86 02 3c cd 62 87 3d 7c 9c 83 3c bb 83 8a bc
       0.007966739 0.06610642 0.016065829 -0.016908517
0000f0 cc 8f 69 3c 1d f9 ac 3c bc 81 37 3c 71 ea 3f 3c
       0.014255475 0.02111488 0.011200365 0.01171361
000100 32 38 81 bc 46 87 e8 bc 19 cf b7 3c c6 97 8e bc
       -0.015773866 -0.028384816 0.022437619 -0.017406356
000110 8a 8e 81 3c 4c 63 04 3c 53 68 6b 3d ba 1a ea bb
       0.015815038 0.008080315 0.05747254 -0.0071442993
000120 8a 4a d9 3b 5e e0 8d bc 5f 73 4f bc 84 92 9f bc
       0.0066312 -0.0173189 -0.012661784 -0.019479044
000130 8e 26 5f bd 15 83 00 bd 43 16 66 bc c4 ce 5f 3c
       -0.054480128 -0.03137501 -0.014043394 0.013660137
000140 c4 a5 bc 3c 99 bb 93 3c 45 d8 e7 3b 0f 0d af 3c
       0.023028262 0.01803379 0.007075342 0.021368532
000150 f5 e2 08 3c f4 8f f8 3c e7 92 a3 3c 6a 2b c9 bc
       0.008354892 0.03034208 0.01996751 -0.024556834
000160 1d 75 3a 3c 66 de 9c 3d 6f b1 16 bd ce d1 ac 3c
       0.011380461 0.07659607 -0.036790308 0.021096136
000170 12 aa 42 3c 67 fc 51 3c 6e 0d 20 bc 44 5e 3b 3c
       0.011881368 0.012816525 -0.009768827 0.011436049
000180 53 81 88 bc e0 96 ba 3c 64 ea 2d 3c 10 52 47 3c
       -0.01666323 0.02277702 0.010614965 0.012165561
000190 d1 01 aa 3c 08 8e 3b 3c 5b 58 8f bc f8 7a dc 3c
       0.02075282 0.011447437 -0.017498186 0.026914105
0001a0 c6 09 15 3d 22 39 51 3c 8a bd 12 bc 7a 86 e5 3b
       0.036386274 0.012769969 -0.008956322 0.0070045562
0001b0 1b 07 87 bc 42 4c 1c 3c 6f 69 23 3c 90 18 72 3c
       -0.01648288 0.009539666 0.009973868 0.014776364
0001c0 e7 c9 a5 bc e6 4b 15 3d 6d 79 52 bc 78 90 a0 3c
       -0.020237876 0.036449336 -0.012846333 0.019600138
0001d0 3d c3 99 3c 1c 8c 57 3d 7b 38 7d bc 32 97 45 3c
       0.018769855 0.052623853 -0.0154553605 0.012059974
0001e0 23 5f f0 3d 44 9e 44 3c 5a 50 44 bc 7c d5 4c 3c
       0.11736896 0.012000624 -0.011982048 0.0125020705
0001f0 4d 80 cd bb c4 da 4a bc 1d b6 6c 3c 25 52 85 3c
       -0.006271398 -0.012381259 0.014447716 0.016274521
