agent1_checkpoint_critic_final.pth (torch_old, 97070 bytes, 9 tensors)

fcs1.weight f4 [128, 48]
000000 1b 2f ff bd b6 24 3c 3e d2 39 0b bd fc d2 0b 3a
       -0.124601565 0.18373379 -0.03399069 0.00053338683
000010 f4 3a 93 3d 1f 51 17 3d 54 28 f2 3c 83 e1 a5 bd
       0.07188979 0.036942597 0.029560246 -0.080996536
000020 23 d6 d5 bd 2f 4d 26 3d 89 a4 f0 bc d4 c3 87 3c
       -0.10441234 0.04060095 -0.029375331 0.01657287
000030 c0 c4 fd bd 10 57 28 3d bb af a9 bd 85 0e ce 3d
       -0.12391043 0.041098654 -0.08285471 0.10061363
000040 42 d6 31 be 3a e1 4e 3e a2 5c b2 bc c7 4c 30 bd
       -0.17366889 0.20203105 -0.021772686 -0.04304197
000050 5a ac 3c 3d 85 2a 58 bd ce 5c 91 bc cd c2 01 3b
       0.046062805 -0.052774925 -0.017744448 0.0019799948
000060 ff 98 18 3b 01 94 17 3c b9 9a 15 bc 37 d2 83 3c
       0.0023284552 0.0092515955 -0.009131127 0.01609145
000070 4a 27 87 3b 6b ef 14 bd 91 fd a6 3c 17 8a 73 3c
       0.0041245567 -0.03636114 0.020384582 0.014864466
000080 b8 3a f3 bb ef da eb 3d 96 d2 46 bd d6 ef 7e 3d
       -0.0074227713 0.11516368 -0.048540674 0.062240444
000090 12 e8 bb 3d 19 fe 9d bd d0 30 cd 3c 10 2c 2d 3d
       0.09175123 -0.07714481 0.02504769 0.04227835
0000a0 1a 3c 8b 3d 2f 56 d4 bb 1e fa a5 3c fc 24 cc 3d
       0.06798573 -0.0064800004 0.020260867 0.09967992
0000b0 92 55 b0 3d be 62 b9 bd 39 35 25 3c c8 95 b4 3d
       0.08610071 -0.09052037 0.01008349 0.08817631
0000c0 19 b7 76 bd 8a 1f 78 bc 0e 0b d6 bc 77 bb 7c bd
       -0.06023321 -0.015144238 -0.026128318 -0.061702218
0000d0 92 00 c0 bd 86 e4 d6 bd 06 96 ef 3c 67 3a b3 3d
       -0.09375109 -0.10492806 0.029246341 0.08751374
0000e0 75 64 cc bc 7f d7 99 bc c2 2e 84 3d 78 ff 3d bd
       -0.024950245 -0.018779514 0.06454231 -0.046386212
0000f0 ee 7d 89 3d 3e 80 89 bd 8e fb 84 bd c4 59 a3 3d
       0.06713472 -0.067139134 -0.06493293 0.07976106
000100 30 b0 b4 3c 1a 1c a0 3d 2a 94 23 3c 9a f3 85 bc
       0.022056669 0.0781786 0.0099840555 -0.01635151
000110 4b 98 2e 3d f5 c7 80 3e 56 d6 47 b9 d6 e7 24 bd
       0.042625707 0.25152555 -0.00019057965 -0.04026016
000120 0e 14 13 bd e4 33 a5 bc 2e fb b5 bc 57 b9 6c 3d
       -0.035907798 -0.020166345 -0.022214498 0.05779394
000130 83 0b cd bc 33 72 08 be d2 56 bf 3c 8d fc 5a bd
       -0.025029903 -0.13324814 0.023356829 -0.053463507
000140 1c 65 47 3d de e8 d1 3d 25 01 64 bd d4 dd 9e bd
       0.04868041 0.10249494 -0.055665154 -0.07757154
000150 7c 28 80 3d b0 22 8d 3b 27 38 6a 3d 2a 55 a1 3d
       0.06257722 0.0043071136 0.057182457 0.07877572
000160 56 21 18 3c 59 24 86 3b a2 ce 7c bb ef 23 02 bd
       0.009285292 0.0040936884 -0.0038575311 -0.03177255
000170 b0 69 c1 bd e2 54 78 3e 79 d9 84 3b 9e 54 3b 3d
       -0.094439864 0.2425113 0.004054245 0.045734994
000180 1d 63 8e bc 6a e2 7f 3e e8 be 3d 3d dd 3b 88 3d
       -0.017381245 0.24988714 0.04632464 0.06652043
000190 1c 31 36 bd 64 ef 96 3c 26 cd 4c bd c3 c9 17 bd
       -0.044480428 0.018424697 -0.050000332 -0.03705765
0001a0 f9 e2 c0 3d dc 4b 82 3e 56 74 b9 bc 2d 91 25 38
       0.094182916 0.254485 -0.022638481 3.947427e-05
0001b0 88 9d cf bd e1 b2 e7 3d 40 3c cf 3c f7 df 67 bc
       -0.101374686 0.11313415 0.025297284 -0.0141525185
0001c0 bd e0 f6 bd 8e a8 6f 3e 29 9e a2 bb cc ac 02 3c
       -0.12054584 0.23404142 -0.004962702 0.007975768
0001d0 29 52 b6 bd 45 28 0b 3e b8 8d 10 3d 71 b2 d2 bc
       -0.089023896 0.1358958 0.035291404 -0.025719853
0001e0 34 bc aa bd 9b db 80 bd 17 21 ae 3c a5 7a 38 3c
       -0.08336678 -0.062918864 0.021256013 0.0112597095
0001f0 1a 2a ce 3a a3 70 8c 3a 6b 88 d6 bc 73 ae 6b 3c
       0.00157291 0.0010714721 -0.026188096 0.014384854
000200 b9 83 d4 bb 57 85 a0 bc 5c d5 95 bd aa ab 45 3b
       -0.006485429 -0.019594831 -0.07316086 0.0030162134
000210 5b 62 4b 3d bb c9 c9 3d f5 84 3d 3d 7b 2b 0e 3d
       0.049654346 0.0985293 0.046269376 0.034709435
000220 00 ff ac bd b3 8a 1e be 71 24 5c 3d a1 5e 7a bd
       -0.08447075 -0.15482597 0.05374569 -0.0611254
000230 67 56 c4 3d 83 6e 5b 3e d6 5d 82 bd dd 92 cb 3c
       0.095867924 0.21428876 -0.06365554 0.024850303
000240 b9 7a 49 3d f9 5e 25 3d 7f f7 67 3d 7b b2 51 3d
       0.049189303 0.040373776 0.056632515 0.051195603
000250 2f 3a 81 3d 94 60 2f 3d e1 50 12 bd 2d 24 26 bd
       0.06309926 0.042816713 -0.035721663 -0.040561844
000260 7f 44 22 bd c9 28 83 3d ff 8f 87 bc 17 f7 76 bd
       -0.039616104 0.064042635 -0.016548155 -0.060294237
000270 4f 34 2b 3e f8 c9 54 3d f1 f2 bb 3c b8 6e 9d 3d
       0.16719173 0.051950425 0.022942992 0.076871336
000280 28 14 e3 3b 33 18 ce bd 95 30 ce bc b4 3d 10 3d
       0.006929893 -0.100632094 -0.02516965 0.035215095
000290 91 3f 46 3e 39 ec 3d 3e 81 6c c4 3c b2 d6 5c 3c
       0.19360186 0.18547143 0.02397752 0.013478922
0002a0 ba 64 e2 3b 90 b2 b3 3d 93 31 a8 bd d0 e4 0a ba
       0.00690898 0.087742925 -0.082125805 -0.0005298378
0002b0 62 6d b3 bd 8a ba 05 be 67 6b a5 3d 28 b5 86 3b
       -0.087610975 -0.1305944 0.08077126 0.004110951
0002c0 58 72 df 3b f5 11 c7 bc 5b c5 91 3c 3c 60 0e 3e
       0.0068190508 -0.024300555 0.017794302 0.13903898
0002d0 df 48 a4 bd 03 bb 8a 3d d9 39 7e bc ed 68 01 bd
       -0.080217116 0.06773951 -0.015516722 -0.031594206
0002e0 b5 ea ae bd fe 8f 07 3e cc bb 49 3c a0 0b 4d 3d
       -0.085408606 0.13238522 0.012312841 0.050059915
0002f0 57 3c 00 be c2 30 d6 3d 2c 43 d6 bb a4 34 73 3d
       -0.12523018 0.104585186 -0.006538769 0.059376374
000300 bf 96 0d bd b0 2f 67 3d d3 6d ee 3c 63 72 20 be
       -0.03456759 0.056441963 0.029105103 -0.15668635
000310 e7 8d b1 bd 61 47 07 be 46 15 90 3d 0d eb 81 bd
       -0.08669644 -0.13210823 0.070353076 -0.063436605
000320 40 d4 e4 3b bb 21 b3 3d 4c 14 e7 bc 6e 3b 63 3d
       0.00698331 0.08746668 -0.02820792 0.0554766
000330 ef 03 81 3d e0 c9 a3 bd c2 8c ff 3c d0 3a 60 bc
       0.062995784 -0.07997489 0.031195048 -0.013685897
000340 71 94 d0 3d fa 4b 10 3d 79 9b d6 3b e0 e4 45 3d
       0.10184563 0.035228707 0.0065492955 0.048313975
000350 f6 9b 31 bd 42 e4 cd 3d 6c 48 db ba ec 98 a3 3d
       -0.043361627 0.10053302 -0.0016729957 0.07988152
000360 a1 1b 90 3d 1a f8 ea 3c c5 98 1c 3d 49 38 20 bc
       0.0703652 0.028682757 0.03823163 -0.009779044
000370 73 67 c1 3c f9 eb 39 be 6a d4 95 bc e9 ba 77 bd
       0.023608899 -0.18156423 -0.018289763 -0.060480986
000380 cb 7f c4 3d fb 07 50 3d 80 16 d5 3d bb 46 ce bc
       0.09594687 0.05078886 0.10404682 -0.025180211
000390 c9 a8 92 3d a8 08 04 be d3 9d 14 3d 35 d6 25 bc
       0.071610995 -0.12893927 0.036283325 -0.010121872
0003a0 6d 95 9f bb 66 2a ff 3c d8 de b1 3c a2 d9 85 bd
       -0.004870108 0.031148147 0.021712705 -0.06535651
0003b0 a1 c1 ec bc 5a 2d 86 3d 10 0f 9e 3c 2e a9 f0 bd
       -0.028900923 0.06551619 0.019294292 -0.117510185
0003c0 6c cf 23 3e 43 b3 95 bd c7 67 c5 bc 0e 29 ea 3c
       0.15997094 -0.07309582 -0.024097336 0.02858403
0003d0 77 bc 0d 3d 7b e3 89 bd 01 e9 0e bd 89 7b 90 3d
       0.034603562 -0.067328416 -0.03489018 0.070548125
0003e0 33 d4 49 bd 4e d9 4c be f0 e1 92 bd 4d 38 b6 3d
       -0.049274635 -0.2000477 -0.071720004 0.08897457
0003f0 b9 fc de 3d 1f dc fc 3b 0e dd 1b 3d d4 42 2d 3d
       0.10888047 0.00771667 0.03805261 0.04230006

fcs1.bias f4 [128]
000000 b6 b1 89 bd 2f 8e f2 bd 69 c0 8d 3d b6 8f 25 be
       -0.06723349 -0.118435256 0.06921465 -0.16168103
000010 53 65 7c 3d f8 c8 6a bd b5 c0 2f bd db 3f b0 bd
       0.061620068 -0.057320565 -0.04290839 -0.086059295
000020 e1 dc fe 3b 46 cf c9 bd bb 77 ff bc e0 2a aa bd
       0.0077777957 -0.098539874 -0.031185022 -0.08308959
000030 c3 bb 09 3d 0a f9 28 be 9e 7e d0 3d cc 81 a0 bd
       0.03362633 -0.16501251 0.101804 -0.07837257
000040 12 ae 30 bd d6 37 35 3d e2 6c 09 be f5 d9 52 3d
       -0.043134756 0.044242702 -0.13420442 0.05147739
000050 45 c3 7f 3c 8b c2 04 3d 50 a3 d8 3d 99 7c f5 3d
       0.015610521 0.032412093 0.105780244 0.11986656
000060 95 4c 5a be 7e 27 0b 3d 5c 37 98 3d 1d 62 7c be
       -0.21318276 0.03397321 0.07432434 -0.24646802
000070 c9 87 d3 bd c1 29 0e 3e 28 07 38 3d 51 c2 18 3d
       -0.10328633 0.13883115 0.0449287 0.03729469
000080 0f 6c 03 3e 1c a7 4f 3d b4 46 8a 3d 05 77 49 be
       0.1283419 0.050696477 0.06751767 -0.19674309
000090 c3 9a bf 3d ee ee 71 bc de 22 16 bd 55 33 46 bd
       0.0935569 -0.014766438 -0.036654346 -0.048388798
0000a0 7a e3 fa 3d 0a 38 5f 3d 61 9a 06 3e 80 59 31 3d
       0.12250419 0.054496802 0.13144828 0.043298244
0000b0 ec 74 6b 3b 2d bf fa bd f6 0f f8 3d 43 56 56 bc
       0.0035927845 -0.12243495 0.12112419 -0.01308209
0000c0 0b 84 e0 3d d4 74 5b 3d 07 38 1a 3e b3 90 2a be
       0.10962685 0.053578213 0.15060435 -0.16656761
0000d0 5a 5f 08 be ad c8 6f 3c f6 74 30 39 61 ec 35 be
       -0.13317624 0.014635247 0.0001682824 -0.17765953
0000e0 a6 1f f6 bd 2b eb 47 bd 00 62 2c bd 89 81 92 3d
       -0.12017755 -0.048808258 -0.042085648 0.07153613
0000f0 82 22 5f be 20 42 10 be f0 74 90 bd c8 ba 95 bd
       -0.21790507 -0.14087725 -0.07053554 -0.07311016
000100 64 c1 36 3e b7 65 c1 3d 04 43 96 3d 3f 03 de bd
       0.1784721 0.09443229 0.07337001 -0.10840463
000110 07 5d 88 bd 5d 9d c7 bb 18 81 03 be e0 00 f2 bc
       -0.066583686 -0.006091757 -0.12842214 -0.029541433
000120 d8 64 5a 3c 17 16 00 3e a5 9d ca bd a0 52 58 3d
       0.013329707 0.12508427 -0.098933496 0.052813172
000130 e1 16 0a be 31 21 96 bd 3f 1d 7f bd 07 3b 0f 3e
       -0.1348529 -0.073305495 -0.06228375 0.13987361
000140 f4 8c c8 3b d2 8c 90 be 7f 01 da bd 0a 30 a6 bd
       0.0061203185 -0.28232437 -0.106448166 -0.081146315
000150 59 d7 d7 3d 7d d9 64 3e f4 25 05 be d2 fb ba bd
       0.10539121 0.2234859 -0.13002759 -0.09130062
000160 3d bb ca bd 56 64 1c 3c 03 c6 d3 bc 23 e1 9e bd
       -0.09898994 0.009545406 -0.025851255 -0.07757785
000170 be 53 aa 3c 3c d2 10 3e 56 88 53 bc 4c 1c 29 3e
       0.020791885 0.14142698 -0.012910923 0.165147
000180 49 57 2d bd 80 bd 6a be 05 1d 74 be ea 8d 5e bc
       -0.04231957 -0.22923851 -0.23839195 -0.01358364
000190 ed 7c a9 bd cf 8a 87 3e 2e 33 f4 bd 07 fe 90 3b
       -0.08275781 0.2647309 -0.11923824 0.0044248137
0001a0 1e e2 27 bd 91 db 0f 3c df eb 89 bc 19 d7 0a bd
       -0.040987127 0.008780376 -0.016836105 -0.03389654
0001b0 da bb 65 bc f1 13 12 be 11 7c a4 bd 06 a8 df bd
       -0.014021838 -0.1426542 -0.08031476 -0.1092072
0001c0 fe 0d 3a be 7e 3f 15 bd 98 b7 13 be b2 96 85 3d
       -0.181694 -0.036437504 -0.14425504 0.065228835
0001d0 97 d8 45 be 72 f0 f0 3d 7c ca 19 bd 4f e0 3d bc
       -0.19320904 0.11764611 -0.03754662 -0.011589124
0001e0 aa ff 4d 3d 85 38 62 be 55 77 bf 3d c2 04 d6 3c
       0.05029265 -0.22091873 0.09348933 0.026125316
0001f0 0c a4 d2 bb 7c 09 12 ba 7b c4 5e bd c8 76 bd 3d
       -0.0064282473 -0.0005570871 -0.054386597 0.09251171

bn1.weight f4 [128]
000000 31 00 36 3f a0 f5 70 3f 11 4e 74 3f 07 48 29 3f
       0.7109404 0.94124794 0.9543162 0.6612553
000010 c5 4b 13 3e 5b 72 ac 3e 4b 6b a6 3e d5 94 7f 3e
       0.14384373 0.33680996 0.32503733 0.24959119
000020 8d 3f 49 3f c3 2b cb 3e 14 e7 53 3e 18 5a 04 3f
       0.78612596 0.39681825 0.20693618 0.5169997
000030 81 f4 40 3f 9f 4f ef 3e 77 5d 13 3f ec df 2b 3f
       0.75373083 0.46740434 0.5756449 0.6713855
000040 24 a2 e6 3e 2d 25 40 3f 38 0c 05 3f 51 a0 1c 3f
       0.45045578 0.75056726 0.5197177 0.61182123
000050 43 de c2 3e 51 a1 32 3f 1d f4 3a 3f 2a 95 81 3e
       0.38060197 0.697774 0.7302874 0.25309116
000060 44 62 05 3f c4 e5 21 3e eb 3a fb 3e a7 5f 02 3f
       0.52103066 0.15810305 0.49068388 0.50927204
000070 15 8c c3 3d 01 32 b5 3e 2f 45 31 3e ad 00 a5 3e
       0.09548203 0.35389712 0.17311548 0.32227078
000080 10 e9 e4 3d 09 1a 52 3e e4 b1 37 3f 2d c6 f0 3e
       0.11177266 0.20517744 0.71755815 0.47026196
000090 ef f5 45 3f fc 43 1f 3f 8c 21 a0 3e 50 39 3e 3f
       0.7732839 0.6221311 0.31275594 0.743062
0000a0 6c 97 55 3e 8a 66 4e 3f 07 56 c6 3e da 20 8b 3e
       0.20858544 0.8062521 0.3873751 0.271735
0000b0 ab 7d c2 3e 94 eb cc 3e c9 bb 24 3f 38 6b a8 3e
       0.37986502 0.40023482 0.6434904 0.328943
0000c0 83 14 43 3f 63 a6 81 3e ef 8b 50 3f 6c fa 59 3f
       0.76203173 0.25322255 0.8146352 0.8514774
0000d0 07 d2 a0 3e 27 f3 14 3f f2 0c 4d 3f 26 9a b1 3e
       0.31410238 0.5818352 0.8009788 0.34687918
0000e0 8b f7 52 3e 32 c4 c0 3e 16 ef 31 3e 76 e7 b8 3e
       0.20602243 0.37649685 0.1737636 0.3611409
0000f0 9e f8 81 3f 51 95 3d 3f 3c f4 28 3f 38 8e 59 3e
       1.0153997 0.74055964 0.6599767 0.21245658
000100 7d 34 73 3e 91 66 d4 3e 15 84 1e 3f c4 75 2a 3e
       0.23750491 0.41484502 0.6192029 0.16646487
000110 83 fb 71 3e 17 7a 34 3e 6f 0e 1c 3f ff 26 52 3e
       0.236311 0.17624699 0.60959524 0.20522688
000120 0d 75 09 3f 7c f9 f5 3e c0 79 1f 3f f7 6f ed 3d
       0.5369423 0.48041904 0.6229515 0.11593621
000130 d1 1c 22 3e f2 7f c6 3e f1 62 83 3e 7c b6 19 3f
       0.15831305 0.3876949 0.25661424 0.60044074
000140 6f 87 54 3e 69 ba 09 3f d8 93 ab 3e 92 0b e9 3e
       0.20754789 0.53800064 0.33511233 0.4551664
000150 2b f8 1c 3f 94 4b f7 3e 81 f7 b3 3e 70 c2 ae 3e
       0.61316174 0.4829985 0.35149768 0.3413272
000160 9d 62 1a 3f 91 59 0f 3f fc a9 53 3e e8 3e 26 3f
       0.6030672 0.5599604 0.20670313 0.6493974
000170 d8 43 02 3f a9 6d 29 3f 63 a3 fc 3d f2 26 1b 3e
       0.5088477 0.66182953 0.12335851 0.15151575
000180 70 46 b3 3e e6 74 49 3e 24 fe 28 3e f8 8f 23 3e
       0.35014677 0.196735 0.16503197 0.15972888
000190 74 84 ac 3e 1d ca cf 3e 38 32 3c 3f b9 db c1 3d
       0.33694804 0.40583888 0.7351413 0.09465737
0001a0 9f 1e 8f 3e 20 d1 2d 3f 80 92 11 3e fd 42 ed 3d
       0.2795305 0.67897224 0.14216042 0.115850426
0001b0 0d 98 fa 3e 25 f0 71 3e 56 e6 70 3f fb 6b 3e 3f
       0.4894413 0.23626764 0.94101465 0.74383515
0001c0 e8 36 aa 3e 3a 55 3a 3e 9e 8b c2 3e 52 c5 d4 3e
       0.33245015 0.18196574 0.37997144 0.41556793
0001d0 90 eb c5 3e d7 28 06 3f 6b 73 37 3f 73 dc 5f 3f
       0.38656282 0.52406067 0.7166049 0.87445754
0001e0 c9 d6 23 3f 62 76 45 3f ff 32 3e 3f 6e 28 2d 3e
       0.6399961 0.7713376 0.74296564 0.16909954
0001f0 75 40 ab 3e f7 00 08 3f 14 53 0b 3f 4c 8b 44 3f
       0.33447614 0.5312647 0.5442364 0.7677505

bn1.bias f4 [128]
000000 dd 3e cb 3d ad e2 12 bd 6f 59 6d bd 49 36 ce ba
       0.099240996 -0.035860706 -0.05794662 -0.0015732731
000010 16 e8 ee bc 60 37 22 3d 9f 65 52 3d 40 aa 12 bd
       -0.029163402 0.03960359 0.051366445 -0.035806894
000020 f9 2d 00 bd b8 6e ed 3b 9d d3 09 3e cd e4 0e be
       -0.031293843 0.0072458647 0.1345963 -0.13954468
000030 6b c9 6b 3d 89 90 40 bc 99 31 42 bd bf 2a 24 be
       0.057565134 -0.01175321 -0.04741058 -0.16031931
000040 7e 36 37 3d ca 12 1b 3c 84 40 70 3d 13 d5 9b 3b
       0.044729702 0.009464929 0.058655277 0.004755625
000050 bc 06 16 3c fb 1c 33 3e 7d 6f 01 3d f9 c4 0b bd
       0.009156879 0.17491524 0.031600464 -0.034123395
000060 43 79 fd bc 04 6b be bc 48 ef 2d 3c 89 cb 57 3d
       -0.030941611 -0.023244388 0.010616131 0.05268434
000070 e3 8c 36 bb b3 96 a6 bd dd 91 76 3c 75 c4 85 3d
       -0.002785497 -0.08134212 0.015049425 0.06531612
000080 fc 8d 13 3c 2f a4 32 bd 39 cb 4a 3d e9 90 7c 3d
       0.00900602 -0.04361361 0.049510214 0.061661635
000090 19 c2 a7 3d 3a f1 39 3c 80 f1 c8 3d f1 a8 84 bc
       0.08191318 0.011349017 0.098116875 -0.016193839
0000a0 af a5 e8 bd e9 3a db 3d e6 bd e4 3d c0 a6 88 bd
       -0.11359727 0.107045956 0.11169033 -0.0667243
0000b0 d2 77 0e 3e f1 45 5c 3e c0 b2 bc 3d b2 fb ca 3b
       0.13912895 0.21511056 0.09213781 0.006194555
0000c0 7d af 05 3e bb ee 18 bd 04 eb 56 bd 5d ed 09 be
       0.13055225 -0.037337046 -0.052470222 -0.13469453
0000d0 30 0d ca 3d 7a ee 77 3d 93 a0 e8 3c 50 89 aa bd
       0.098657966 0.060530163 0.02839688 -0.083269715
0000e0 ce b5 a5 3c 3d 03 e3 3d e6 c2 d1 b9 70 59 b4 3d
       0.020228293 0.11084602 -0.00040008797 0.08806121
0000f0 cf e6 45 3d 00 bd 82 bc f3 9e a5 bc 36 6f 6f 3c
       0.04831582 -0.015959263 -0.020217394 0.014613917
000100 cf 7a 7b bd db 87 31 bd 02 23 48 3d 5a 18 3a bd
       -0.061396416 -0.043342452 0.04886151 -0.04543338
000110 bd 63 9c bc 82 1e 0c 3e 79 64 c2 3c 18 be 45 bc
       -0.019090528 0.13683513 0.02372955 -0.012069248
000120 3e 21 d9 bd da d2 69 3d 8b 9a 3a 3d 22 38 89 3d
       -0.106020436 0.05708585 0.04555754 0.067001596
000130 27 48 91 bc c8 c7 d9 bd 61 13 89 bc 37 e7 1b bd
       -0.0177346 -0.106338084 -0.016732873 -0.0380623
000140 3d f5 88 bb 77 f1 bf bd 9a d9 14 bd a0 6f 72 3d
       -0.0041796253 -0.09372228 -0.036340334 0.059188485
000150 d7 f9 a1 3d e1 fd 1f 3d 2a fe b2 bd 38 93 89 3d
       0.07908981 0.039060477 -0.08739884 0.06717533
000160 8b 7c 0e 3d 76 f4 d7 3d da 09 90 bd c4 52 e6 bd
       0.034786742 0.10544674 -0.07033129 -0.11246255
000170 67 ea 23 3e e2 c0 6a 3c 13 a7 0c 3d be a9 0e 3d
       0.16007386 0.014328213 0.034339022 0.034829848
000180 74 39 0d be 07 43 89 bd 13 98 23 3c 0a 58 7c 3c
       -0.13791448 -0.067022376 0.009984988 0.0154018495
000190 d5 f5 09 3c 1d bc 1a 3c dc b5 53 3c 5e fb 49 bd
       0.008420427 0.009444264 0.012921777 -0.049311988
0001a0 2c 27 54 bc 56 0a 4f bd 81 e2 84 3c 8e 01 a9 3d
       -0.012948792 -0.050546966 0.016221287 0.0825225
0001b0 c7 3a 1b be 44 b9 b7 bb c0 ee 8a 3d 3f 50 4b 3d
       -0.1515914 -0.005606802 0.06783819 0.049637076
0001c0 20 6a f1 bc 97 5d 33 bd 93 aa 84 3c f9 d6 ec 3d
       -0.02946955 -0.043790426 0.016194617 0.1156444
0001d0 f5 a3 94 3d 18 38 8b 3d 3e 33 1a 3e c0 1c 21 3e
       0.07257835 0.067978084 0.1505861 0.15733624
0001e0 ac 7e 35 3e 30 96 29 3d ad 33 c3 3b b5 35 8c bc
       0.17724103 0.041402996 0.005957088 -0.017115453
0001f0 4e 6c 89 3d 4b 2c 83 3d bb b9 80 3d e2 a0 02 3e
       0.067101106 0.064049326 0.06285425 0.12756684

bn1.running_mean f4 [128]
000000 84 a8 db 3f e4 7a 6c 3f 63 f5 40 40 a3 a0 38 40
       1.7160802 0.92375016 3.0149772 2.8848045
000010 09 16 20 40 46 7e 30 3f 0c c0 b9 3f 24 52 dc 3f
       2.501345 0.6894268 1.4511733 1.7212567
000020 5f b7 a0 3f af 8a 5d 40 94 64 89 3f 44 6c c3 3e
       1.255596 3.4615896 1.0733819 0.38168538
000030 ed 32 a5 3e f2 5b 32 3f 26 99 e4 3f f0 bc c7 40
       0.32265416 0.6967155 1.7859237 6.2418137
000040 dd ab 41 3f 0d fe 9c 3f cb 3a 54 3d f2 bf 44 40
       0.7565287 1.226503 0.05181388 3.0742154
000050 eb b4 0a 3f 94 c7 86 40 c5 6c b0 3f a1 1e e0 3e
       0.5418231 4.2118626 1.3783194 0.43773368
000060 9d 9b cc 3f c7 30 64 3e 76 1a 86 40 62 a2 00 40
       1.598499 0.22284232 4.19073 2.009911
000070 3d 6e a8 3d 40 fe c6 3f f4 f6 01 3f c7 44 4e 3f
       0.08224151 1.5546341 0.50767446 0.80573696
000080 8c eb c0 3e c7 a8 98 3f 9c 84 ee 3f 08 f4 7b 3f
       0.37679708 1.1926507 1.8634219 0.9841924
000090 68 8d 78 40 9d 24 f0 3f ca 64 69 40 03 c9 e8 3f
       3.8836308 1.8761173 3.6467767 1.8186344
0000a0 9a 5d 5b 40 73 b1 60 3e 81 2a 78 3e 57 ec cc 3f
       3.427588 0.21942692 0.24234964 1.6009625
0000b0 f6 51 06 40 18 34 0b 40 5c c9 d6 40 6a b4 99 3f
       2.0987525 2.1750546 6.71208 1.2008183
0000c0 5d 7d 23 3f 17 46 fa 3f f8 88 e0 3f 3b 23 4c 40
       0.63863164 1.955264 1.75418 3.1896503
0000d0 67 fe 01 3e 2d 65 b5 3f c6 cd 2e 3f c7 53 e1 3f
       0.12694703 1.4171501 0.68282735 1.7603692
0000e0 43 a6 35 3e 79 c5 b8 3f d1 0d 9a 3d 11 d4 47 40
       0.17739205 1.4435264 0.075221665 3.1223185
0000f0 5b 0a c5 3e 0c 07 29 40 6c c4 b0 3f d6 35 70 3f
       0.38484463 2.641055 1.3809943 0.9383215
000100 d9 e0 59 3f cc bb f8 3f e4 3e e4 3f 7b f3 36 3f
       0.85108715 1.9432311 1.7831693 0.7146527
000110 62 48 1f 40 bc ff 43 3f 03 48 17 40 6c 9c fb 3e
       2.488793 0.76562095 2.3637702 0.49142778
000120 7e ec 61 3f 5e 37 25 3e 1b e0 83 40 66 54 51 3e
       0.88251483 0.16134402 4.1211066 0.20442352
000130 c2 67 c4 3f 09 52 3d 40 78 9f 6c 3f a3 40 c3 3f
       1.5344164 2.958132 0.9243083 1.52541
000140 ab 3c 07 3f 36 11 af 40 83 6b aa 3f ae 16 3a 3f
       0.52826947 5.470851 1.331406 0.72690856
000150 2b 6c c7 3f f3 ba 68 3e f9 20 3f 3f 97 53 0c 3f
       1.5579885 0.22727565 0.7465969 0.5481505
000160 e0 bd 04 40 6f e5 45 3f 7e 3c ab 3f 8c 32 6b 40
       2.074089 0.7730321 1.3377836 3.6749601
000170 b2 8c 11 3f bf 81 be 3f 88 17 74 3f c7 12 12 40
       0.5685531 1.4883345 0.95348406 2.282396
000180 ee b2 0a 40 94 eb 88 3f 67 52 ab 3f f9 07 66 3f
       2.167171 1.0696893 1.3384522 0.89855915
000190 e3 79 23 3f 91 58 5a 3f bc 93 e5 3f bc 6a e6 3f
       0.6385786 0.8529139 1.793571 1.8001323
0001a0 95 71 11 40 4f 1e ef 3f c1 4e 11 40 ec 6c a8 3e
       2.2725575 1.8681124 2.2704318 0.328956
0001b0 4f 1c a9 3e ee b3 de 3e dc f8 18 3f 29 34 1f 40
       0.3302941 0.4349665 0.5975473 2.4875586
0001c0 51 37 5f 3f 38 4f fd 3f 41 0b a5 3f be 41 ae 3f
       0.8719378 1.9789801 1.289406 1.3613813
0001d0 d2 f0 3d 3f 74 e5 f3 3f fa e0 96 3f 89 be 1f 40
       0.7419559 1.9054399 1.1787407 2.4960043
0001e0 b9 45 cb 3f 38 e1 46 40 9d 0d 61 40 c4 b0 fe 3e
       1.5880653 3.1074963 3.516456 0.49744236
0001f0 2e d5 2f 3f f9 d5 95 3f 04 fa c1 3f 74 d5 84 40
       0.6868466 1.1705924 1.5154424 4.1510563

bn1.running_var f4 [128]
000000 05 a3 b0 40 15 81 24 3f a1 eb aa 40 98 dd 13 41
       5.5199 0.64259464 5.3412633 9.2416
000010 4e 97 1c 41 e5 1e f8 3f 8f 97 67 40 46 4a e5 40
       9.78694 1.9384428 3.6186254 7.1653166
000020 45 7a 76 40 29 da 34 41 a9 b8 36 40 be 7f 15 3f
       3.8512127 11.303262 2.8550208 0.58398044
000030 c7 68 13 3f 67 59 c6 3f 69 d6 36 40 f1 56 b0 41
       0.5758175 1.5496033 2.8568366 22.042452
000040 45 85 f3 3f e7 04 b8 40 16 b8 7e 3d 7e 00 0b 41
       1.9025046 5.7505984 0.062187277 8.68762
000050 9e 41 78 3f 48 54 1e 41 42 c7 93 40 3e c3 3c 3f
       0.96975124 9.8955765 4.6180735 0.73735416
000060 ea 2c a2 40 50 24 ac 3e 21 55 37 41 74 6b 08 40
       5.0679827 0.33621454 11.458283 2.1315584
000070 c0 10 bf 3d 29 ce aa 40 62 09 f5 3f 15 0e 06 40
       0.09329367 5.337666 1.9143488 2.0946095
000080 a7 eb 54 3f a3 4e 5b 40 9b 72 a5 40 7c b3 fb 3f
       0.83172077 3.4266746 5.17024 1.9664149
000090 db 24 51 41 be 4e 6e 40 66 69 d0 40 41 40 a3 40
       13.071498 3.723556 6.512866 5.1015935
0000a0 05 8e 5c 41 68 b0 d4 3e 15 1d 0b 3f c1 b5 9b 40
       13.784673 0.41540837 0.5434125 4.8659368
0000b0 6d a8 d8 40 8e 83 88 40 fe d5 aa 41 05 06 2c 40
       6.77056 4.266059 21.354488 2.6878674
0000c0 3f 0e ab 3f 6b e9 88 40 e2 e9 c6 40 70 99 34 41
       1.3363723 4.2784934 6.21605 11.28746
0000d0 80 0f bf 3d 29 6c 3f 40 47 bf d3 3f 32 98 9f 40
       0.09329128 2.9909766 1.6542748 4.9873285
0000e0 b6 c0 78 3e a2 47 80 40 53 c4 d2 3d 74 c2 56 41
       0.24292263 4.0087442 0.10291352 13.422474
0000f0 12 68 d7 3e 7f 4c 01 41 a4 8b 69 40 13 81 09 40
       0.42071587 8.081176 3.649148 2.148503
000100 4c d4 34 40 e5 b7 a7 40 c2 07 38 40 a3 0a e0 3f
       2.8254576 5.241198 2.8754735 1.7503246
000110 6d 82 0b 41 43 74 b1 3f 87 a1 b9 40 a0 35 44 3f
       8.719342 1.3863605 5.8009677 0.76644325
000120 9d 01 da 3f 50 58 75 3e 1c 14 b1 41 bb b4 b9 3e
       1.7031742 0.2395947 22.134819 0.362707
000130 80 b3 43 40 35 50 20 41 a3 1b 05 40 29 3c 88 40
       3.0578308 10.019582 2.0798118 4.257344
000140 b0 1b cc 3f 19 d0 c1 40 b9 eb 8a 40 08 41 b3 3f
       1.594595 6.0566525 4.3412747 1.4004221
000150 50 96 82 40 a8 db a3 3e 1e e3 a7 3f a9 6e c5 3f
       4.0808487 0.32003522 1.3116186 1.5424396
000160 cd 4a 86 40 6c af 03 40 15 0d 53 40 ab 84 9e 40
       4.196631 2.057582 3.2976735 4.953695
000170 83 3a 8f 3f 31 9a 90 40 9b 20 67 40 99 60 a5 40
       1.1189731 4.518822 3.611365 5.1680417
000180 72 ab f8 40 2e e6 23 40 7b 31 25 40 f4 b5 d7 3f
       7.7709284 2.560924 2.581145 1.6852403
000190 01 14 af 3f b5 3e 02 40 b5 3b 87 40 b1 17 63 40
       1.367798 2.0350773 4.2260385 3.548321
0001a0 52 45 ed 40 af 6c ca 40 29 d5 9d 40 26 00 90 3f
       7.414712 6.325767 4.9322705 1.1250045
0001b0 01 ec 2d 3f 26 ce 6c 3f 8e b9 2b 3f c1 e9 08 41
       0.6793824 0.9250206 0.6708001 8.557069
0001c0 12 8a 26 40 d6 88 cc 40 af c9 8f 40 6f 02 62 40
       2.6021771 6.3917036 4.4933696 3.5313985
0001d0 d7 05 fc 3f 91 5d d4 40 45 86 5a 40 b5 18 c7 40
       1.9689282 6.6364217 3.4144452 6.221766
0001e0 1f fb 03 41 b4 56 91 40 6a 2e 8a 41 7c 03 91 3f
       8.248809 4.541834 17.272663 1.1329188
0001f0 41 c3 44 40 f4 2b 7b 40 f7 99 c7 40 46 c5 24 41
       3.0744174 3.9245577 6.2375445 10.298162

fc2.weight f4 [128, 132]
000000 86 be 35 bc d1 5d c3 bd 40 e6 f0 3c 7c dc 92 bd
       -0.011092788 -0.095393784 0.029406667 -0.0717096
000010 ef 54 0b 3b 87 5f b0 bd 98 5c ab bd 68 d4 40 bc
       0.002126034 -0.086119704 -0.0836727 -0.011769392
000020 de 36 03 bd 61 62 2c bc d6 be cc bc 1b bf 97 bd
       -0.032034747 -0.010521502 -0.024993341 -0.07409497
000030 91 ff b7 bd 0b 61 1a bd 2a bc f0 3b 6c f0 af 3d
       -0.08984292 -0.037690204 0.0073466497 0.08590779
000040 03 1f 14 bd a3 de 19 bd b2 6a 13 bc 8f 29 82 3d
       -0.036162388 -0.03756584 -0.008997606 0.06355583
000050 77 ef 8f 3d 5d ae 66 3c 3f 62 84 3c 99 19 39 bd
       0.07028096 0.014079657 0.016160129 -0.045190427
000060 1d 7b 0e bd 57 54 7c bd 83 b2 6b bc be a0 b4 ba
       -0.03478538 -0.06160387 -0.014385822 -0.0013780815
000070 7b 77 22 bd 7a f1 d7 bc 6b 7a 90 3d 14 0d 08 bc
       -0.039664727 -0.026360262 0.070545994 -0.008303899
000080 85 b0 bd bd 3a be ee 3b c2 1c 68 bd 98 a6 98 bc
       -0.09262184 0.0072858604 -0.05666805 -0.018634126
000090 98 9c a4 bd cc 79 d8 bd a9 a3 6d bc 60 45 64 bd
       -0.080376804 -0.10570106 -0.014504352 -0.055730224
0000a0 50 6c 9e bd 07 6c cd bd 54 28 81 bd 63 68 04 bd
       -0.07735503 -0.1003037 -0.0630652 -0.032326113
0000b0 4f 49 cb 3c 03 4a e0 bc 29 2c 88 bb 5e 26 9f 3d
       0.02481523 -0.027379042 -0.004155655 0.0777099
0000c0 68 99 33 bc 33 0c e1 3c 82 13 14 3d f4 7d cd bc
       -0.010961868 0.027471637 0.036151417 -0.025084473
0000d0 bc 02 c6 bd 79 c1 98 bd 86 41 93 3c 29 ab 69 3d
       -0.0966849 -0.07458777 0.01797558 0.057047997
0000e0 17 3c 0f bd 13 0e 70 3c 9b d5 ed bc 86 c9 84 3d
       -0.034969416 0.014651793 -0.02903252 0.0648375
0000f0 b2 30 b7 3d 37 be 8c 3c ad 85 24 bd 9c 01 ec bb
       0.08944835 0.017180545 -0.040166546 -0.0072023403
000100 96 42 9f bc d7 c7 94 bd 4d 29 8c 3b 36 a7 b7 bd
       -0.01944093 -0.07264679 0.0042773844 -0.0896744
000110 8c 3b 29 bd fe 09 6a bd 61 60 32 3d 44 21 4a 3c
       -0.041316554 -0.057138436 0.043548945 0.012337033
000120 08 c2 c9 3b 12 47 81 3d cb 70 a2 3d 30 37 b3 3b
       0.0061571635 0.06312384 0.0793167 0.0054692253
000130 a1 76 da 3d f3 58 1d 3d ad a2 0c bd e0 09 c0 bd
       0.10667158 0.038414907 -0.034334827 -0.093768835
000140 2e 65 98 3c aa 3f 90 bc 7c 3e 20 bd d2 e2 66 3d
       0.018602934 -0.017608482 -0.03912209 0.056368656
000150 c5 25 9e bd f9 e0 86 bd 1e 27 64 bd 22 b1 ad bd
       -0.07722048 -0.06585879 -0.055701368 -0.08481051
000160 ae a5 cf bd 47 98 94 3d f8 3a a5 3c 81 2b 63 3d
       -0.10139023 0.07255607 0.02016972 0.05546141
000170 ac 4f 36 bd 13 e1 44 3d 67 ea 9f bd bd 60 68 bd
       -0.044509575 0.04806621 -0.078083806 -0.05673288
000180 66 4a 83 bc d8 64 37 3b c8 83 4c bd c7 56 e6 bd
       -0.016026687 0.0027983692 -0.049930364 -0.1124702
000190 f9 f5 1d 3d de 88 94 3d 06 2d 70 bc 4b a4 11 3d
       0.038564656 0.07252668 -0.014659172 0.035557073
0001a0 75 87 33 bc 06 9a 71 bc ee a6 29 3d e3 a0 64 bd
       -0.010957588 -0.014746195 0.041418962 -0.055817496
0001b0 51 c2 ad 3a 85 0b aa 3d 11 d3 c7 bc 98 c4 d9 bc
       0.0013256763 0.083029784 -0.024392636 -0.026583001
0001c0 92 c8 b8 3c 63 9b 30 bd 4a 32 54 bc c6 e7 79 bd
       0.022556577 -0.04311694 -0.012951443 -0.061012052
0001d0 85 38 65 bd 3b 3d 01 bd 3c d4 12 be 82 16 9a bd
       -0.055962104 -0.031552535 -0.14338773 -0.07523824
0001e0 c2 f2 72 3d 03 39 88 bd 01 67 9b 3c a1 3e 5e 3d
       0.059313543 -0.06651499 0.018970015 0.054258946
0001f0 62 f0 b3 bd bb 28 95 3c 53 c1 46 3d 79 65 1a bc
       -0.08786084 0.018207898 0.048524212 -0.009423607
000200 bf 06 06 3e ff 63 e5 3c b9 c0 80 3c a0 08 4c 3c
       0.13088511 0.028001783 0.015716897 0.012453228
000210 35 ea 95 3c 24 d6 e0 3b 45 55 a4 3d 72 11 00 3d
       0.018300155 0.006861465 0.08024076 0.031266637
000220 18 9c ea bc 51 e2 06 3d 96 28 19 3d 28 b6 8d 3d
       -0.028638884 0.032930676 0.03739222 0.06919509
000230 93 f6 3f 3d 39 96 49 3c 3c f5 53 bd 41 db 88 3c
       0.04686601 0.012303882 -0.051747546 0.01670611
000240 2b 04 9d bd c4 d8 6d bd c1 d3 6d 3b 56 83 22 bc
       -0.076668106 -0.058068052 0.0036289545 -0.009919008
000250 75 bc 2a 3c 07 b3 5d 3d 35 7c 75 bd 28 bb 19 3d
       0.010420908 0.054125812 -0.059932906 0.037532
000260 00 29 f4 bc a6 00 d3 3d 10 fc 1f bd c1 b4 69 bd
       -0.029804707 0.10302858 -0.039058745 -0.057057146
000270 23 fb 08 3d 18 ae cd ba 54 93 1c bc 52 59 80 3c
       0.033442628 -0.0015692143 -0.00955661 0.015667591
000280 2d cc 83 3c d4 f8 1d bd a4 7f a9 3d b9 bb 6a 3b
       0.01608857 -0.03856738 0.08276299 0.0035817458
000290 e5 13 b6 3d c6 6a d4 bd 51 5b 9e bc 74 c4 95 bc
       0.08890513 -0.10371928 -0.019330652 -0.018282153
0002a0 49 a8 a3 3d d6 93 08 bd b1 9b ba bd 86 ed 7d bd
       0.07991082 -0.033344112 -0.09111727 -0.061994098
0002b0 7c a2 09 3e 68 0b 42 bd 54 84 cd bc 5d af 7a bc
       0.13440889 -0.04737416 -0.025087513 -0.015300599
0002c0 1d f8 20 bd 55 96 10 bd d5 6a fe bc 84 62 09 bd
       -0.03929912 -0.035299618 -0.0310568 -0.033541217
0002d0 c2 f4 51 3d 13 a4 21 bd 93 0a d6 3c 9a 9e 82 bc
       0.05125881 -0.039463114 0.026128089 -0.015944768
0002e0 cf 4b 95 bd 8d 0b f7 bb dd c3 52 3d b0 b8 3c 3d
       -0.0728985 -0.0075392188 0.05145632 0.04607457
0002f0 b3 bb 4b bd a5 04 88 bc 2d f3 c9 bb 3e 25 3c bc
       -0.04973955 -0.016603777 -0.006163022 -0.011483489
000300 27 38 90 bc a9 31 c6 bb 8e 79 a4 bd 03 ed 9f bc
       -0.0176049 -0.0060484004 -0.08030997 -0.019522196
000310 80 f2 43 3d e2 3f a0 3d 48 29 2c bd fd 21 b7 3d
       0.047838688 0.07824685 -0.042031556 0.089420296
000320 41 d4 9a 3d ce 4d 2f be 7b 18 3a 3c d3 11 17 bd
       0.075600155 -0.17119524 0.011358376 -0.036882233
000330 c0 40 0e 3c 1e 62 df bb f5 f2 87 3d 0e 9d 91 bd
       0.00868243 -0.0068171164 0.06638137 -0.07110034
000340 db 85 78 bd 9a d3 26 3c 0c d4 39 bd 27 29 0e bd
       -0.06067453 0.010182286 -0.04536824 -0.034707215
000350 7f 2e 25 be 08 fb e0 3d 0a 89 74 bd 21 08 a1 bc
       -0.16131018 0.109853804 -0.059701003 -0.019657196
000360 6f d1 94 3d 29 ee 02 bd 71 eb 89 bd 17 cd 7d 3d
       0.07266509 -0.03196541 -0.0673436 0.061963167
000370 2b f2 4e bc 8d fb 60 3c 97 b8 9c bc 57 bb 4d 3d
       -0.0126309795 0.013731849 -0.019130988 0.05022749
000380 94 62 01 bd 04 c1 87 3d 2d c9 89 3a a3 b2 59 3c
       -0.031588152 0.06628612 0.0010512226 0.013287219
000390 34 6a 14 3d cd fd de bb 39 29 da 3d f0 2c cf 3c
       0.036234096 -0.0068051578 0.10652394 0.025289983
0003a0 cb b3 93 bd b1 a1 33 3d cd ef 90 bd c5 cc 92 bc
       -0.07212027 0.043855373 -0.07076988 -0.017919907
0003b0 72 81 7e bc 44 9b aa 3d f4 13 05 be a8 d6 34 3c
       -0.015533792 0.08330396 -0.12995893 0.011037506
0003c0 aa 67 62 3d 60 ac 2c bd 4a 49 96 3c bf 63 0f bd
       0.055274643 -0.042156577 0.018345494 -0.035007235
0003d0 82 a3 df bc 21 a5 ba bc 89 ea 1f 3d 8d b2 70 bd
       -0.027299646 -0.022783818 0.03904203 -0.05876403
0003e0 d5 0c 91 3d 82 10 84 bd 95 8a 98 3d 2e a5 da bb
       0.07082526 -0.06448461 0.074483074 -0.006672523
0003f0 99 1c 88 3c ca f3 19 bc 22 4c 19 bd 77 ff 9b bd
       0.016615199 -0.009396503 -0.03742612 -0.076170854

fc2.bias f4 [128]
000000 55 98 f5 bc 14 35 0a bd f9 43 2f 3d be 0b 1e bd
       -0.029979864 -0.033742025 0.042789433 -0.038585417
000010 4c 27 9b bd 35 31 a1 bd 82 ac 59 bd de a4 ef 3c
       -0.07575855 -0.078707136 -0.053143032 0.02925342
000020 23 3f 11 be 4f c4 b2 3d a2 0c 8e bd 84 db 43 bd
       -0.14184241 0.08728849 -0.06936003 -0.04781677
000030 93 c4 55 bd be e0 16 be d0 a6 94 3c 84 ca a5 bd
       -0.05218942 -0.1473417 0.018145949 -0.080952674
000040 ab 8a 00 3d 2b 6b 7f bc 63 54 1a 3d cb e3 8d 3d
       0.031382244 -0.015589516 0.037678134 0.06928214
000050 68 e4 a8 3d d4 8e c3 bd 62 31 28 be f2 73 6b bd
       0.0824669 -0.09548727 -0.16425088 -0.05748362
000060 40 0f 52 3d be 05 09 3d 65 5a 87 bd c2 35 ce bd
       0.051284075 0.03345274 -0.06609038 -0.10068847
000070 57 59 56 bd a7 1d 07 bd 2d 5c 0a be ee e4 56 bd
       -0.052331295 -0.032987263 -0.13511725 -0.052464418
000080 aa d6 3b be c1 df 88 bc 62 2b 0e bc d7 4a fd bd
       -0.18343607 -0.016708257 -0.008677335 -0.1236779
000090 a2 ee 4c bb 55 c2 18 be 27 f8 7b bb 34 31 89 3d
       -0.0031270166 -0.14917882 -0.003844747 0.06698838
0000a0 7c 3a bc 3c f2 f4 cc bd 72 84 ff bc 7b 41 8b 3d
       0.022977106 -0.10007657 -0.031191085 0.06799599
0000b0 01 86 17 be e8 e3 f3 bc e2 0d aa bd ad 02 7d 3c
       -0.14797212 -0.02977176 -0.08303429 0.0154425325
0000c0 98 66 c2 bd fa 06 37 be 13 4d d8 bc fe 4b 17 bd
       -0.094922245 -0.17873755 -0.02640394 -0.036937706
0000d0 ed 51 cb bc 93 db ca bd 57 41 79 bd af c0 01 bd
       -0.024819339 -0.09905162 -0.06085333 -0.031677898
0000e0 93 70 75 3d 29 5e 8d bd 92 07 8c 3c b3 c6 57 bd
       0.059921812 -0.06902725 0.017093454 -0.05267973
0000f0 d8 80 3d 3c 90 bc a8 bc 74 d5 63 3c 8b 86 d5 3b
       0.011566363 -0.020597726 0.013905872 0.006516283
000100 9f 75 d9 bd ab 57 ab bd e9 10 4b bd c5 e4 93 bd
       -0.106181376 -0.08366331 -0.049576674 -0.07221369
000110 da b9 0d bd 72 b4 ae 3c 38 da 48 bd fd 62 0b be
       -0.03460107 0.021326277 -0.049036235 -0.1361198
000120 ae e2 dd 3d 96 2f f3 bd f6 54 e0 bd 3d c5 34 bd
       0.10834251 -0.11874311 -0.10953705 -0.044133414
000130 92 63 aa bd 1e b4 15 bc e0 83 38 be e9 4e 07 3d
       -0.08319773 -0.009137182 -0.18019056 0.03303424
000140 6b 59 eb bc 23 35 96 bd 75 b7 86 bd 35 a7 5c 3d
       -0.028729161 -0.07334354 -0.065779604 0.0538704
000150 29 cd f9 bd b7 b5 5f 3c d8 8f bd bd ed e7 39 3c
       -0.12197334 0.013654164 -0.09255952 0.011346799
000160 07 cc 5c bc 3d c6 3e be 8e 1e 09 be 26 5a 87 bd
       -0.013476378 -0.1863031 -0.13390562 -0.06608991
000170 ad 84 95 bd a9 79 2e 3c 3c 20 f8 bd 64 d4 5b 3c
       -0.073006965 0.010649123 -0.12115523 0.013417337
000180 c9 39 03 be a9 bf af bd 6a 78 d2 bc 5d 1e 15 bd
       -0.12815012 -0.08581478 -0.025692184 -0.03640591
000190 d2 e8 85 bd 20 25 28 bd aa 17 2b bc c3 9c c7 bc
       -0.065385476 -0.04105103 -0.010442654 -0.024366742
0001a0 9e 87 a7 bc 66 37 b1 bd bb 08 ef bb ef 6e c0 bb
       -0.02045041 -0.086531445 -0.007294742 -0.0058725993
0001b0 eb 5f f9 bd 49 f4 f5 bc c8 2a ea bd a7 08 24 3b
       -0.12176498 -0.03002371 -0.11433941 0.0025029571
0001c0 53 97 02 be d4 08 cf bd 1f d7 95 bc bd f8 b3 3b
       -0.12753038 -0.10109106 -0.018291054 0.0054922984
0001d0 be da f7 bd dd 07 34 be 68 32 ef bd cf a2 81 3c
       -0.12102269 -0.17581125 -0.11679536 0.015824703
0001e0 7d f7 f8 bd 77 d1 28 3d 01 f6 0a be e3 e8 8d bd
       -0.1215658 0.041215386 -0.13570406 -0.06929185
0001f0 3e 5a c6 bd d8 3c 50 bd fe 95 24 3c 7f 32 f3 bd
       -0.09685181 -0.050839275 0.010045527 -0.11874866

fc3.weight f4 [1, 128]
000000 1a de 8c bc 8f c7 b1 bc 64 97 54 bc ed d9 6b bc
       -0.01719575 -0.021701602 -0.012975547 -0.014395219
000010 a2 90 af bc 60 ac b4 bc af f4 32 3c 57 d4 8d 3c
       -0.021431271 -0.022054851 0.010922595 0.017313166
000020 cb 08 68 3d 8a dd 38 3c 33 77 88 3c 12 70 83 3c
       0.05664901 0.011283288 0.016658401 0.01604465
000030 d8 75 e2 bc 97 14 4a bd 4b 49 92 3c c8 3e cf bc
       -0.027644083 -0.049336042 0.017857214 -0.025298491
000040 34 43 ff bb 2e a5 59 3c cd b3 31 3c c7 1c 6c 3c
       -0.0077899937 0.013284011 0.0108460905 0.014411158
000050 7c 0f 2a 3c 3d 90 24 3d 84 2e c0 bc 7b d8 7c 3d
       0.010379668 0.04017662 -0.02345968 0.06172989
000060 41 e8 80 3c 73 b8 2f 3c 62 d4 27 bd 97 95 12 bd
       0.015735747 0.010725128 -0.04097403 -0.03578719
000070 96 9e 40 bc f1 e7 1e 3c 15 b9 ce bc 46 67 d8 bc
       -0.01175656 0.009698854 -0.025234738 -0.026416432
000080 6d 65 2c bd ab f6 9a bc ac 28 da bc 76 c1 de bc
       -0.042088915 -0.018916449 -0.026630722 -0.027191859
000090 82 1e 65 3c d7 16 19 bd dc 60 99 3c 6b 1c 5e 3c
       0.013984324 -0.037375297 0.018722944 0.01355658
0000a0 eb f1 d4 3b ae 4b 87 bc 30 c7 92 bc 81 1e 38 3c
       0.0064985654 -0.01651558 -0.017917246 0.011237741
0000b0 3e 9b dc 3d e5 01 1e bc 6f 5b e1 3c 5b 8d 4b bc
       0.107717976 -0.009644006 0.02750942 -0.0124238385
0000c0 a7 cb 8b bc 9b 62 8d 3d e4 5c c6 bc cb 6b 8e bc
       -0.017064882 0.06903573 -0.024214216 -0.017385384
0000d0 c6 7d b8 3c 4c f0 55 bc ae d0 1f 3c ba 14 89 3c
       0.022520911 -0.0130577795 0.009754343 0.016733516
0000e0 09 a4 43 3c ee ad e7 3c 8e 23 77 3c a4 6a 89 bc
       0.0119409645 0.028281178 0.0150841605 -0.016774483
0000f0 82 89 55 3c 9e b0 82 3c 2e 01 7a 3c f7 90 e3 3b
       0.013033273 0.015953358 0.01525907 0.0069447714
000100 a5 ee 9f bc 60 f3 10 bd 4f 64 81 3c 68 27 5b bc
       -0.019522974 -0.03538835 0.015794901 -0.013376094
000110 86 12 10 3c a8 21 b0 3c 83 18 62 3c 4d d2 9d bc
       0.008793479 0.021500424 0.013799789 -0.019265318
000120 ba 06 13 3c cd 51 d0 bc 9b 94 5e bc 3c c4 a6 bc
       0.008973772 -0.02542963 -0.013585235 -0.020357244
000130 09 c6 f6 bc 2d bd 9d bc 74 cd 93 bd f5 24 6f 3c
       -0.030123727 -0.019255245 -0.072169214 0.014596214
000140 60 cf 58 3c 87 81 15 bd 93 22 e6 3c 82 0a 3d 3c
       0.013233036 -0.03650048 0.028092658 0.01153815
000150 aa 33 a5 3c 59 78 dd 3c 63 e8 2a 3c 6f e7 40 3c
       0.020166237 0.027034925 0.010431382 0.011773928
000160 19 13 bb bc 73 e6 11 3e ac 05 0f bd 62 9e d1 3c
       -0.022836255 0.14248066 -0.03491752 0.025588218
000170 f8 c0 d3 bc f7 71 f5 3b ff aa 69 bc 5a 72 00 3c
       -0.02584885 0.0074903923 -0.01426196 0.007839764
000180 d1 32 0c bc 78 ba 95 bc ac 4e 5b 3c 91 c3 44 3c
       -0.008557037 -0.018277392 0.013385456 0.012009517
000190 13 ef c7 3c e3 c0 ff 3b 41 40 66 3c cb a1 9f 3c
       0.024405992 0.0078049763 0.014053405 0.019486329
0001a0 36 f9 19 bc 89 ab 9a 3c 26 04 30 bc ce cf d5 bc
       -0.009397795 0.018880622 -0.010743177 -0.026100066
0001b0 e2 14 c2 bc bf 43 ad 3c 1e 8f 84 bc 23 e2 47 3c
       -0.023691598 0.021150468 -0.016181525 0.012199911
0001c0 6b b7 92 bc f7 4b 58 3d 82 f0 8d bc a2 56 22 3c
       -0.017909726 0.05280682 -0.017326597 0.00990835
0001d0 da 17 ad 3c 22 81 75 3d f7 57 15 bc f9 d8 74 3c
       0.021129537 0.059937604 -0.009115211 0.014944308
0001e0 ad 09 ce 3c 35 de 5c 3c 0b af a2 bc 6a 45 93 3c
       0.025151098 0.013480713 -0.019858858 0.017977435
0001f0 ba 60 d0 bc bb cf 94 bc c9 40 67 3c 9d fa 16 3d
       -0.025436748 -0.01816546 0.014114567 0.036860097
