agent2_checkpoint_actor_final.pth (torch_old, 85691 bytes, 14 tensors)

fc1.weight f4 [128, 24]
000000 a5 14 3e 3e b6 43 3a bd c9 9c 87 3d 11 05 25 3d
       0.18562563 -0.04547473 0.06621701 0.040288035
000010 41 5a 45 bd 61 4e 4c bd e0 36 69 bd d3 23 9e bd
       -0.048181776 -0.049879435 -0.0569371 -0.07721677
000020 53 d4 d3 bb a1 9d e9 3c d5 26 ff 3c bf 5c c1 3c
       -0.00646452 0.028517546 0.031146446 0.023603795
000030 60 d2 ee 3c 6d 59 bc bd ef 31 59 bd c2 f7 30 bd
       0.029153049 -0.09196744 -0.053026136 -0.04320503
000040 fb d3 22 3e 98 1f b4 bd b2 22 ef bc ef c6 1d bd
       0.15901177 -0.087950885 -0.029191349 -0.038519796
000050 30 fb 47 bc 6f fc ac bd ba 99 01 3c bd 2e 1b 3d
       -0.012205884 -0.084465854 0.007910186 0.03788637
000060 0a a1 28 3d c7 5b df bd 7e 25 80 bd 4c 9f ae ba
       0.041169204 -0.10906177 -0.06257151 -0.0013322621
000070 af 9f 34 3d a6 cf b5 3d 62 b3 d2 3d cd 2d 6a bd
       0.0440976 0.088774964 0.10288121 -0.057172585
000080 70 6b 61 3c ee 67 0e be 15 1b 79 3d 3f 04 10 3d
       0.013758525 -0.13906834 0.060816843 0.0351603
000090 d8 4c 08 bd ab f3 12 3d 4b ef 4a bd fb 48 c1 bd
       -0.03327641 0.03587691 -0.049544614 -0.09437748
0000a0 71 ef 14 3c 2b 16 b9 bd 50 28 29 3d 86 3b 8c 3c
       0.00909029 -0.09037431 0.04129821 0.017118227
0000b0 c0 a1 02 3e 86 7b 6b 3d 46 b1 4a bb a7 71 7f 3a
       0.12757015 0.057490848 -0.0030928417 0.00097444135
0000c0 dc 0f 9c bc 2a 36 80 3c 59 b1 8d bd ce 98 3b bd
       -0.019050531 0.015650827 -0.06918592 -0.045800023
0000d0 4e 17 63 bd 60 b7 bd 3d 0f 59 b4 bd 7b 63 96 bc
       -0.055442147 0.09263492 -0.08806049 -0.018357983
0000e0 06 a5 c2 bb e3 70 70 bd 6a fd 22 3d 4d 85 e0 bb
       -0.0059400825 -0.058701407 0.039792456 -0.006851828
0000f0 11 4f 38 bd 45 fc 40 bd a6 30 12 bd 2b 01 96 3c
       -0.04499728 -0.047115583 -0.035690926 0.018311104
000100 16 a9 d9 bd a3 d0 99 bd f3 b7 78 bc 88 a7 3e bb
       -0.10627954 -0.075104974 -0.015180576 -0.0029091556
000110 51 5a b4 bd 7e b8 b9 bc 97 0d 04 bd d2 e4 3a 3c
       -0.08806289 -0.02267098 -0.032239523 0.011407094
000120 5b 05 51 3d ce 3f 3a 3d 3f 4c 5b bd 4e 99 b1 3d
       0.051030498 0.045471005 -0.05353951 0.08671819
000130 b1 a5 88 bd 91 a8 f0 3d b1 7f 2f 3d dc 99 cd 3d
       -0.06672228 0.117509015 0.042846385 0.10039112
000140 75 05 74 3d 71 eb 92 3d ce f3 2c bd 74 e1 85 bc
       0.059575517 0.07173813 -0.042224698 -0.016342856
000150 b3 80 3b 3d 40 d2 b8 bc 62 44 9d 3b 72 ec 36 3d
       0.045777034 -0.022561193 0.0047994116 0.044659086
000160 08 3c ce 3d 86 bd 77 3e ed 74 cc 3c 8c 7c 77 bd
       0.10070044 0.24193391 0.024958098 -0.06042151
000170 4a 09 ec bd 56 68 b4 bc fb 94 69 bd 08 ce 07 3d
       -0.11525209 -0.022022408 -0.057026844 0.03315547
000180 54 a6 4b b6 22 df 89 bd 78 a3 14 bd 8c 7c d6 bc
       -3.0346173e-06 -0.06732012 -0.03628871 -0.026182435
000190 17 0a cd bd cc f9 b3 3d 42 b2 43 3d 41 4c 60 3d
       -0.1001169 0.08787879 0.04777742 0.05476022
0001a0 10 36 2c 3d 0e 29 8a bd a5 b5 36 bd 66 4a 3d bd
       0.042043746 -0.06746112 -0.044606823 -0.04621353
0001b0 38 fd 69 bd fb 37 2b 3e 9a eb a8 3c 2e e3 b6 bb
       -0.057126254 0.16720574 0.020620156 -0.005581281
0001c0 8b 67 ca 3c d7 d1 b6 bd a9 55 c9 3c a0 68 6c bd
       0.024707576 -0.089267425 0.024576979 -0.057716966
0001d0 af cc 58 3c e9 f8 17 3e 93 35 27 bd d2 e9 a5 3d
       0.013232394 0.14841045 -0.040822577 0.08101238
0001e0 99 51 7e bd cd bc 95 bc c5 a7 49 bd 7c 10 f5 bd
       -0.062089536 -0.018278504 -0.049232263 -0.11966035
0001f0 bb d7 2d bc 77 2d 30 be c1 c5 65 3d df a0 af 3c
       -0.010610516 -0.17204843 0.056096796 0.021439014
000200 9b a4 15 3c eb 89 94 bc 70 84 d2 3c ab 01 25 bc
       0.009133483 -0.01813217 0.025697917 -0.010071198
000210 23 93 28 3d a1 e9 2a be 60 5e 2e 3c 29 6a ab 3c
       0.041155946 -0.16690685 0.010642618 0.020924645
000220 19 c9 78 3d d5 66 40 3d aa 26 5d 3c 87 2f 3f bc
       0.060738657 0.04697307 0.013497988 -0.011669046
000230 07 9f a3 3c 0d 2a 0b be 5e 7b a6 bd 4d 29 2f bd
       0.019973291 -0.1359026 -0.08128999 -0.042763997
000240 51 90 27 bd 3d 89 1b be e8 ae 18 3d 99 13 7c bc
       -0.040909115 -0.15189071 0.03727618 -0.015385532
000250 81 e4 08 be 9b e6 fe 3b 2c 66 0a bd b1 29 34 bc
       -0.13368417 0.007778955 -0.033788845 -0.010996268
000260 b1 f9 80 bd 2e 31 fb 3c 2e 61 44 3d ca a6 b1 bd
       -0.06297625 0.0306631 0.04794424 -0.086743906
000270 09 de 35 3d e6 8c 99 3c 98 ed 60 3d 67 7b 9b bc
       0.044401202 0.018743943 0.054914087 -0.018979741
000280 fa 41 17 3d a9 23 36 3d dc b9 15 3d d3 13 ba bc
       0.036928155 0.044467602 0.036554202 -0.022714531
000290 9c 9a bc bd b3 5f cc bd ff c3 87 bd a1 4a c6 3d
       -0.09209177 -0.09979191 -0.0662918 0.09682203
0002a0 97 7e 9a bc af 41 24 3e 2b ae 57 bd 2d 76 d2 3d
       -0.01885919 0.16040681 -0.052656334 0.102764465
0002b0 94 52 8b bd e7 92 60 3c 82 47 20 3c 7b 22 27 3e
       -0.0680286 0.013706899 0.009782674 0.16321747
0002c0 10 07 2e bd 6e b8 41 3e 1b ca a7 bd a4 74 2d 3d
       -0.042487204 0.1891801 -0.081928454 0.042347565
0002d0 62 4e 95 3d b4 53 5f bd 6f 2a 59 3c f6 83 0b 3e
       0.07290341 -0.054523185 0.013254746 0.13624558
0002e0 b5 8d f4 3b f2 cc e2 3d 1e 0d 20 bd 46 e2 ed bb
       0.007463182 0.110742465 -0.03907501 -0.00725964
0002f0 72 f9 16 bd 41 1a 3b bd 1a 73 89 3d 53 9f 0a 3e
       -0.036858983 -0.045679335 0.06711407 0.1353734
000300 b5 5f c6 bc 5a 88 10 bd 88 0a 2a 3d 4f 07 fd 3c
       -0.024215559 -0.035286285 0.04151395 0.030887274
000310 14 37 33 bc 8d 82 1d bd d6 06 60 bd 4c 07 88 3d
       -0.010938425 -0.03845458 -0.05469402 0.06642017
000320 f9 28 4e 3c 0a 0e 93 bd fb 77 16 3d d5 01 72 bd
       0.012583011 -0.07180412 0.036735516 -0.05908378
000330 83 d5 02 be c7 aa 01 3d 19 da 67 bd c1 21 ca 3c
       -0.12776761 0.031657007 -0.05660448 0.024674298
000340 6c 0b c9 3d cb 1c 7e bd 51 61 87 bd 41 de 6a bd
       0.09816632 -0.062039178 -0.066103585 -0.057340864
000350 5a f6 9d bd d5 7a 30 3e db 21 11 3d 6d f6 05 3d
       -0.077130035 0.17234357 0.035432678 0.032705713
000360 c9 b4 26 3d 52 00 73 bc af 08 84 bc a6 0c e9 3d
       0.040699754 -0.014831619 -0.016117422 0.113793656
000370 32 4d 1f be c3 02 9e 3d 62 6b 8f 3c d0 f1 9d 3d
       -0.15556791 0.077153705 0.017507259 0.07712138
000380 09 c9 ea 3c 68 0d 05 3b 41 47 16 3d 29 04 96 3d
       0.028660314 0.002030218 0.036689047 0.07325012
000390 7e c9 8e bd 6d d1 1c b9 e5 34 97 bd ab 27 b0 3d
       -0.06972025 -0.00014955337 -0.07383136 0.08601316
0003a0 4c ef 46 bc e7 e5 9c bc 51 45 04 bd cd 26 7f 3c
       -0.012142014 -0.019152595 -0.032292668 0.015573216
0003b0 09 ab b6 3c 37 6b 77 bd 5b da 8b bd 4f b4 13 bd
       0.022298353 -0.060404982 -0.068287574 -0.036060628
0003c0 7a eb a9 bc c6 f2 4c be 44 fe 41 3d ed a4 7e 3c
       -0.020742167 -0.20014486 0.047361627 0.015542251
0003d0 e3 17 fb 3d 9f 31 b8 bd 4e 45 29 3d 8e f6 f7 3c
       0.122604154 -0.089938395 0.04132586 0.030268934
0003e0 bf 2d 0a be 74 d8 2f be 54 92 90 bc 44 98 71 3c
       -0.13494013 -0.17172414 -0.0176479 0.014745776
0003f0 35 fd a3 3d b9 96 fa 3c b9 4a 06 3d a9 37 bc bd
       0.0800728 0.030589448 0.032786105 -0.09190304

fc1.bias f4 [128]
000000 60 23 0b bd 90 40 0e be 11 73 01 be 84 63 8c be
       -0.033969283 -0.13891816 -0.1264155 -0.27419674
000010 45 b0 0c be 95 a0 eb bc 63 e0 fa 3d 18 ca 23 be
       -0.13739116 -0.028763095 0.122498296 -0.15995061
000020 32 3a 45 3d 4e bf 15 3e d2 a1 8c bd 85 17 d1 3d
       0.048151202 0.14623758 -0.06866802 0.10209564
000030 24 a7 03 bd 7c bc f6 bd 53 53 f8 bd dd da c1 bc
       -0.03214182 -0.12047669 -0.12125268 -0.023663932
000040 f7 a2 47 be f0 e1 13 be c4 fb 31 be 04 f0 b1 bd
       -0.1949576 -0.14441657 -0.17381197 -0.086883575
000050 4f 65 39 be 1c ef 36 3c 35 2b 2f be 5d 25 28 3e
       -0.18105052 0.011165407 -0.17106326 0.16420503
000060 c1 1d b9 bc 09 1b 9e 3d c0 a2 ac be 6e fa e9 b8
       -0.022597196 0.0772 -0.33717918 -0.00011156952
000070 50 b6 c2 3d f4 3a 62 be a9 db 5a be 39 a8 3f be
       0.095074296 -0.22092801 -0.21372856 -0.18716516
000080 03 b4 89 bb 47 28 bf bd d0 1e 8b 3d 03 48 91 bd
       -0.0042023673 -0.09333854 0.067929864 -0.07093813
000090 2d 61 1d 3e 47 05 ca 3d 41 9a c1 bc 47 f7 1f bd
       0.15369101 0.09864288 -0.023633124 -0.03905418
0000a0 f2 15 af 3d 74 72 11 be 04 9d 44 be 28 ba 31 3e
       0.085491076 -0.14203817 -0.19200522 0.17356169
0000b0 d4 68 c0 bd a7 db 38 be 3a 1f 15 3e 22 a2 86 3d
       -0.093949944 -0.1805254 0.14562693 0.06573893
0000c0 02 d1 04 be 84 33 94 bd ab a3 5c bd 66 80 1d 3e
       -0.12970355 -0.07236388 -0.053867023 0.15381011
0000d0 c2 dd 49 be 8e 0a 97 3d 8f 52 db bc cc 70 27 3e
       -0.197135 0.0737506 -0.026772765 0.16351622
0000e0 bc 54 4e 3d bc 0a 2a 3d 21 48 8d 3e b8 ac 89 3c
       0.050373778 0.041514143 0.27594092 0.016805992
0000f0 ec 0f 38 3e a0 95 73 be 13 5f 6f 3c b8 01 ed 3b
       0.17974824 -0.23787546 0.01461007 0.007232871
000100 ee b0 30 be 93 83 e7 3d f9 2e 8c 3e 2c 23 56 be
       -0.17254993 0.11304393 0.27379587 -0.20911855
000110 10 5c 2b bd d3 ce 9e bd f7 66 8f bd fe e0 94 bd
       -0.041835845 -0.07754292 -0.07002061 -0.07269476
000120 76 60 86 3c 9a fb 2e 3d 79 f2 7a be 80 e4 27 be
       0.016403418 0.042720415 -0.24506558 -0.1639576
000130 6a e0 ac 3c 46 3f 8b bc 69 e9 41 be ff 18 23 be
       0.021103103 -0.016997945 -0.18936695 -0.15927504
000140 8c 2d fc bd 5d d7 17 bd ba b0 75 3d 33 d1 10 bb
       -0.12313375 -0.03707062 0.059982993 -0.0022097349
000150 c2 91 7e bd 54 c6 61 3d 2e 72 3e be f5 22 13 be
       -0.062150724 0.05512078 -0.18598244 -0.14368804
000160 b0 a8 17 be 0a 86 93 3c 4c 81 02 3e cc b6 fd bd
       -0.14810443 0.01800825 0.12744635 -0.12388381
000170 0e 23 7b 3d 48 ba 7e bd 2f 71 9c 3e fa 2c 09 be
       0.061312728 -0.06218937 0.30555102 -0.13396063
000180 c2 e8 1c bd 74 13 19 3d f8 0e 76 3e 88 fb c7 3d
       -0.038307913 0.037372068 0.24029148 0.09764773
000190 bc de 16 be 46 2d 4b 3e fc 62 19 3c 10 76 d8 bd
       -0.14733404 0.19841489 0.009361979 -0.10569394
0001a0 d9 2d 23 be 8a c5 2d bd 86 a1 65 bc 56 21 8b bd
       -0.15935458 -0.042424716 -0.014015561 -0.06793468
0001b0 7c 48 02 be df 26 ea 3c cc a5 5c 3e 01 9c 6e 3d
       -0.12722963 0.028582988 0.21547621 0.058254246
0001c0 de d5 2b 3e 91 79 4e 3e a3 90 17 be b3 91 39 be
       0.16780803 0.20163561 -0.14801268 -0.18121986
0001d0 e2 69 eb bd 1a 35 32 3e 6d 28 0c be 74 bf 56 bb
       -0.11494805 0.17403069 -0.13687296 -0.0032767924
0001e0 33 2e 41 bd d5 fe 16 be 02 be 92 3e fe ab 83 bd
       -0.0471632 -0.14745648 0.2866059 -0.06429289
0001f0 b9 a7 b4 3d 83 6d 91 3e 0c 6f e9 bd 94 40 12 3d
       0.08821053 0.28403863 -0.11398134 0.035706118

bn1.weight f4 [128]
000000 ba 39 7c 3e 1f 0a fe 3e 50 0c 03 3f 68 ae a1 3e
       0.24631396 0.49617097 0.5119066 0.31578374
000010 e8 70 fe 3e 38 13 59 3f de 94 3c 3f 40 b4 63 3f
       0.49695516 0.8479495 0.73664653 0.88946915
000020 19 b8 02 3f 48 e6 4d 3f 0a 0d e8 3e f2 d9 00 3f
       0.5106216 0.80429506 0.45322448 0.5033256
000030 49 f6 e3 3e 67 8c a2 3c 7f 18 5f 3e 94 8b 2d 3e
       0.44523838 0.01984234 0.21786688 0.16947776
000040 f2 cc 0b 3f f1 1d 2f 3f b0 90 cc 3e ce 2f 6b 3f
       0.54609597 0.6840506 0.39954138 0.9186982
000050 df 74 62 3f 13 1b 37 3f 0a ec 87 3e 3d c8 b8 3d
       0.8845958 0.71525687 0.2654727 0.090225674
000060 cd 69 58 3f 3e e2 1c 3e f7 9f 29 3e 1f 71 52 3f
       0.8453644 0.1532068 0.16564928 0.8220386
000070 80 1d c6 3e 4f a9 0a 3e aa b0 ad 3e f7 35 f1 3e
       0.38694382 0.13541149 0.33923846 0.47111484
000080 ff df 52 3f 34 5a 73 3f 9f 7b 00 3f fb 23 b1 3e
       0.8237304 0.95059514 0.5018863 0.34597763
000090 2b 3e c6 3e 41 60 88 3e 77 11 86 3e 31 ba 3f 3f
       0.38719305 0.26635936 0.261852 0.7489348
0000a0 07 70 5c 3f 1f 4a 86 3e 20 b8 51 3f d6 96 b2 3e
       0.8610844 0.26228425 0.8192158 0.34880704
0000b0 aa 1f 01 3f e9 f4 c5 3e 62 2c 39 3f b6 5e f0 3e
       0.5043894 0.38663414 0.7233335 0.4694726
0000c0 0f 38 fe 3e 96 91 c3 3e 47 58 47 3f 3f cf 27 3f
       0.49652144 0.3819701 0.77869076 0.6555061
0000d0 d6 43 01 3f 38 56 4d 3f 6e fc 1e 3f 96 44 fc 3e
       0.50494134 0.80209684 0.6210393 0.49271077
0000e0 b6 14 1b 3f cf 37 ff 3e af 13 57 3f bc e3 ba 3e
       0.6057848 0.49847266 0.8401441 0.36501873
0000f0 83 c4 59 3e ed 01 58 3e 32 90 2a 3f 6f 7e 0f 3f
       0.2126637 0.21094485 0.66626275 0.560523
000100 9e d0 2c 3f 47 73 d6 3e 48 22 24 3f e3 97 51 3e
       0.67505825 0.41884825 0.6411481 0.20468096
000110 9a 02 33 3f 51 f9 1b 3e 13 c0 96 3e 9e 0c ed 3e
       0.69925845 0.15231825 0.29443416 0.4629869
000120 e2 e5 e9 3e bc 8f 10 3f ed a1 af 3e fb 24 64 3f
       0.456832 0.5646932 0.34303227 0.8911893
000130 9f e5 6d 3f 74 cd 65 3e 8e f2 58 3f ca 7a 67 3f
       0.929285 0.22441655 0.8474511 0.90421736
000140 ad 85 1a 3f e2 31 34 3f 4e 59 12 3e 63 a9 e1 3e
       0.60360223 0.70388615 0.1429188 0.44074544
000150 b3 a8 4d 3e c1 26 17 3e fe b5 30 3f f1 64 67 3e
       0.20083885 0.14760877 0.690277 0.225971
000160 bd 47 89 3e 4b 51 0b 3f 8c d1 a0 3e 7e 79 20 3f
       0.26812544 0.5442092 0.31409872 0.6268538
000170 93 f6 2e 3f c3 c2 d4 3e 06 15 5f 3f 7f dc eb 3e
       0.6834499 0.4155484 0.87141454 0.46066663
000180 82 c4 c1 3e 01 e5 fd 3e 02 71 10 3f d9 d3 20 3f
       0.37845236 0.4958878 0.56422436 0.62823254
000190 8c 7a d8 3e 98 dc 5d 3f 94 74 46 3f 22 15 52 3f
       0.42280996 0.86664724 0.77521634 0.82063496
0001a0 cb 18 36 3f 5d 67 d8 3e a3 87 d7 3e e6 62 64 3e
       0.7113158 0.4226636 0.4209567 0.22303352
0001b0 68 aa c9 3d 34 85 e5 3e b1 c4 67 3f aa d6 9e 3e
       0.098469555 0.44828188 0.905345 0.3102315
0001c0 a2 f5 23 3f fe 24 12 3f 10 60 ca 3e 8c 6e 73 3e
       0.6404668 0.57087696 0.39526415 0.23772639
0001d0 99 e9 39 3f 36 0c 6b 3e 9a a2 74 3f 63 12 69 3e
       0.72622067 0.22953877 0.9556061 0.2276092
0001e0 1e a5 08 3f 38 9a e2 3e d1 28 50 3f 0d 0d b1 3d
       0.5337695 0.44258285 0.8131228 0.08645067
0001f0 56 bf c9 3e b5 30 fa 3e c9 b4 15 3f 39 6b 71 3f
       0.3940379 0.48865286 0.5847898 0.94304234

bn1.bias f4 [128]
000000 6f 85 79 3e 8c fd a3 3d 35 9b b1 bd 33 5a ed 3d
       0.24367307 0.080073446 -0.086721815 0.1158947
000010 50 f9 2a 3c 0f fc 0b 3e c1 8c 25 3e 4a e9 2b 3e
       0.010435417 0.13670371 0.16166975 0.16788211
000020 9a 9d ea 3c c7 5f 22 bd bf 69 f9 3d e4 2e d2 3d
       0.028639603 -0.03964212 0.121783726 0.1026285
000030 bb 79 d6 bd c1 e4 57 3e 77 98 1d 3d 75 79 c6 bd
       -0.10472437 0.21083356 0.03847548 -0.09691135
000040 94 26 82 bc fb 4b c6 bd 16 1e 4b 3d e1 05 af bd
       -0.015887536 -0.09682461 0.04958924 -0.08546043
000050 4a 08 ca 3d ec b1 03 3e 1b 41 e7 bd e4 0e 62 be
       0.09864862 0.1286084 -0.11291715 -0.22075993
000060 83 82 f1 3d 28 64 1f 3e b0 ed 5b be 28 2f 70 3d
       0.11792471 0.1556555 -0.2147739 0.05863872
000070 ff 22 e5 3d 7e d0 67 3e 17 48 5d 3e d0 a1 df 3c
       0.111883156 0.22638127 0.21609531 0.027298838
000080 62 25 54 bd 31 e8 be bd 95 3b bd 3d be df ec 3d
       -0.051793464 -0.09321631 0.0923988 0.11566113
000090 1a 70 90 3c a7 75 bd 3d 38 37 db bc 0c 89 ca bd
       0.01763158 0.09250956 -0.026759729 -0.09889421
0000a0 94 54 04 3e d7 fd db 3d f2 77 c8 bb 8a 95 fe 3c
       0.12922889 0.107417755 -0.006117814 0.031077165
0000b0 b4 65 02 3e 83 8b 26 bd 41 30 ec bb 85 f9 40 bd
       0.12734109 -0.040660392 -0.0072079008 -0.04711296
0000c0 77 0d c7 3d a2 c8 00 bd 2c 69 4a bc de 00 02 3e
       0.09719365 -0.03144134 -0.0123541765 0.12695643
0000d0 32 c6 03 3e c9 e4 44 3e 76 55 0f bc 99 76 da 3d
       0.12868574 0.192279 -0.008748403 0.10667152
0000e0 eb 5b 3b bc 43 a7 c2 3c 97 b2 52 bd b8 a0 c5 3d
       -0.011435489 0.023761397 -0.051439848 0.09649795
0000f0 46 69 3d 3d 7c f4 67 3d e0 2e b1 3d 34 67 10 3e
       0.046242975 0.056629643 0.08651519 0.14101869
000100 3f fe 2b bd be 6d 89 bd 15 48 4a be 10 3e 56 3d
       -0.041990515 -0.06710385 -0.1975406 0.05230528
000110 8e 13 d8 bd 4f b0 8d 3d 34 10 c1 3d 12 6c 05 be
       -0.10550605 0.06918394 0.094269186 -0.13029507
000120 5d 0f a6 ba 78 13 48 3d 8a 7e 20 bd f0 f6 f2 3c
       -0.0012669374 0.04884669 -0.039183177 0.029658765
000130 0c 06 60 3d ea 49 14 3d 0d 15 0c bd e9 a9 60 bc
       0.054693267 0.036203302 -0.034199763 -0.013712385
000140 9f e6 83 3d 14 f3 c9 3b d9 34 79 be d9 58 3e 3e
       0.06440472 0.0061630104 -0.24336566 0.1858858
000150 03 13 d6 3d cb 46 e1 3d 34 e5 10 3e ec dd fc 3d
       0.10452845 0.10999831 0.14149934 0.12347016
000160 15 9f 88 ba a0 f5 14 3e 2b 5b f0 bd 4b 8d cc bd
       -0.0010423387 0.14546824 -0.11736139 -0.09987887
000170 61 7d 73 be e8 9e c0 3d 03 ba 76 bd 96 56 89 3d
       -0.23778297 0.09405309 -0.06023599 0.06705968
000180 67 e2 85 3c 3f 88 88 3d 77 c0 12 3d 3c 9e 0d 3d
       0.016343309 0.06666612 0.03582808 0.034574732
000190 c8 3c 19 be 4b fc 96 bc d9 03 24 be 31 43 4c 3d
       -0.14964592 -0.01843085 -0.16017093 0.049868766
0001a0 4b 2d 03 3d 4f 65 02 3e 01 a6 b4 bb 24 fe be bc
       0.032025617 0.12733959 -0.0055129533 -0.023314543
0001b0 ca 60 61 be 5f a3 46 bd bd c8 53 3b d3 80 88 3d
       -0.22009578 -0.048495647 0.0032315694 0.06665196
0001c0 59 79 8a bc e0 23 cf 3d bc 56 2a 3e 6a 1a 04 3d
       -0.016903566 0.101142645 0.16634649 0.032251753
0001d0 da 0a 37 bd a5 7e fb bd 79 2f 16 3e 16 3d 1f be
       -0.044688083 -0.12280015 0.14666547 -0.15550646
0001e0 31 76 46 3d f0 57 b9 bc 74 e5 60 ba c8 1d 35 be
       0.04845256 -0.02262494 -0.0008579113 -0.17687142
0001f0 e1 63 fb 3d a4 2b 00 bc d2 92 ed 3d 06 46 44 3d
       0.1227491 -0.007822905 0.116002694 0.047918342

bn1.running_mean f4 [128]
000000 48 5b 00 3b 78 db c6 3f e3 fe 94 3f 72 23 db 3d
       0.0019585658 1.5535727 1.1640285 0.1070012
000010 07 3e 81 3f c0 cc 7f 3d 73 21 a3 3f 47 75 25 3f
       1.0097054 0.062451124 1.2744583 0.64632076
000020 98 81 0e 3f c9 0b 3c 3f 99 7d 1a 40 d5 85 d5 3d
       0.55666494 0.7345548 2.4139159 0.10425917
000030 6c 73 d9 3f 35 5f fb 3d 53 94 35 3f 9b db a8 3a
       1.6988349 0.12274019 0.7092945 0.001288283
000040 52 13 3f 3f cc ec 18 40 8a 41 99 3e 8f c8 b9 3f
       0.74638855 2.389453 0.29932815 1.4514331
000050 6a a8 9e 3f d0 1c 85 3f 0d d6 c5 3f 68 6a 1b 40
       1.2395146 1.0399418 1.5455948 2.4283695
000060 f8 eb 2c 3e e5 d4 38 3f b4 ae ba 3e 6e 4d 86 3e
       0.1688689 0.7219985 0.36461413 0.2623095
000070 95 ad b5 3e e6 54 95 3e 77 30 1f 3f 0e 58 1b 3f
       0.35483995 0.29166335 0.62183326 0.60681236
000080 15 bd 0d 3f 5a 25 14 3f f1 17 a6 3e 33 9b ae 3e
       0.5536664 0.57869494 0.3244014 0.34102783
000090 f4 06 16 40 9a 86 55 3e 21 91 5f 3e 6b 8c e3 3f
       2.3441744 0.20852128 0.21832706 1.7777227
0000a0 64 21 4c 3e 48 c2 e3 3d 0f 8f 91 3f e0 ef 93 3f
       0.19934613 0.111210406 1.1371783 1.1557579
0000b0 5e ae 4e 3f 04 08 85 3e 28 50 08 3f 84 be de 3e
       0.80734813 0.25982678 0.5324731 0.43504727
0000c0 5f d5 91 3f 69 d6 77 3e 28 3e 5b 3f e7 c3 31 3f
       1.1393241 0.24202885 0.8564172 0.6943955
0000d0 dc 24 b4 3f e5 77 29 3f 87 88 b7 3f 84 7e 42 40
       1.4073749 0.6619857 1.433854 3.038972
0000e0 20 0c 6d 3f fe cd ec 3e 53 d3 28 40 af 06 44 3e
       0.92596626 0.4625091 2.6378982 0.19143175
0000f0 86 ce 81 3f 84 86 b6 3f 40 da cb 3f 35 ec 8f 3d
       1.0141151 1.4259801 1.592598 0.07027475
000100 de 39 ec 3f 15 0f eb 3d 1e f6 46 40 18 92 fb 3d
       1.845516 0.11477486 3.1087718 0.122837245
000110 96 f8 8d 3f c9 18 08 3e f0 96 ae 3f 55 26 c9 3f
       1.1091487 0.13290705 1.3639812 1.5714823
000120 99 33 54 3f 02 be 6a 3e 74 eb b0 3f b0 53 dc 3f
       0.8289123 0.22924045 1.3821855 1.7213039
000130 77 7c 25 3f ba e1 42 3f df 46 2b 3f bc d9 41 3f
       0.64643043 0.7612568 0.66905016 0.7572286
000140 eb 63 5e 3f fd 51 d0 3e 99 e9 21 3f b5 31 52 3d
       0.8687121 0.40687552 0.63247067 0.051316936
000150 d2 c0 bd 3f 87 45 eb 3e 5f 0d 80 3f 08 6d ef 3f
       1.4824469 0.45951483 1.000408 1.8705149
000160 f0 d6 46 3f d7 b1 f8 3f d4 ae 8f 3e aa ae 11 40
       0.7767172 1.9429272 0.2806307 2.2762856
000170 92 a7 58 3f 4f 7b 4d 3f 5a 00 f2 3f 5f 65 80 3f
       0.8463069 0.8026628 1.8906357 1.0030936
000180 32 a4 6a 3e fa e3 bc 3e 1e cd 4e 40 dc ac c7 3f
       0.22914198 0.36892682 3.2312694 1.5599627
000190 04 00 00 00 4e ea b9 3f fc 9d 6d 3f f2 ec 1c 3f
       6e-45 1.4524629 0.9281919 0.6129905
0001a0 78 aa d6 3f d0 d5 1c 3e 70 46 e4 3f 34 72 4f 3e
       1.6770773 0.15315938 1.7833996 0.20258409
0001b0 a2 e5 5f 40 ba 73 1e 3f 63 6d 84 40 5d 8b 48 3d
       3.4983907 0.61895335 4.138353 0.048961032
0001c0 45 7e 35 40 8e bb fb 3f 4a f1 8f 3c 49 f8 25 3f
       2.8358319 1.9666612 0.01757111 0.6483198
0001d0 a3 77 2b 3f 68 3f 35 40 63 27 66 3e a6 61 17 3f
       0.66979426 2.831995 0.22475962 0.59133375
0001e0 aa ae 33 3f c7 b2 cf 3f 52 e3 d1 3f 5f 36 4a 40
       0.7018839 1.6226434 1.6397498 3.1595685
0001f0 9c f8 26 3f a5 4f 43 40 5f 60 1b 3f 38 9b 45 3f
       0.652231 3.051736 0.60693926 0.7718997

bn1.running_var f4 [128]
000000 6a f9 32 3a 49 44 17 40 4a fc 6b 40 15 b0 17 3e
       0.0006827327 2.3635428 3.6872735 0.14813264
000010 7b 27 6e 3f 25 96 c3 3d 02 6e e8 3f 77 1e d6 3f
       0.9302899 0.09550122 1.8158572 1.6728047
000020 bb e5 20 3f 53 fd ff 3f 22 33 8a 40 cc ed c1 3d
       0.6285054 1.9999183 4.318742 0.09469184
000030 1f 2d 4c 40 89 6e 50 3e 2f 8d ae 3f 96 df d2 39
       3.190254 0.20354666 1.3636836 0.00040220906
000040 6b a3 70 3f 66 26 d6 40 a4 ee 5f 3f 11 f4 2b 3f
       0.93999356 6.6921873 0.8747351 0.6716929
000050 42 3f 1f 40 ac dc a0 3f a2 f4 52 40 96 66 84 40
       2.488236 1.2567344 3.2961812 4.1375227
000060 43 95 ac 3e 1e 49 ec 3f 4b 95 96 3e 70 0c 15 3f
       0.33707628 1.8459814 0.29410776 0.58222103
000070 93 f3 b5 3e 51 f7 07 3f d2 c1 68 3f 88 e0 95 3f
       0.35537395 0.5311175 0.90920746 1.1709146
000080 b4 45 cc 3f 3c a5 89 3f 22 d4 e3 3e 77 c0 3e 3e
       1.5958772 1.075355 0.44497782 0.18628107
000090 b6 4b 51 40 fe 1b 6b 3e 8e fc 31 3e 93 4a 0b 40
       3.270246 0.22959897 0.17381498 2.1764266
0000a0 1a c1 6a 3e bf 0a ed 3d 7f 8d fb 3f 2a 6d 28 40
       0.22925225 0.11574315 1.9652556 2.6316628
0000b0 01 85 3d 40 db 34 9b 3e 07 83 84 3f f2 ca 11 3f
       2.961243 0.30313763 1.0352486 0.56950295
0000c0 da 23 14 40 4d 26 84 3e 88 25 49 40 e7 c6 8e 3f
       2.3146882 0.2581047 3.1429157 1.115445
0000d0 17 e2 0c 40 e5 8a 6a 3f fb b5 b4 3f fe 91 e1 40
       2.2012994 0.91618186 1.4118036 7.0490713
0000e0 e5 83 58 3f 0c 7b 49 3f 8a 05 06 40 8e 5d 4d 3e
       0.84576255 0.7870338 2.094088 0.2005522
0000f0 ec 3e f1 3f 8d 9f 1f 40 80 24 4b 40 d5 f6 93 3d
       1.8847327 2.4941132 3.1741028 0.07224814
000100 95 c9 77 40 71 f9 f8 3d 42 80 99 40 2d 29 24 3e
       3.8716786 0.12156952 4.7969065 0.16031332
000110 40 58 c7 3f d0 33 24 3e a9 8f d7 3f 44 a2 82 40
       1.5573807 0.1603539 1.6840717 4.082308
000120 45 f0 67 3f 5a 43 f9 3e 87 f6 71 3f 02 3b 9d 40
       0.90601 0.48684198 0.94516796 4.913453
000130 c0 84 6a 3f 2d 77 d9 3f e7 36 83 3f 06 b1 e6 3e
       0.9160881 1.6989495 1.025113 0.45056933
000140 c5 93 b2 3f b4 9a 4b 3f 6e 3f b1 3f 8b f2 ce 3c
       1.3951346 0.79532933 1.3847482 0.025262138
000150 90 a9 02 40 f9 ce 28 3f e0 57 74 3f c9 33 93 40
       2.0415993 0.65940815 0.95446587 4.6000714
000160 86 99 d4 3f 87 f2 5b 40 d5 ef b0 3e 7c f7 a5 40
       1.6609352 3.4366777 0.34557977 5.1864605
000170 53 03 01 40 24 1e e4 3f dc 8c ed 3f 01 b9 d9 3f
       2.015828 1.7821698 1.8558612 1.7009584
000180 b9 13 8f 3e 08 01 84 3e ca 2d c0 40 f3 94 29 40
       0.27944735 0.25782037 6.0055895 2.6497161
000190 04 00 00 00 46 8d 0d 40 2d d3 bd 3f 06 bd 81 3f
       6e-45 2.2117476 1.4830071 1.013581
0001a0 20 ac 35 40 db ee 2d 3e fe 31 80 40 ec 96 91 3e
       2.8386307 0.16985647 4.0061026 0.28435457
0001b0 87 59 cb 40 b9 e9 3d 3f c1 23 32 41 1b 02 98 3d
       6.3546786 0.7418476 11.133729 0.074222766
0001c0 8f d3 89 40 4e 1a 29 40 16 a4 78 3c 46 43 0d 3f
       4.307075 2.6422305 0.01517584 0.55180776
0001d0 69 f5 cc 3f d2 43 d5 3f 00 65 1f 3f b6 e7 37 3f
       1.6012393 1.6661322 0.6226349 0.7183794
0001e0 57 30 c9 3f 26 7f 58 40 de cd 1d 40 61 57 26 41
       1.5717877 3.3827605 2.4656901 10.396333
0001f0 68 33 5f 3f cc 00 39 40 91 aa 9e 3f ab 33 69 3f
       0.87187815 2.8906736 1.2395803 0.91094464

fc2.weight f4 [128, 128]
000000 59 5f 59 3c 20 e2 c3 3c 6d a4 d5 3c b0 90 a0 3c
       0.013267362 0.023911536 0.02607938 0.019600242
000010 f6 3e d5 bc be 4b 84 3d b7 6d a4 bd d0 8f 67 3d
       -0.026030999 0.06459759 -0.08028739 0.056533635
000020 6c 16 c6 bb 40 4e c4 3c 45 13 47 bd aa 4f 5e 3a
       -0.0060451534 0.023963094 -0.04860236 0.0008480499
000030 e7 94 bb 3c 0c 8b 21 3d ec b2 27 3e 37 33 26 bb
       0.02289815 0.039439246 0.16376847 -0.0025360116
000040 7c c0 9c 3d 7b ff 75 3d d3 cc 47 3d 44 16 8d bd
       0.07653901 0.0600581 0.04877932 -0.068890125
000050 42 41 5e bd 40 c3 e4 bc d6 3a c3 3c a3 dc c5 3d
       -0.054261453 -0.027925134 0.023831766 0.09661224
000060 ff 65 52 3b f4 1a c5 bd c5 20 00 3e 38 76 b5 3c
       0.0032104251 -0.096242815 0.125125 0.022151098
000070 69 23 9d bd 0f 4c 8a bd 9d cc 6e be 91 46 b1 3d
       -0.076727696 -0.06752788 -0.23320241 0.086560376
000080 6a 16 88 3d 44 a0 c3 3c 9d 74 32 3b a2 6d b2 bd
       0.066449 0.023880132 0.0027230151 -0.08712317
000090 14 f7 a0 3d 9c 66 fe 3d bf 33 2d 3e 2d 6e c4 bd
       0.078596264 0.12421915 0.16914271 -0.09591327
0000a0 3d ce 37 3d 8c 50 de 3d 21 90 bf bc 7d 0f 11 bd
       0.04487442 0.10855207 -0.023384156 -0.03541516
0000b0 ea 0e bd bd 92 8e ab 3b 5f 55 fa 3c 39 33 ce bb
       -0.0923136 0.0052355016 0.030558286 -0.0062927273
0000c0 d7 37 fd 3b 0e b9 10 3a 2d da bb 3c bb b9 83 3c
       0.007727604 0.00055207394 0.022931183 0.016079774
0000d0 9e 7c 9e bc 16 f5 f7 bd b8 15 a5 3c 90 77 a1 3c
       -0.019346531 -0.12107293 0.020151958 0.019710332
0000e0 92 d1 16 3d b1 47 37 3d fe 4e b6 3d 43 0e 4c be
       0.036820956 0.044746105 0.08901785 -0.19927315
0000f0 99 ed 72 3e 8f 6c 18 bc 88 d3 da bc ce 07 9e bc
       0.23723449 -0.009303226 -0.026712194 -0.019290831
000100 19 ed a9 bd b2 1b 12 3d 9c 96 80 bc c7 bf 9a 3d
       -0.08297176 0.035670944 -0.015696816 0.0755611
000110 02 17 36 3d d4 08 f3 3d c7 75 c1 3d c6 39 bf bd
       0.044455536 0.11866918 0.09446292 -0.09337191
000120 e5 14 ce bd d4 55 08 3d 30 3f dc bd 8e 09 ed 3d
       -0.10062579 0.033284977 -0.107542396 0.11574088
000130 e6 f6 01 be 9f 60 6c 3d 77 98 be bc 26 4d 9e 3d
       -0.1269184 0.057709333 -0.02326606 0.07729559
000140 e8 0e 95 3c 38 98 bb 3b 1a 23 3c bd 70 2b 8b 3c
       0.018195584 0.005724933 -0.045931913 0.016988486
000150 6d 82 a0 bd 93 53 4c 3c 8d 13 52 bd 3e 26 b8 bb
       -0.07837377 0.0124710975 -0.051288176 -0.005619793
000160 60 ba bd 3d 05 64 0b 3d a5 90 c2 bc 80 34 75 bc
       0.09264064 0.034030933 -0.023750613 -0.01496613
000170 5e 8d 8a 3d f7 cf 88 bc c7 c4 b4 3b 32 d9 95 bd
       0.06765245 -0.016700728 0.0055166217 -0.07316817
000180 69 e6 8a 3d 67 d5 0d be 66 41 ab bd f3 74 34 bd
       0.067822285 -0.13850938 -0.08362083 -0.044056844
000190 44 e8 09 3e c2 34 3c bc d1 44 f1 3d 96 db 85 3d
       0.13467509 -0.011487188 0.11780704 0.06536023
0001a0 b2 f8 f2 3b f8 82 b3 3d 52 33 aa bc ad f2 55 3d
       0.0074149007 0.08765215 -0.020776425 0.052233387
0001b0 b8 74 09 bc 4d ef 29 3c 1c ce 55 bd 76 94 5b 3d
       -0.008389644 0.010371995 -0.052198514 0.05360838
0001c0 46 6d 3f 3d a1 9c 30 3c 8f 17 0b bd 5f f9 44 3c
       0.04673507 0.010779531 -0.033958014 0.012022345
0001d0 78 99 24 bd 6d 98 ed bc 02 24 7f bd 81 c9 b1 3d
       -0.04018542 -0.029003346 -0.0622902 0.08681012
0001e0 f9 05 dd bd 29 72 14 bd fb 47 06 bd bb f3 ac 3d
       -0.10792155 -0.036241684 -0.03278349 0.084449254
0001f0 24 b0 85 bc 0a ec 8e bd e6 09 81 bc 3d 0e 0d bc
       -0.016319342 -0.06978615 -0.01575179 -0.008609352
000200 7c 47 36 bb 24 75 23 bc 10 91 0e 3b f8 1c 77 bd
       -0.0027813604 -0.009976659 0.0021753944 -0.06033036
000210 ef 63 6b 3d 83 06 7e bd 20 a7 e4 bb 07 72 c2 bd
       0.05746835 -0.06201793 -0.0069779307 -0.09494405
000220 17 7e b6 3d 25 69 25 bd 19 9e 6e bd 8a a2 7c bc
       0.089107685 -0.040383477 -0.058256242 -0.015419612
000230 aa 6a b3 bc 2b a1 f3 bd 74 77 43 bd 32 bd 8b bc
       -0.021901447 -0.11895975 -0.04772134 -0.017057989
000240 75 b5 54 3c 07 be 92 bc 16 ac 87 bb 15 3b f4 bd
       0.012982716 -0.017912878 -0.0041403873 -0.119253315
000250 37 1b c6 bc f3 2c 4f 3d 12 a5 b2 bc 1e a1 fe 3d
       -0.024182899 0.050579976 -0.021807227 0.124330744
000260 c1 b0 47 3d 19 10 c7 bd 56 42 40 3d 9c 00 9a 3c
       0.04875255 -0.09719867 0.046938263 0.018799119
000270 74 ea 94 bd 98 de 67 bd bc 81 b9 bd 85 76 9b 3c
       -0.07271281 -0.056608766 -0.09057948 0.018977413
000280 ab 70 a0 bc d3 21 81 ba f9 52 79 bd 3a 77 6c 3d
       -0.019584974 -0.0009851999 -0.060870145 0.05773089
000290 4d e9 67 bd f4 db 10 3d 35 ab 09 3a 95 0f b2 bc
       -0.056618977 0.035366014 0.0005251647 -0.021735946
0002a0 35 76 2f bd 82 14 0b 3e bf c6 fa bb 29 82 59 3d
       -0.04283734 0.13582042 -0.007653087 0.053102646
0002b0 11 cd e8 bc 55 14 8a bd 6c df b3 bc 73 89 24 bd
       -0.028418096 -0.06742159 -0.021957122 -0.040170144
0002c0 35 b2 84 3d 63 2f 36 bd 78 a4 d0 3a 3a 0f 86 3d
       0.06479303 -0.044478785 0.0015918156 0.06545873
0002d0 d4 a2 ca 3c bf bc 59 bd ea 3e 51 3a 78 1a a7 3d
       0.024735846 -0.053158518 0.0007982092 0.081593454
0002e0 bb 85 97 bd 4b 4f 85 bc 79 b0 ce 3b 8b 16 ea 3d
       -0.07398554 -0.016273161 0.0063076583 0.11430081
0002f0 5b 37 76 bd ff 37 25 be 4e 09 72 3d 33 5d 8d bd
       -0.060111385 -0.16134642 0.059090905 -0.06902542
000300 7f 8b 81 bc 72 d1 b7 bc 2f a4 b4 3d c8 0d 8a 3b
       -0.015813587 -0.022438738 0.08820378 0.0042130686
000310 51 f9 05 3e 3c 31 4f 3c 86 4b 41 3d cd 04 9f 3d
       0.13083388 0.012646016 0.047191165 0.077645876
000320 ab 2d 93 3d 2b 66 d7 bd 89 58 cc 3c 67 f6 e0 3d
       0.07186445 -0.10517534 0.02494456 0.109844975
000330 0f 60 bc bd 0e 00 7b bd 06 ee 00 bb e4 e7 2b bd
       -0.09198009 -0.06127935 -0.0019673123 -0.041969195
000340 8f 32 13 3d 64 62 63 3c 7a 34 52 bb 9e 22 93 3d
       0.03593689 0.013878439 -0.0032074735 0.07184337
000350 2b 6b d6 3d a8 e3 94 3d da e8 c7 bd 09 df b6 bd
       0.104696594 0.072699845 -0.0976121 -0.08929259
000360 73 f3 26 be d9 52 d0 3b d9 ba 9c bc 46 7c a6 3d
       -0.16303806 0.0063575325 -0.019132065 0.08129172
000370 b9 05 c5 3d fe 85 61 bd 23 f9 62 bd ad f6 0c be
       0.09620232 -0.055059426 -0.055413377 -0.13765974
000380 4c c4 bf bd ca 9d 2b bd a3 e9 fd 3c 78 a8 a3 bc
       -0.093636125 -0.041898526 0.030995196 -0.019977793
000390 c4 2b b7 3c a2 e7 ba bc af 8d e6 3d da 62 8d bd
       0.022359736 -0.02281553 0.11257493 -0.0690362
0003a0 c9 3a a4 bd c7 60 a2 bd c4 8c 29 bd fa b3 81 3d
       -0.08019025 -0.07928615 -0.04139401 0.06333156
0003b0 75 05 d2 3d c1 8f 18 be a4 49 91 bc 47 5b ca bd
       0.10254947 -0.14898588 -0.01773531 -0.09880691
0003c0 e1 40 d1 3c 1d 6d 93 bc 86 f6 7b bd 00 f3 0c be
       0.025543632 -0.017996365 -0.0615144 -0.13764572
0003d0 99 0d d8 3c b3 d8 ca 3c 0d 0c 33 bd 28 70 25 3d
       0.026373671 0.024761533 -0.043712664 0.040390164
0003e0 7c 67 23 3d cf f5 43 3b 7c fd ab bd 96 37 a6 3d
       0.039893612 0.0029901152 -0.08397958 0.08116071
0003f0 8c c3 4f bd e3 c2 81 3b ad 38 04 bd b4 89 a7 3c
       -0.050723597 0.00396 -0.032280613 0.020451404

fc2.bias f4 [128]
000000 9f 02 1e 3b ee 4c 74 bd d7 94 a5 bd 3b db 1d bd
       0.002411045 -0.05964368 -0.080850296 -0.038539153
000010 1a d8 91 3c 81 38 1f be 5b 93 a0 bd 6a e3 c7 bd
       0.01780324 -0.15548898 -0.07840606 -0.09760173
000020 9b bb b9 bd 7d de 0f be 98 5d 52 bd 83 0b 93 bd
       -0.09068986 -0.14049716 -0.05135879 -0.0717993
000030 2e 35 40 bd e2 ab 96 bd 54 16 84 bd 6d bb 11 be
       -0.046925716 -0.07357003 -0.06449571 -0.14231654
000040 9f 1c d5 bd f0 fc 5c bd 24 50 bc bd a5 7a 77 bb
       -0.1040585 -0.053952157 -0.09194973 -0.003776231
000050 64 35 1c be 9e b8 d6 bd b3 3f 02 be c4 2e 02 3c
       -0.15254742 -0.10484432 -0.12719612 0.00794572
000060 be 15 83 3c de ce 9e bd 09 4a 7a bc 80 9c 69 bd
       0.016001578 -0.077543005 -0.01527644 -0.057034016
000070 67 9f 0c be b3 bf 91 bd 91 24 71 bd 15 06 b2 3c
       -0.13732682 -0.07116642 -0.058872763 0.021731416
000080 97 fc 1b bd ab ec c1 3c 29 3a d4 bc 4d c9 fd bd
       -0.038082685 0.023672422 -0.02590664 -0.12391911
000090 1f ae 9f bd e1 05 93 bd 53 fa 93 bc 55 b7 48 bd
       -0.07796883 -0.07178856 -0.0180637 -0.049002964
0000a0 92 b9 b2 bd d8 4c 9b bd 94 0c d9 bc d3 27 72 bd
       -0.08726801 -0.07583016 -0.026495256 -0.05912001
0000b0 84 0d 8d bd 43 80 0b be d4 c5 ad bd 29 f5 93 3c
       -0.068873435 -0.13623147 -0.08484998 0.018061237
0000c0 d0 3d 8d bd 38 34 91 bd 3b 7c 94 bd 9a e5 f5 bd
       -0.068965554 -0.07090038 -0.072502576 -0.12006684
0000d0 80 ea 84 bd 4b 21 44 bd 76 af b2 bd 8c 38 8a bd
       -0.0649004 -0.047883313 -0.08724873 -0.06749067
0000e0 96 b4 46 bd aa 18 da bd a5 3a bd bd 96 1e 22 be
       -0.048512064 -0.106492355 -0.09239701 -0.1583198
0000f0 28 ae 84 bd 23 02 ba bd 57 a4 b1 bd 8d 20 04 bd
       -0.0647853 -0.09082439 -0.086739235 -0.032257605
000100 6f 2a 31 bd 94 24 12 be 06 55 0f be 4c e9 eb bd
       -0.04325336 -0.14271766 -0.13997278 -0.11519107
000110 0e 75 03 be 13 94 23 3d 1c b6 27 be f3 2a b2 bc
       -0.12837622 0.039936136 -0.16378063 -0.021748995
000120 d1 76 b6 3d 55 10 7b bd d9 67 3a 3d 3c cf 55 bc
       0.08909381 -0.061294872 0.045509193 -0.013049897
000130 25 75 d0 bd d1 4f c9 bd 8e be 85 3d 8d 43 95 bd
       -0.101785935 -0.09829677 0.06530486 -0.07288275
000140 d4 cf 7f 3c 8e f1 7a bd 62 a0 b5 bd 7b 4d ca bc
       0.015613515 -0.06126552 -0.08868481 -0.024695149
000150 41 2a 3f be 8e 17 27 be a7 5f a8 bd 09 44 86 3d
       -0.18668462 -0.16317579 -0.08221369 0.065559454
000160 a2 fa e7 bd 60 be d6 bb 7e f3 ac bd 61 8a 53 bd
       -0.11327101 -0.006553456 -0.0844488 -0.05164564
000170 f1 ea 08 be 5a 33 91 bd 7e 9c fb bd 4f e8 7d bc
       -0.13370873 -0.07089873 -0.12285708 -0.015497281
000180 46 e6 e6 bd 73 37 ea bd 18 40 7b 3d 8a 22 ff bd
       -0.1127439 -0.11436357 0.06134042 -0.1245776
000190 4b 49 ae bc ee ac 1d bd 41 14 a9 3c f4 a3 f6 bd
       -0.021275183 -0.038494997 0.02063954 -0.1204299
0001a0 a3 e1 8c bc f2 db ab bd af c0 6b bd 2b 17 9d bd
       -0.017197436 -0.083915606 -0.057556804 -0.076704346
0001b0 df af a1 3c 66 51 0d bd 74 0b 06 be fa f4 09 bd
       0.019737182 -0.034501456 -0.13090307 -0.033680893
0001c0 ca 31 c2 bd 63 b4 ac bd 61 5e 0c be f3 a3 81 3c
       -0.09482153 -0.084328435 -0.13707878 0.015825247
0001d0 dd 60 19 be 8c 2d 01 be 2e cf 05 be 26 d0 c0 bd
       -0.14978357 -0.12615031 -0.13067314 -0.09414701
0001e0 8d b7 b0 bc 15 e3 ce bd a6 77 98 bd 72 e0 f5 bd
       -0.021571899 -0.10101906 -0.07444696 -0.120057
0001f0 99 66 01 be 62 db 99 bc 20 d9 f3 bd d7 12 05 bd
       -0.12636794 -0.018781368 -0.11906648 -0.03248867

bn2.weight f4 [128]
000000 b7 4e bb 3f 11 b7 21 3f dd 50 90 3f 51 10 76 3f
       1.4633397 0.6316996 1.1274678 0.96118647
000010 c1 ae 97 3f 0f 49 8b 3f 47 d5 41 3f 8e 15 69 3f
       1.1850206 1.0881671 0.7571606 0.91048515
000020 10 42 75 3f 8a fe 1f 3f a7 84 05 bf 5e a5 59 3f
       0.9580393 0.6249777 -0.52155536 0.85017955
000030 f7 11 95 3f b6 87 67 3f 90 07 4c 3f b5 06 87 3f
       1.1646107 0.90441453 0.7969904 1.0548922
000040 b4 00 8b 3f 57 d1 45 3f b1 bb a3 3f 63 e9 34 3f
       1.085959 0.7727255 1.2791654 0.7066862
000050 67 bb 1b 3f 68 49 45 3f de 78 74 3f 04 9e 9a 3f
       0.6083283 0.77065134 0.9549693 1.2079473
000060 fd 96 0b 3f a9 a7 94 3f c2 24 60 3f c1 dd 1f 3f
       0.54527265 1.1613666 0.8755609 0.62447745
000070 34 2d 5d 3f bd 0f 28 3f 62 21 16 3f 56 36 da 3e
       0.863971 0.65649015 0.5864469 0.4261958
000080 0b 18 a4 3f bc 75 b7 3f db 28 9b 3f 10 4c 9d 3f
       1.2819837 1.4332805 1.2121843 1.2288837
000090 20 cb a0 3f e1 fa 76 3f 1e a0 42 3f 6d 5a 44 3f
       1.2561989 0.9647656 0.7602557 0.7670048
0000a0 e5 25 17 3f cd 3f 0b 3f 68 60 0e 3f bb 70 fb 3e
       0.590422 0.5439423 0.55615854 0.49109444
0000b0 1b 55 a0 3f 8a 0a 45 3f 08 dd 91 3f ff bc 68 3f
       1.2525972 0.76969206 1.1395578 0.90913385
0000c0 ef 4d 86 3f ad 73 38 3f bd d6 e5 3f 8c f4 b3 3f
       1.0492533 0.7205151 1.7956158 1.4059005
0000d0 3e 17 01 3f 1b 3b 34 3f 8c 75 11 3f 8b e9 96 3f
       0.5042609 0.7040269 0.5681999 1.1790022
0000e0 e4 22 12 3f 1d bb f7 3e 1d 48 83 3f e7 31 97 3f
       0.5708449 0.48384944 1.0256382 1.1812104
0000f0 01 ad 62 3f 73 ec 92 3f a2 58 21 3f a2 eb 3a 3f
       0.88545233 1.1478409 0.6302587 0.730158
000100 63 31 97 3f 71 7f 61 3f fb 97 43 3f ae 3a 3b 3f
       1.1811947 0.88085085 0.7640378 0.73136413
000110 5a 1e 98 3f a8 f5 a2 3f 5e ac 25 3f d1 a1 bf 3f
       1.1884263 1.2731218 0.64716136 1.4971257
000120 81 d5 6b 3f ed 3d 57 3f 34 d2 58 3f c1 b4 99 3f
       0.92122656 0.84078866 0.84695745 1.2008287
000130 c4 b5 94 3f 78 1f 93 3f 71 92 b8 3f c1 4f 33 3f
       1.161797 1.1493979 1.441969 0.7004357
000140 fd a6 36 3f 2b b8 93 3f 25 49 9a 3f 4d 3c 7e 3f
       0.71348554 1.1540579 1.2053572 0.9931076
000150 10 92 81 3f 3f 5e 62 3f 45 39 a7 3f d7 43 a6 3f
       1.01227 0.8842506 1.3064352 1.2989453
000160 2b 30 92 3f 10 3e 86 3f 36 cb 80 3f a2 b7 84 3f
       1.142095 1.048769 1.0062015 1.036854
000170 5f 2d 39 3f 66 98 60 3f 41 e2 37 3f 3a b5 47 3f
       0.72334856 0.8773254 0.7182961 0.78010905
000180 b8 84 83 3f b7 5b 85 3f c1 0c 61 3f 7f 10 5d 3f
       1.0274878 1.0418614 0.87910086 0.86353296
000190 b8 cf 2d 3f 0a af 9d 3f 5d 53 92 3f 90 7d 48 3f
       0.6789508 1.2319043 1.143169 0.78316593
0001a0 92 51 a0 3f 86 f0 91 3f 3b 6e 7a 3f ac 12 56 3f
       1.2524893 1.1401527 0.9782445 0.8362224
0001b0 59 1f ac 3f 2a f9 87 3f 46 f7 6c 3f 78 37 1f 3f
       1.3447067 1.0622914 0.9256481 0.62194014
0001c0 1b 56 3d 3f ec 93 d0 3e 14 1b 33 3f c1 72 00 3f
       0.7395951 0.40737855 0.6996319 0.501751
0001d0 0f 84 95 3f 01 8b 1a 3f 2e a9 90 3f f5 84 51 3f
       1.1680926 0.60368353 1.130163 0.818435
0001e0 fa 9d 8d 3f 3d e4 2f 3f 46 e4 23 3f 04 e9 34 3f
       1.1063836 0.6870764 0.6402019 0.70668054
0001f0 3e b5 4a 3f bf 01 4c 3f 3e bf 17 3f 17 5b 3d 3f
       0.79182804 0.79690164 0.5927619 0.7396712

bn2.bias f4 [128]
000000 5a 45 8a 3b c8 ab 54 bd 23 63 6d 3c 9f 95 1e 3d
       0.004219693 -0.051921636 0.014488968 0.03871691
000010 e6 b3 4e 3d 48 37 74 bd 75 21 6d bc cd b4 08 3d
       0.050464533 -0.059623033 -0.014473309 0.03337555
000020 91 99 83 3c 87 6a b6 bc c6 a7 18 bb 69 ed 91 bd
       0.016064437 -0.022267593 -0.002329336 -0.071253605
000030 44 71 b7 bc 89 b5 95 bd 77 84 0c bd eb a3 87 bd
       -0.022392876 -0.07310016 -0.034306016 -0.06623062
000040 da 91 21 3d d5 3a 2c 3d 18 9b b9 bc 2a ca 93 bd
       0.039445736 0.042048294 -0.022656962 -0.07216294
000050 67 07 b6 bc cc 51 73 bc 16 aa e2 3c 03 a7 4b 3b
       -0.022220327 -0.014851045 0.027668994 0.0031074889
000060 b8 22 23 bd fb ed 6d 3d 9f 06 0a 3d 26 75 6e bc
       -0.039828032 0.058088284 0.03369772 -0.014554298
000070 9b 44 30 bd 39 b1 27 3c 6f bc a2 bc 8e 31 81 bd
       -0.043034177 0.010235124 -0.019865243 -0.0630828
000080 56 2a 00 bd 19 5c 2a bd 23 b5 6a bd 9a cf 44 3b
       -0.031290375 -0.041591737 -0.05730165 0.0030030967
000090 36 87 0f bd 84 5d 0c bd a4 4a 0c bd 85 2f 28 3d
       -0.035041057 -0.03426887 -0.03425087 0.041060943
0000a0 77 f5 70 3c 2b 4f a1 3c ed 1b cd 3c 72 cf 80 bd
       0.014706961 0.01969107 0.02503773 -0.06289567
0000b0 ea b9 d4 3c 93 fe 10 3d 98 75 a1 bc 98 9b 9a 3c
       0.025967557 0.03539903 -0.019709393 0.018873021
0000c0 17 93 3c bc 88 e2 3d 3d d6 a4 8b 3d 80 ce ab bc
       -0.011509678 0.046358615 0.06818549 -0.02097249
0000d0 4f d9 63 bd 2c 9b 1a 3d 4f 3e 5b bd d9 70 0d bd
       -0.055627163 0.03774564 -0.05352622 -0.034531448
0000e0 2e 7c 6d 3c eb e2 81 3c c6 71 6d 3c 16 f0 44 bd
       0.014494939 0.015855273 0.014492458 -0.048080526
0000f0 a8 eb e2 bc 0f d5 6d bd 05 d3 85 3b a4 ab 0e bd
       -0.02770026 -0.058064517 0.0040839934 -0.034831658
000100 66 52 cb bc ff c3 05 bd ac 9b 97 3d 56 75 1a 3c
       -0.024819564 -0.03265762 0.07402739 0.009427389
000110 3d 88 40 bd 43 61 00 bd 40 82 25 bc 21 d7 0f bd
       -0.047004927 -0.031342756 -0.010101855 -0.035117272
000120 5e 9e 53 bd aa 20 f7 bc 38 bd 81 3d da 58 43 bd
       -0.051664703 -0.030166943 0.06334919 -0.047692157
000130 15 d0 04 3d 58 41 21 3d ae bd 29 bc 1f dc 7b 3d
       0.032425005 0.039368957 -0.010360165 0.06148922
000140 f4 fc 17 3c f3 85 40 bc b4 03 41 3d bf 29 dd 3c
       0.009276617 -0.011750686 0.047122672 0.026997445
000150 36 1f bf bc a0 f7 1a 3c b4 1e 1d bd c7 70 52 bd
       -0.023330312 0.009458452 -0.03835936 -0.051377084
000160 d0 9e 47 3d 73 91 2b bd fe a5 12 bd 12 84 1a 3d
       0.04873544 -0.041886758 -0.035802834 0.03772361
000170 a9 b1 6f bd 9e 01 85 bc 10 b1 ae 3d db de cc bc
       -0.05851904 -0.016236123 0.08529866 -0.02500861
000180 b9 9c 9e 3c 26 ee 00 bd 8f 94 5c bd 92 33 87 ba
       0.01936184 -0.031477116 -0.053852614 -0.0010315052
000190 81 2f 4a 3d 0b c4 07 3c b6 04 69 bd 22 d9 b5 3d
       0.04936171 0.008286486 -0.05688926 0.088793054
0001a0 b4 97 9f 3c ea 61 38 3d e1 6b 8e 3c c1 30 f0 3c
       0.019481517 0.045015253 0.017385425 0.029320123
0001b0 52 7c 95 bc 7b b1 0e 3d e8 fa d9 bc 8f fa 0a bc
       -0.018247757 0.034837227 -0.0266089 -0.008482589
0001c0 8c 89 b9 3c 80 22 d3 3c 0b f1 29 3d 99 25 eb bc
       0.022648595 0.025773287 0.041489642 -0.028704451
0001d0 19 e5 14 bc 41 62 68 bc 7e f3 93 3d 51 46 1e bc
       -0.009087824 -0.014183582 0.07224177 -0.009660319
0001e0 bb 12 18 3c 0f a3 85 3c 56 7a a2 3c 8d 3e 20 3d
       0.009281809 0.016313104 0.019833725 0.039122153
0001f0 49 ba 19 3d 51 aa 41 bd f9 c0 4f 3c 99 1f a6 3c
       0.03753117 -0.047281567 0.012680286 0.020278739

bn2.running_mean f4 [128]
000000 f9 22 01 3e 63 0d 0b 3c 93 20 9f 3d 3f 24 b2 3d
       0.12610997 0.008487078 0.07769885 0.0869832
000010 48 bd b9 3d e9 f4 b3 3c d4 9a 84 3c 2b 95 81 3d
       0.09069306 0.021967368 0.016187109 0.0632728
000020 53 ff b0 3d fa 55 ac 3b 76 9f c2 39 32 b1 a8 3c
       0.08642449 0.0052592726 0.0003712137 0.020592306
000030 3a 43 1f 3e aa 23 17 3d 20 a9 2b 3d e3 f8 cb 3b
       0.15552989 0.036899246 0.041909337 0.006224738
000040 f0 6b 44 3c e8 f3 17 3e a0 ef af 3d 95 31 8c 3d
       0.011988625 0.14839137 0.08590627 0.068453945
000050 0c b2 9d 3b fc a9 22 3d 04 00 00 00 c5 62 22 3e
       0.0048124846 0.03971289 6e-45 0.1585799
000060 3d eb 07 3d 32 82 df 3d e7 02 09 3d 0e 42 13 3d
       0.033183325 0.10913505 0.033450034 0.035951667
000070 3f 99 8b 3c 87 ff 27 3c 06 81 30 3d 26 d7 15 3e
       0.017040847 0.010253794 0.043091796 0.14632854
000080 64 51 be 3c 62 c6 c7 3d 13 85 7c 3e 15 67 3a 3d
       0.02323217 0.097546354 0.24660139 0.045508463
000090 21 e5 d9 3c 6d 3d 10 3e 6e a2 32 3e 3f a8 33 3e
       0.026598515 0.14085932 0.17444775 0.1754465
0000a0 ac d4 84 3c ef 9b cd 3c b4 ef 78 3d 55 b6 fb 3b
       0.016214691 0.025098769 0.060775474 0.007681648
0000b0 05 54 8f 3c 54 0f 10 3c 52 b0 16 3d 2e 50 88 3d
       0.017496118 0.008792717 0.036789246 0.06655918
0000c0 13 7d 5a 3d 6e 75 4e 3c 4f 5a 22 3c f6 0d 9e 3c
       0.053341936 0.01260124 0.009909227 0.019293766
0000d0 55 33 51 3c d7 31 48 3d 2d c8 8a 3d b0 29 0a 3d
       0.012768586 0.048875656 0.06776462 0.033731163
0000e0 30 b6 cc 3c bd 4e 21 3d 4e ca 9d 3c fb 28 80 3c
       0.024989218 0.03938173 0.019261505 0.015644541
0000f0 f9 ab 08 3d f3 54 81 3d 40 f5 84 3c 76 44 20 3d
       0.03336713 0.06315031 0.016230226 0.03912779
000100 ef 5e f0 3d 45 f2 09 3c b7 45 bd 3c 65 b1 c4 3c
       0.11736857 0.008419578 0.023104532 0.02401037
000110 ed 59 f4 3c 2e ea 36 3e 67 c6 1e 3c 58 c1 53 3d
       0.029828036 0.1786277 0.0096908575 0.05169806
000120 d9 1c 6e 3e 91 0f 68 3d b4 e8 21 3e 36 9c 85 3e
       0.23253192 0.05665547 0.15811425 0.26095742
000130 da 4d a4 3c f7 50 82 39 2a fa 3f 3d 4f f9 b8 3c
       0.020056654 0.00024855856 0.046869434 0.022579817
000140 df a0 1d 3d 1a 7c 3f 3c f6 cc 93 3d 52 5f 0c 3d
       0.038483497 0.011687303 0.072168276 0.034270592
000150 9b e7 8c 3b 04 00 00 00 f9 5b 8d 3c 9b 53 0a 3e
       0.0043000705 6e-45 0.01725577 0.13508455
000160 32 56 31 3d 50 a2 9e 3e bf 37 e1 3d 38 88 76 3d
       0.043295093 0.3098321 0.10996961 0.060188502
000170 81 b7 48 38 db 04 00 3d 80 31 f2 3c dc 82 77 3d
       4.7854617e-05 0.03125463 0.029564619 0.06042753
000180 e1 26 8c 3a 7b 59 b4 3c 65 22 80 3e f2 03 6d 3c
       0.0010692739 0.022015324 0.2502624 0.014466273
000190 c1 83 9b 3c 1f 4c 15 3d cf 0e 1b 3e 3c 15 14 3c
       0.018983724 0.036449548 0.15142368 0.009038266
0001a0 8a dc 11 3e aa 18 f1 3c 71 39 55 3d 88 90 b3 3b
       0.14244285 0.029430706 0.052056734 0.005479876
0001b0 71 1d 96 3d f5 1b e9 3d 19 19 2c 3c a1 77 3b 3d
       0.07329834 0.113822855 0.010504031 0.045768384
0001c0 53 7f 13 3c 29 94 5d 3c 82 9a a1 3a de 63 7c 3d
       0.009002524 0.013524094 0.0012329372 0.06161868
0001d0 aa 7b 29 3c cf 66 7f 3c 03 9a 08 3d a6 14 36 3d
       0.010344425 0.015588476 0.033350002 0.044453286
0001e0 2c 94 58 3d 04 00 00 00 e1 d3 84 3c c9 b4 29 3d
       0.052875683 6e-45 0.016214313 0.041432176
0001f0 54 79 ae 3c 39 43 c5 3d 6e 38 c2 3c 4a 29 6b 3c
       0.021298088 0.09631962 0.023708548 0.014353106

bn2.running_var f4 [128]
000000 67 31 57 3d 31 5d 55 3a ed f7 a9 3c cf 27 19 3d
       0.052537348 0.0008139192 0.020748103 0.03739148
000010 7d da bf 3c 7f 8a 91 3b 5f cd 99 3b 6b f1 89 3c
       0.023419613 0.004441559 0.0046936716 0.01683875
000020 14 ee e1 3c fe fc 57 3a 94 07 00 38 16 09 4f 3b
       0.027579345 0.0008239298 3.0524636e-05 0.003159111
000030 37 53 40 3d 9e 6f 2d 3c 25 85 82 3c 73 c2 6b 3a
       0.04695436 0.010585694 0.015932629 0.0008993514
000040 0f be 29 3b e8 25 66 3d 45 3e cf 3c d8 79 90 3c
       0.0025900637 0.056188494 0.025298247 0.017636225
000050 de 7b 53 3a 1b 76 17 3c 04 00 00 00 33 95 54 3d
       0.0008067469 0.009244467 6e-45 0.0519001
000060 54 f5 c3 3b 0b 83 57 3d 10 80 de 3b 18 35 51 3c
       0.005980173 0.052615207 0.0067901686 0.012769006
000070 77 7f 8d 3b 6c 0c ba 3a 46 d9 31 3c 2a c5 54 3d
       0.0043181735 0.0014194376 0.010855025 0.051945843
000080 97 a1 d3 3b 41 c8 f5 3c b7 00 bf 3d 12 9f 29 3c
       0.006458472 0.030002715 0.09326308 0.010352867
000090 51 23 14 3c 5a 69 56 3d 44 02 7e 3d cd 1b 9d 3d
       0.009041623 0.052346565 0.06201388 0.07671318
0000a0 e1 2b 3b 3b ca 9d f2 3b 32 3f 68 3c 3c 4f b8 3a
       0.002856009 0.007404064 0.014175223 0.00140617
0000b0 ae 7d a1 3b 3e a0 1c 3b 2a 39 4f 3c 1c cc 93 3c
       0.0049283123 0.0023899223 0.012647906 0.018041663
0000c0 14 56 48 3c d4 f0 02 3b 1c 6d 19 3b 9d 28 c3 3b
       0.012227554 0.001997997 0.0023410982 0.005955769
0000d0 8b 5f 58 3b 4a b9 8e 3c 6a cc 6f 3c 57 78 ee 3b
       0.0033015932 0.017422337 0.014636138 0.007277529
0000e0 03 d7 e5 3b a2 d9 5e 3c 33 ae 5f 3b 24 11 52 3b
       0.007014157 0.013601692 0.003413093 0.0032053674
0000f0 b7 a2 04 3c 15 8f 9e 3c 21 0f a7 3b 21 ff 5c 3c
       0.008095435 0.019355336 0.005098239 0.013488562
000100 15 46 56 3d 5b 39 87 3a ff 8f 92 3b f6 24 03 3c
       0.05231293 0.0010316776 0.004472732 0.008004418
000110 23 4a ed 3b 23 a6 ac 3d 79 12 03 3b fc 44 54 3c
       0.007241504 0.084301256 0.0020000024 0.0129559
000120 96 49 9a 3d 00 4d 9b 3c 07 78 9b 3d bf 3c bd 3d
       0.07533567 0.018957615 0.07591253 0.09240102
000130 a3 ac b5 3b 34 d9 19 38 a9 63 18 3c 35 57 42 3c
       0.0055442615 3.668033e-05 0.009301105 0.011861612
000140 bf 28 d0 3b 59 bc 1c 3b e8 16 c7 3c 1c 39 18 3c
       0.0063525136 0.0023915975 0.024302915 0.00929096
000150 21 51 5e 3a 04 00 00 00 07 9b 9c 3b dd 5a 10 3d
       0.0008480717 6e-45 0.004779223 0.035242904
000160 5e 6a 41 3c 83 56 f9 3d 57 3b db 3c a5 61 ba 3c
       0.011805145 0.12174704 0.026761694 0.022751639
000170 9c d8 c6 35 17 35 f5 3b a5 89 d4 3b 99 c2 85 3c
       1.4815191e-06 0.0074831354 0.006486135 0.016328143
000180 1d 02 dd 38 c2 76 71 3b 68 5b c4 3d a6 b7 66 3b
       0.00010538495 0.0036844467 0.09587747 0.0035204678
000190 59 df a0 3b bf 43 32 3c 90 96 61 3d 5f 1b c0 3a
       0.0049094376 0.01088041 0.05507523 0.0014656595
0001a0 44 e0 13 3d 8e ef 09 3c 8b ad b8 3c b3 c9 73 3a
       0.03610255 0.008418931 0.02254369 0.000929977
0001b0 24 05 a7 3c c6 28 2b 3d ac c0 ca 3a 90 38 56 3c
       0.020388193 0.04178693 0.0015468798 0.013075009
0001c0 5e 59 81 3a ec 9b 18 3b ae 74 04 39 92 96 41 3c
       0.0009868552 0.0023286296 0.00012631968 0.011815684
0001d0 95 4d 11 3b 28 d7 2f 3b ae 12 e5 3b 02 7f 82 3c
       0.0022171487 0.0026831124 0.006990752 0.015929703
0001e0 9b 9a 56 3c 04 00 00 00 4c a0 5d 3b 8e a0 2c 3c
       0.013098384 6e-45 0.0033817468 0.010536326
0001f0 55 31 03 3c 1b 7c cd 3c 0b 90 ea 3b c1 1c 16 3b
       0.008007367 0.025083592 0.0071582845 0.0022905322
